Reinforcement_Learning/exp2/pretrained_model/3_DQN_DQN/725000.pth (torch, 28121 bytes, 4 tensors)

linear.weight f4 [512, 8]
000000 df 17 c7 be b5 aa ba 3f 15 02 08 c0 14 6b b3 3f
       -0.388854 1.4583346 -2.125127 1.4017053
000010 c4 62 5b bf b3 02 7d bf d8 52 72 bf fe d7 ac bf
       -0.8569758 -0.98832244 -0.9465766 -1.3503416
000020 b1 6b cf be 2a c2 c1 3f 95 1b 85 3f 8f cd 60 be
       -0.4051185 1.5137379 1.0399042 -0.21953414
000030 18 b4 02 bf cb dc 88 bf 45 00 d5 bf 3f 41 22 bf
       -0.5105605 -1.0692381 -1.6640707 -0.6338081
000040 56 c3 c4 3f 19 86 8b 3e 3f ce 21 3f 58 1e 9f 3f
       1.5372112 0.27250746 0.6320533 1.2431135
000050 c2 a4 97 3f b7 0c bb 3e 9a c3 6f bf eb 77 7d bf
       1.1847155 0.36533138 -0.9365784 -0.99011105
000060 67 ab 9f 3d 66 a6 2e c0 4a 05 5e bc 4c 53 eb bf
       0.07796364 -2.7289062 -0.013551066 -1.8384795
000070 7c 4f 7a be 37 8e 0c bf e6 a8 fc bf d7 96 63 3e
       -0.24444383 -0.549045 -1.9739044 0.2222551
000080 12 8e 48 3e 2a 4b 35 be ba dc 0c bf 66 6b 1c bf
       0.19585446 -0.17704454 -0.550243 -0.61101377
000090 50 9e b5 3f 5a e0 d8 3f 52 1d 50 3f 97 c0 60 3f
       1.4188938 1.6943467 0.8129474 0.8779387
0000a0 8d 53 7c bf f2 2d ea 3e 3a 57 31 3f a0 37 9e bf
       -0.9856499 0.45738178 0.6927372 -1.2360725
0000b0 c4 9f 98 bf ca 60 d0 bf 7c 69 c2 bf 32 ef 07 3e
       -1.1923757 -1.6279538 -1.5188441 0.1327484
0000c0 79 82 b9 3e cb 21 83 3f 4b ad 80 be 81 14 63 40
       0.36232355 1.0244688 -0.25132212 3.5481265
0000d0 d4 f1 a2 be 4e ed 88 40 65 1e 0f bf 90 3b 3f 3e
       -0.31825125 4.278968 -0.55905753 0.18675065
0000e0 a4 bc 8f be b8 26 09 c0 4a e1 64 bf bb 35 26 bf
       -0.2807361 -2.1429882 -0.89406264 -0.64925736
0000f0 e5 7b ea 3f a1 40 35 bf 29 75 06 c0 74 f4 86 3e
       1.831906 -0.7080174 -2.100901 0.26358378
000100 22 1e 1b bf 4a 7e 2a c1 bd 97 b0 3f 7d 3a ab 40
       -0.60592854 -10.655832 1.3796307 5.3508897
000110 46 38 5f bf f0 c2 18 40 db f8 ad 3e 9f a1 3a 3f
       -0.8719524 2.386898 0.33978924 0.72902864
000120 ec 13 a0 be 69 ed 93 3f 28 91 24 40 4a d6 df bf
       -0.312652 1.1556827 2.5713596 -1.7487271
000130 7f e1 d8 bf 10 4f 36 3e 69 fe 03 bf b8 da dd bf
       -1.6943816 0.17803597 -0.51560074 -1.7332373
000140 a3 65 d4 be c9 38 4d 40 ac a3 17 40 ca 1b 0b 3e
       -0.41483793 3.206591 2.3693647 0.1358482
000150 a0 18 16 be 4c 55 e1 be 03 30 f8 3d 45 bc 25 bd
       -0.14657831 -0.4401039 0.121185325 -0.04046275
000160 3e 30 63 bf a7 74 ae 3f 8d 58 4c 40 94 2f 8a 3f
       -0.88745487 1.362935 3.1929047 1.079577
000170 6b b7 da bf 48 f5 32 3f 8f 84 b4 3d 5e 79 00 c0
       -1.7087225 0.6990552 0.08814346 -2.0074077
000180 80 ce d6 3f b0 23 de c0 0c 25 42 bf 43 4a b2 be
       1.6781769 -6.9418564 -0.7583778 -0.34822282
000190 e1 a5 53 3f d3 3a f8 3f 64 2f bb 3e a9 fb ef be
       0.82674986 1.9392952 0.36559594 -0.4687169
0001a0 24 7f fa be 53 5a d4 bf 6a b0 4f be b9 85 66 c0
       -0.48925126 -1.6590065 -0.2028214 -3.6019118
0001b0 83 39 90 3e 27 5d 26 be 8e 5c d5 3d bd c4 99 bf
       0.28168878 -0.16246472 0.10418044 -1.2013165
0001c0 2a 98 95 bf 6f 29 c0 3f c0 96 2f 3e 1e 01 dc be
       -1.1687062 1.5012645 0.1714735 -0.42969602
0001d0 79 48 41 bf ba 39 0e be 5f 30 23 3f 4e c0 11 c0
       -0.7550121 -0.13889208 0.63745683 -2.2773623
0001e0 19 77 89 3f b2 e1 db 3f 75 99 18 c0 1f 9d 0b bf
       1.0739471 1.7178252 -2.3843663 -0.5453662
0001f0 99 4d 85 3d 97 54 09 3f eb 23 0d 3f 28 61 29 be
       0.06508941 0.536447 0.5513293 -0.16540968
000200 b1 a0 03 bf 37 ad 2f 3f c7 41 b5 bf f4 ed cf be
       -0.5141707 0.6862368 -1.4160699 -0.4061123
000210 29 12 1f c0 da 6f 18 c0 fd 0b 22 bf e1 0b 8f 3f
       -2.4854834 -2.3818269 -0.6329954 1.11755
000220 fa 19 e6 be a7 fc 45 c1 d5 8e 46 40 8f b2 0f 40
       -0.44941694 -12.374183 3.1024678 2.2452734
000230 c1 bb cb 3f e8 46 43 bf e2 b3 fb 3e 82 56 db 3e
       1.5916673 -0.7628007 0.49160677 0.42839438
000240 20 4e 37 3f 36 27 3c bf b2 26 37 40 cd 73 54 c0
       0.71603584 -0.7349733 2.8617368 -3.319568
000250 fd 58 e6 3d 72 67 0b 3f 4c 12 81 be 02 41 12 c0
       0.11247442 0.5445472 -0.25209272 -2.2852178
000260 b3 78 7c bf e7 37 4e 3d 07 64 15 bf 06 87 d0 bd
       -0.9862167 0.05034628 -0.58355755 -0.10182004
000270 0c 8a 3c 40 51 9b ab bf f8 91 ab bd bb 6a ee 3e
       2.9459257 -1.3406774 -0.08377451 0.46565804
000280 82 5f ff bf b7 02 27 3e 9c 4d d2 3e 86 90 52 c0
       -1.9951022 0.1630963 0.41074836 -3.290071
000290 e2 68 08 3e 23 ae 44 3e 71 d1 fb be aa 67 c4 3e
       0.1332126 0.19207053 -0.4918323 0.3836034
0002a0 f6 c5 e2 be 51 0e 8c 3f 4d 52 9e 3d 59 d9 cb be
       -0.44291657 1.0941869 0.077305414 -0.3981426
0002b0 45 37 ff 3d e0 c5 fb 3f ee bf 83 bb 55 b0 28 bf
       0.12461714 1.9669762 -0.0040206825 -0.6589406
0002c0 38 2f 01 bf 02 04 45 3f a2 fe 0e 40 23 3c 98 bf
       -0.50462675 0.7695924 2.2342916 -1.1893352
0002d0 20 92 bc bf 91 df f5 be fb b1 94 bd 93 67 43 3e
       -1.4732094 -0.4802213 -0.072605096 0.19082479
0002e0 47 91 76 3f f7 82 c5 3e d2 ff 6f 3f 7b dc 7b be
       0.96315426 0.3857648 0.93749726 -0.24595825
0002f0 0f f9 0a c0 6b 41 2d 3f 2b 72 84 3f c8 b8 2e 3e
       -2.1714513 0.67677945 1.0347341 0.17062676
000300 8e e3 65 be e5 0e d5 3f d9 79 2d c0 65 bf 0f 41
       -0.22450086 1.664517 -2.710562 8.984227
000310 83 4b 6f bf f7 9c a0 be 95 1c 00 3f b7 04 3b 3f
       -0.93474597 -0.31369755 0.5004361 0.7305407
000320 8e 6c e3 be 70 8d 95 3f 4c 76 9c bf 9b 57 19 bf
       -0.44418758 1.1683788 -1.2223601 -0.598993
000330 6d 89 32 c0 26 d7 2b 3e 53 9a 34 c0 05 1f b4 bf
       -2.7896378 0.16781291 -2.8219192 -1.4071966
000340 e2 c8 df bf f4 67 e0 bd 50 36 d2 3e e3 de 39 c0
       -1.748318 -0.109573275 0.41057062 -2.904229
000350 fb cc ae bf a0 dc 89 bf cd 14 04 3d 9e d4 90 bd
       -1.3656305 -1.0770454 0.0322464 -0.070718035
000360 84 22 ce bf f9 30 d9 3e 74 ab 00 c0 e3 71 cd 3e
       -1.6104283 0.42420176 -2.0104647 0.4012595
000370 de 0e 1d c0 24 8d 9d bf 42 85 e2 3e 85 14 09 3f
       -2.4540324 -1.2308698 0.44242293 0.53546935
000380 79 c2 83 3f e7 5c 04 40 a8 4f cb 3e 37 4e 26 bf
       1.0293723 2.0681703 0.3970921 -0.64963096
000390 49 df 87 40 28 0f 10 40 67 97 5e bf 5b fd a8 be
       4.2460065 2.250925 -0.8694977 -0.33005795
0003a0 bf e3 5d be 99 2e 4b 3e ae 4f 9e 3f 84 c5 4c 40
       -0.2166891 0.19841994 1.2368066 3.1995554
0003b0 2c 0b ea 3f 55 77 0e 40 36 7b f6 be ce e4 11 be
       1.8284659 2.2260334 -0.48140877 -0.14247438
0003c0 07 43 af bf 45 81 04 40 dc 5f 32 3f 65 4f f4 be
       -1.369233 2.07039 0.6967752 -0.47716823
0003d0 13 13 8e bf c3 cb 19 40 2c b4 7e 3f ba f0 10 3f
       -1.1099571 2.4030616 0.9949367 0.5661732
0003e0 c1 7c 8d 3f 9d 0a 09 3f 23 d0 4a bf 5d 15 b8 3f
       1.1053697 0.5353182 -0.7922384 1.438152
0003f0 e3 18 bc be ea 1b de 3f 7d df 63 3f 91 c5 52 3f
       -0.36737737 1.7352269 0.8901289 0.8233271

linear.bias f4 [512]
000000 b7 78 08 3f 16 d6 5e 3d ca 9f 02 bf 79 78 88 3f
       0.53309196 0.054403387 -0.5102507 1.0661765
000010 d4 4e 29 3f 50 30 8d bf 7d 59 98 3e 81 43 97 be
       0.6613591 -1.1030369 0.29755774 -0.2954369
000020 d3 bf 5b be 2d 0b 1e 3f f3 6f cc 3e db b7 b4 be
       -0.21459894 0.617358 0.3992916 -0.3529652
000030 ad 60 98 3e d7 35 87 be 88 f0 67 be 45 63 0f 3d
       0.29761258 -0.26408264 -0.22650349 0.03500678
000040 a7 e7 78 be da 5a 38 bf c9 0d da 3d e0 5a c8 3e
       -0.24307118 -0.7201363 0.106471606 0.39131832
000050 f0 c1 ab 3e 10 39 c4 3f d0 88 45 bf 40 92 88 bd
       0.335464 1.5329914 -0.77161884 -0.0666852
000060 f3 6b 6d 3e cd a8 33 3f 86 45 6e bf 90 d6 18 3f
       0.2318571 0.70179445 -0.93074834 0.59702396
000070 22 08 e9 be e0 a2 e7 be a3 c9 d6 3e 03 3c 1e 3f
       -0.45514017 -0.4524145 0.41950712 0.6181032
000080 13 d2 0b bf 66 fb d4 3e 51 88 bd be 8d 52 41 bf
       -0.5461742 0.41598052 -0.37018064 -0.7551659
000090 29 de f4 be 3d b1 aa be 49 b3 a6 3f d3 ef 0f bf
       -0.47825745 -0.33338347 1.3023463 -0.5622532
0000a0 ab 0c 66 3d 11 b5 b5 bc 0e 2f 08 3f 47 10 1c 3f
       0.056164425 -0.022181066 0.531968 0.6096234
0000b0 7a 02 42 be 19 82 e7 be 26 1c 07 bf 32 ab 80 3e
       -0.18946257 -0.45216444 -0.52777326 0.25130612
0000c0 51 64 4c 3f 65 b7 8f 3e 2b 14 2f bf f8 9c ff 3d
       0.7984057 0.28069606 -0.6839015 0.12481111
0000d0 18 c2 34 3f c2 f3 12 bf 5d c0 d9 be 0f a8 81 be
       0.70608664 -0.57403195 -0.42529574 -0.2532353
0000e0 8a f3 57 3f dd 21 75 3f ac fd 10 3f ea 41 3d bf
       0.84355986 0.95754796 0.5663707 -0.739287
0000f0 ef e3 19 3e c3 56 b2 be 9b e8 2d 3f 96 19 e1 be
       0.15028356 -0.3483182 0.6793305 -0.43964833
000100 f4 06 fd bd cd a1 46 3f 00 bb 25 bf c9 71 31 3f
       -0.12354842 0.7759064 -0.64738464 0.6931425
000110 e2 3b ef 3e cd 29 89 bf c8 40 44 3f 09 14 35 bf
       0.46725374 -1.0715882 0.7666135 -0.70733696
000120 c3 02 8d 3f 41 a6 42 3e 1e db 0e 3f 69 50 9b 3f
       1.1016468 0.19008733 0.55803096 1.2133914
000130 37 24 e8 3d e4 ef 5b be 33 43 a8 3e e8 20 50 3f
       0.113350324 -0.2147823 0.3286377 0.8130021
000140 6d 66 9b 3f 4c 1f 0f bf f9 63 c1 3e c7 d7 30 3f
       1.2140633 -0.5590713 0.37771586 0.6907925
000150 65 5e ba 3f b8 9e 21 3f fb 32 57 bf 12 df 25 3f
       1.4560057 0.6313281 -0.84062165 0.64793503
000160 88 47 2f bc 0a a3 79 bf d1 d3 82 3f f2 6c cc 3f
       -0.010698207 -0.975144 1.0220891 1.5970747
000170 d5 0a 10 3f de 28 23 bf e1 bf ba 3d fe f0 5d 3f
       0.5626653 -0.63734233 0.09118629 0.8669585
000180 67 4a f5 bf c3 d8 b6 bc 6c ac 8a bf 6e 56 96 3f
       -1.9163331 -0.022320157 -1.0833869 1.1745126
000190 9b 58 a0 bf 8c 47 da 3e f6 3c 33 be 88 d1 12 bf
       -1.252704 0.4263271 -0.17503724 -0.5735097
0001a0 48 df 99 3f eb b2 62 3f 69 72 af 3d 44 55 84 bf
       1.2021265 0.8855426 0.08566744 -1.0338521
0001b0 02 77 5a bf 0f a1 b2 3f 02 c7 99 bf b3 d8 8f bf
       -0.8533784 1.3955401 -1.2013857 -1.1238006
0001c0 9a 0f 50 3e 5d be 10 3f 4a 14 0f 3f 5b 0e 66 3f
       0.20318452 0.5654047 0.55890334 0.89865655
0001d0 62 69 a5 bc f8 21 da 3c 85 37 60 be 45 03 7c 3f
       -0.020191852 0.026627526 -0.21896179 0.9844249
0001e0 48 87 d0 be 63 fe 7b 3f 2a 68 8d 3f a6 3f 84 be
       -0.4072821 0.9843504 1.1047413 -0.2582981
0001f0 28 dc 95 3e b4 a5 db 3e 88 6f 2a bf eb 13 9c 3e
       0.29269528 0.4289986 -0.66576433 0.30483946
000200 07 4d 3f 3f ed 34 53 3e c8 78 eb 3e 86 5e 6a 3f
       0.7472691 0.20625658 0.45990586 0.9155048
000210 2d 6d 8e bd 74 43 6a bf d6 e4 b4 bf 50 b6 22 3e
       -0.069544174 -0.91509175 -1.4132335 0.15889859
000220 0a 8a 94 3d 23 9e f5 be 11 63 a0 bf 48 51 ef 3e
       0.07252891 -0.4797221 -1.2530233 0.467417
000230 f8 ff 54 3f 5b 91 92 3e a8 53 14 3f 94 c9 7e bf
       0.8320308 0.28626522 0.5794015 -0.99526334
000240 b8 d1 84 bf 36 7a 87 be e5 07 a7 be e1 37 6a 3f
       -1.0376501 -0.26460427 -0.3262321 0.91491514
000250 ff 9d 26 bf ee f5 4c 3f 2c a8 a6 bf dd d8 5f 3f
       -0.6508483 0.8006276 -1.3020072 0.8744028
000260 d2 48 38 3f 82 41 4b 3f d5 e0 bb 3e 83 fa 12 c0
       0.71986115 0.7939683 0.3669497 -2.29654
000270 12 d7 32 3f 11 69 04 3f 63 63 e4 3c 39 2f 33 be
       0.6985942 0.5172282 0.027879423 -0.17498483
000280 18 89 94 3f 4c 26 49 3e ee ad 0a 3f 62 61 45 3f
       1.1604338 0.19643515 0.54171646 0.7710172
000290 3f f6 79 bf d0 d2 65 3e 2c b0 00 be 58 a8 2a bf
       -0.97641367 0.224437 -0.12567204 -0.6666312
0002a0 a4 57 84 be f9 f2 6c 3e f3 70 ac be 9b ad 58 3e
       -0.25848114 0.23139562 -0.33679923 0.21159975
0002b0 af 65 90 3f 5a 36 33 3f d4 bc 55 bf 44 49 a6 bd
       1.1281031 0.7000481 -0.83491254 -0.08119443
0002c0 f1 35 24 bf c8 c9 33 3f 8c 47 58 3d d2 05 4d bf
       -0.6414481 0.7022977 0.052802607 -0.80087006
0002d0 de 25 12 be 71 74 f3 3e d3 20 8c 3f 2d 83 39 bf
       -0.14272258 0.47549775 1.0947517 -0.72465783
0002e0 6d 26 df bd d9 7d 3d 3e e8 a5 f3 3e d3 09 4d bf
       -0.10896001 0.18505038 0.47587514 -0.80093116
0002f0 8e a0 90 bf 2b 6a 7e 3f bc e9 28 3f 89 5f 7d 3f
       -1.1298997 0.9938075 0.6598165 0.989739
000300 0e 35 27 bd eb ba 79 bf 18 81 4a 3f 34 e4 9d 3e
       -0.04082208 -0.9755084 0.7910323 0.30838168
000310 b0 10 5f 3f ba 60 29 3f 1b 4b 41 3f 4d 27 67 bf
       0.8713484 0.6616322 0.75505227 -0.90294343
000320 fc 90 66 bf 3f 9c c7 3f 6a 48 55 3f 95 f9 4d 3f
       -0.9006498 1.5594558 0.8331362 0.80458957
000330 37 07 a9 3e a1 ff d8 bd eb 45 1a be d0 c5 3d bf
       0.33013317 -0.10595632 -0.15065734 -0.7412996
000340 7b a3 97 bf c0 a1 34 3f 84 43 ef 3e 36 46 f8 3e
       -1.1846765 0.7055931 0.46731198 0.48491067
000350 17 28 e7 3e c7 73 cb be b5 29 46 3f 08 44 b8 3d
       0.45147774 -0.3973677 0.7740739 0.08997351
000360 17 0a 26 3f 4f 97 42 3f f1 28 95 3e 2e 94 5a 3f
       0.64859146 0.7601213 0.29132798 0.85382354
000370 31 b6 13 3f fa 25 69 be 6f 63 23 3f 87 64 f6 3d
       0.5769988 -0.22768393 0.638236 0.12030893
000380 56 95 cb be 5f 92 a4 3f 9f 60 85 bf 2e 9d 01 bf
       -0.39762372 1.2857169 -1.0420111 -0.5063046
000390 ef 85 5a 3f 8c e7 cf 3d 36 9a 1c 3f a4 1a 5c bf
       0.85360616 0.10151586 0.6117281 -0.8597815
0003a0 e5 b2 37 3f f9 84 97 3f 8f 38 25 3f 28 2d 53 3f
       0.71757346 1.1837455 0.64539427 0.8249078
0003b0 f5 cc 8e 3e 43 a9 d2 3e e7 9c 33 3f c6 f4 28 bf
       0.27890745 0.4114476 0.7016129 -0.65998495
0003c0 99 0d 7e bf 80 d5 12 3f 1a dd 8a 3e 2b 3f 3f 3f
       -0.992395 0.57357025 0.27121812 0.7470576
0003d0 ac db 69 bc 1d 53 26 be 05 3a 6e 3f 2b 17 97 3e
       -0.014273565 -0.16242643 0.9305728 0.29509863
0003e0 ea 24 28 3f 95 18 68 3f c3 d7 1f 3f 4b a4 38 3f
       0.65681326 0.9066251 0.624386 0.7212569
0003f0 72 e0 ae 3e 45 c1 81 3f 90 d7 c1 bd 93 30 c5 be
       0.34155613 1.0137106 -0.094649434 -0.38513622

linear2.weight f4 [4, 512]
000000 52 a9 22 bf ce 7b 1d 40 fb 04 28 40 2a ab 85 3f
       -0.6353961 2.4606814 2.625304 1.044286
000010 08 03 a3 bf d9 aa 99 bf 7d a6 67 c0 20 0a f6 3f
       -1.27353 -1.2005264 -3.6195366 1.922184
000020 0b 1d 4f bf 4d 5c 6b 40 dd e6 02 40 4f 19 20 c0
       -0.8090369 3.6775086 2.0453408 -2.5015447
000030 ed 4d 4d 40 eb 9a 19 c0 1d 66 1b 40 db 8c c4 3f
       3.2078812 -2.4000804 2.4281075 1.5355486
000040 16 b6 ae bf a1 eb de c0 df 09 81 40 4c d6 49 40
       -1.3649318 -6.9662633 4.032455 3.1537046
000050 d2 42 e7 bf 86 c7 27 3f 3f 4c 85 bf 7a 1c 0d 3f
       -1.8067267 0.65538824 -1.0413893 0.55121577
000060 b6 17 a5 40 ee 4c 17 3f 4a b2 cb bf 7f e8 b7 bf
       5.1591444 0.5910176 -1.5913785 -1.4367827
000070 b3 7c c9 3f 5b 78 14 40 13 89 b1 3f 8b ad 9a bf
       1.574118 2.319846 1.3869957 -1.2084211
000080 c1 89 9a bf e7 1f ca bf 2a 2e 0f 40 d9 e7 68 c0
       -1.2073289 -1.5790986 2.2371926 -3.6391509
000090 60 ab 5a c0 e9 d8 56 40 c6 e9 a4 3f 5e c7 66 c0
       -3.41671 3.3569891 1.2883842 -3.6059184
0000a0 e6 93 8f c0 f0 53 44 be 00 6d 07 3f e1 43 7c 3f
       -4.486804 -0.19172645 0.52900696 0.98541075
0000b0 ad d0 11 c0 53 0a 98 c0 17 12 14 40 04 08 e9 be
       -2.2783616 -4.7512603 2.313604 -0.45513928
0000c0 76 5e 27 c0 7a 2f 12 c0 8b 43 24 3f 3e c5 fc 3f
       -2.6151404 -2.2841477 0.6416556 1.9747694
0000d0 34 3d 4a 3f b1 15 61 40 bf 7e 65 c0 f6 2e b4 bf
       0.7899964 3.516949 -3.585861 -1.4076831
0000e0 b7 40 0b bf 3f 93 a8 3e 36 2c a9 bd 65 2f 58 bf
       -0.5439562 0.3292484 -0.08260386 -0.8444732
0000f0 8a e4 f6 be 5e 65 af bf 9b 23 6b c0 d6 3d 09 c0
       -0.48221236 -1.370281 -3.6740482 -2.1443992
000100 10 ca 35 40 03 57 1f 3e 2c e7 a7 40 38 28 f8 bf
       2.840458 0.15560536 5.246969 -1.9387274
000110 67 c3 c4 3f 86 99 1e c0 3d 83 ef bf 4c 86 94 40
       1.5372132 -2.4781203 -1.8711926 4.6413937
000120 8a f1 06 40 c8 93 2c c0 b5 dc 08 40 3a 3b 4b c0
       2.1084924 -2.6965199 2.138471 -3.17549
000130 91 53 0b c0 d4 f0 e8 bf f8 83 96 bf 7c 07 06 40
       -2.1769755 -1.8198495 -1.1759024 2.0942068
000140 08 05 88 3f 4a be 71 40 42 c0 0c bc 21 dc 3e 3f
       1.0626535 3.7772393 -0.00859076 0.7455464
000150 06 c7 92 bf 69 7e 23 be 2c 04 38 c0 76 78 45 40
       -1.1466987 -0.1596619 -2.8752546 3.0854774
000160 26 58 01 c0 82 c7 d7 bf 72 fc a5 3e 78 34 04 40
       -2.0210052 -1.685776 0.32419163 2.0657024
000170 ed 10 a5 3e 8b 44 73 40 91 56 e7 40 10 fb a6 bf
       0.32239476 3.8010585 7.229317 -1.3045368
000180 92 c0 b9 c0 3a 21 9f bf cf b6 d4 bf 72 cb 2d c0
       -5.804757 -1.2432015 -1.6618289 -2.7155423
000190 8c 0b 22 c0 af 60 32 bf b3 8f f4 3f 64 3a f6 bf
       -2.5319548 -0.6967878 1.9106354 -1.923657
0001a0 b1 b1 7a 3f ce 4b 88 3f 4c b5 94 40 4c 4a 8c bf
       0.97927386 1.0648134 4.647131 -1.0960174
0001b0 bf b2 00 bf 2b b6 61 3f 82 3e 76 c0 42 4b b6 bf
       -0.50272745 0.8816859 -3.8475652 -1.4241717
0001c0 b1 a4 04 c0 e2 d6 9f be 8a d8 cf bf 4c 0b 06 40
       -2.072552 -0.3121863 -1.6237957 2.0944395
0001d0 b3 52 ef bf 2a 55 c4 bf b6 cd 25 40 26 35 0e 40
       -1.8697113 -1.533849 2.5906806 2.221994
0001e0 56 af 96 3f 0d 83 0f 3f a5 fe 72 3e 76 dc 72 bf
       1.1772258 0.5605934 0.23729952 -0.94867647
0001f0 8e 9a d0 bf c3 25 df 3e 5a df b6 c0 0c 03 08 bf
       -1.6297166 0.43583497 -5.7147646 -0.5312965
000200 ac e5 62 40 a5 21 8f 40 cb a2 80 be 89 75 f8 3e
       3.545268 4.472857 -0.251242 0.48527172
000210 99 38 e1 be 52 24 3e bf 40 ea 49 be 9d 2a c2 bf
       -0.43988493 -0.7427417 -0.19718266 -1.5169255
000220 9a 8f 89 bf bd 3c 60 bf d6 81 f6 3f 99 28 d2 3f
       -1.0746949 -0.8759268 1.9258373 1.641864
000230 8f e7 e7 3e 7a 9b 00 c0 b2 66 f3 3f c9 2f 23 c0
       0.45293853 -2.0094895 1.9015715 -2.5497916
000240 71 05 7a c0 5e 67 9a 3e 12 ca 9f 3f ba 57 61 3e
       -3.906582 0.30156988 1.2483542 0.22006121
000250 c6 88 03 c0 68 69 db 3f 2a c4 78 40 6a ac 4b 40
       -2.055223 1.7141542 3.886973 3.1823983
000260 b9 99 27 3f eb 73 20 bf 8e 71 18 be f2 8a ad 40
       0.6546894 -0.62676877 -0.14887068 5.423211
000270 7a d4 44 bf 12 68 d2 bf 1a f9 01 bf 92 d4 f6 bf
       -0.76886714 -1.643801 -0.50770724 -1.9283621
000280 76 d4 ca 3e a6 bd 68 40 6c 4f eb 3e 28 1b aa 3e
       0.3961522 3.6365752 0.45959032 0.33223844
000290 fb 78 1a bf 1e ce 65 40 07 73 1f 40 5d 42 ad bf
       -0.6034085 3.5907054 2.4913957 -1.3535877
0002a0 a6 33 6b 40 e4 73 50 3f f9 13 e2 c0 27 f5 f0 40
       3.6750274 0.81426835 -7.064938 7.529926
0002b0 5a 78 32 3f 80 f4 48 3e d0 cf 83 3d 87 0b 1d bf
       0.6971489 0.1962452 0.064361215 -0.61345714
0002c0 d0 51 a5 bf 20 97 38 40 44 5c 55 c0 31 6c 38 40
       -1.2915592 2.884224 -3.3337564 2.8816035
0002d0 7d 9e 34 40 5f a1 18 40 8c 92 28 40 a9 c3 94 3d
       2.8221734 2.3848493 2.6339445 0.07263882
0002e0 be c0 c4 3e ca 0c 6c bf 91 ae e1 bf c7 53 11 c0
       0.384283 -0.92207015 -1.7631398 -2.2707384
0002f0 21 b1 0f c0 b7 bc 0f c0 d9 da cf 3f b9 66 4d bf
       -2.245186 -2.2458932 1.6238662 -0.8023487
000300 40 0e bd 3f d8 67 a2 40 65 44 a2 3f 1a 5a f5 3e
       1.4769974 5.0751762 1.2677122 0.47920305
000310 72 cb 40 c0 8f 4c 47 40 c0 2e 4f bf 1e f3 bd bf
       -3.0124173 3.1140478 -0.8093071 -1.4839818
000320 65 35 7e 40 03 a7 4a 3f 5e 45 fe 3f 14 64 ef 3e
       3.972009 0.7916109 1.9864919 0.4675604
000330 d0 0b 98 be ab 60 02 bf fb fb db bf 9d 33 eb bd
       -0.29696512 -0.50928754 -1.7186273 -0.11484454
000340 63 95 01 c0 b3 be 7d 3f 3a a4 65 40 f6 c2 8b bf
       -2.0247428 0.9911911 3.5881486 -1.0918872
000350 21 80 2e 3f 66 4f 41 c0 53 dc cb bf cb c3 e3 bf
       0.6816426 -3.020471 -1.5926613 -1.7794126
000360 7d 36 88 be fb e5 31 3f fe a5 af 3f 7d 64 58 bf
       -0.2660407 0.6949155 1.3722532 -0.8452833
000370 f2 f0 32 bf 5f ed ce be 0e 5d 4c c0 32 4e 0e 40
       -0.69898903 -0.40415475 -3.1931796 2.2235227
000380 b2 9f 86 bf a8 b0 45 40 5e f8 43 c0 a8 1e 87 3f
       -1.0517485 3.0889072 -3.0620341 1.055623
000390 51 04 3b 40 65 97 70 bf ce 44 f9 3e 99 58 bb c0
       2.9221385 -0.9398101 0.48685306 -5.854565
0003a0 a2 09 1a bf 07 85 32 40 46 dd 86 be dc 43 93 3e
       -0.6017095 2.7893693 -0.26340693 0.2876271
0003b0 23 29 40 40 e0 e0 73 c0 2f 26 6f 3f 3f 93 79 be
       3.0025108 -3.8106003 0.9341764 -0.24372576
0003c0 22 c5 94 bf a1 a6 46 3e b2 58 5e 3f 25 1a 2d 40
       -1.162266 0.19399501 0.8685409 2.7047207
0003d0 a8 86 32 3f 5f 78 0c 40 85 90 66 bf db 7e e2 3e
       0.6973672 2.1948469 -0.9006427 0.44237408
0003e0 46 b5 48 bb 2b ee 91 3f 2d 1e 2b 3f 03 d4 1f c0
       -0.0030625626 1.1400808 0.6684292 -2.4973152
0003f0 d0 9b 1e 3e b5 e1 86 3f da 1c af 40 dc a4 a3 bf
       0.15489125 1.053763 5.472272 -1.2784686

linear2.bias f4 [4]
000000 c8 3b 05 3e a6 f3 14 3e 30 c0 de 3e 0b 09 08 be
       0.13011086 0.1454607 0.43506002 -0.132847
