Reinforcement_Learning/exp2/pretrained_model/3_DDQN_DuelingDQN/591000.pth (torch, 30671 bytes, 5 tensors)

linear.weight f4 [512, 8]
-0.29454303 0.17697588 -0.16264334 -0.30458114 -0.2220983 0.19719453 -0.09793967 0.3880018
0.13628723 -0.6332432 -1.2993776 0.3436147 1.1390244 -1.0417786 0.8745769 0.766654
1.772476 1.6259308 -0.8052696 -0.6534606 -1.4778944 0.02424185 -0.32671666 -0.1295362
-0.44775912 -0.3487849 1.8246602 0.17722102 0.9164373 -0.43530062 -1.6555312 -0.29237282
-1.3861651 1.0786897 -1.8340596 -0.9113135 -0.95725036 -0.96489674 -0.6915008 -0.68528897
-0.29934156 -3.3730924 -0.66532034 -2.107736 -0.89658743 -0.060181618 0.12819132 0.87606645
-1.8980693 0.42491096 -0.15883628 0.24466881 -1.8820021 -1.3715528 -2.403477 0.33769736
-0.47509763 -1.6892397 2.3441756 0.3569512 -0.25806874 -1.7876521 -0.5265017 -0.49664837
-1.1065729 0.1110486 -0.777357 -0.95491856 -1.4829648 0.41222057 1.1146328 0.99923724
0.18459678 0.71681714 0.15264556 0.1629055 0.3706948 -0.83619756 -0.007940308 0.0081263995
-0.9440667 1.4709301 0.24175979 0.021118637 1.3587897 -1.2043343 -0.6188071 -1.5859417
-0.633306 0.31480742 -0.17872752 -0.11730406 -0.30870834 -0.2035013 0.16536146 -0.022701897
-1.4831179 -0.06616712 -0.031619757 -0.7525436 -1.8833117 -0.7918254 -1.2062078 -0.017550487
-2.0071168 0.41119528 -1.2991825 -0.5076901 0.5103774 -0.0006508418 -0.57423216 1.4312736
1.3379828 -0.4882898 -0.33047754 0.84149116 -2.2133331 -2.0451374 0.18728988 -1.8916463
1.2381104 -1.2520573 -1.8056896 -1.3512499 0.04921119 -2.341815 0.3576931 -0.4886507
0.3015897 0.95232004 0.194029 1.1581576 -1.2226689 -1.1993549 -0.14587748 0.26468208
-1.1695408 0.71336615 1.1809094 -0.3259336 -1.7059357 -0.40648994 0.64096844 -0.7376049
-0.3970679 0.32981062 0.8074902 -1.1146243 -0.602656 -1.3946403 -1.7420717 0.1404101
-0.6012523 0.85003316 0.2663591 -0.67471933 0.67619294 -1.6277089 -0.97878546 -0.5771429
-0.65125614 1.220856 -0.3576277 -1.1721852 -3.048284 0.4775988 0.74268377 -0.16886367
-1.1967671 0.71594524 1.312454 -0.36104673 0.95819896 -2.3888116 -0.24472034 0.09693612
0.5939089 -1.9747529 -0.96272016 0.3869631 0.6010279 -0.55051047 0.023573782 0.15270847
0.9572884 0.0726596 -0.22617507 -0.50901115 0.6723627 0.47952977 0.19297393 -0.2767317
-3.3631418 1.0614352 0.54263324 1.64776 -2.675087 0.5774271 -1.2321779 -0.26413357
-1.0935655 -0.9490907 -0.9613225 4.2922606 -2.5358822 -1.4659766 -1.999763 1.3289204
2.7814708 0.4416732 -1.1936364 0.3366041 1.2065523 -0.15312055 0.6311148 -0.3444546
-1.0012319 0.21203217 1.5267311 0.78982997 -0.8227567 1.5242437 0.8127152 0.2386352
-3.2396102 1.2540096 -1.2123605 -0.20129016 0.15495376 0.21065739 0.42265743 0.049049743
-0.34285268 1.2591689 0.45620182 -0.2861327 -1.4789637 -1.1260488 -0.23805432 1.0066955
2.6449633 -2.323915 3.4438434 3.4450386 0.64586955 0.28699046 -1.9103813 0.04015346
-2.0654693 0.97720397 -0.17810924 -0.017272409 1.5501744 -1.4596517 -0.041926716 0.074814595
00000000: 58ce 96be 2a39 353e fa8b 26be 0ff2 9bbe
00000010: bd6d 63be 5ded 493e 9894 c8bd 2ca8 c63e
00000020: e18e 0b3e 3a1c 22bf 0152 a6bf 44ee af3e
00000030: 8dcb 913f 0059 85bf 46e4 5f3f 7043 443f
00000040: 7ee0 e23f 801e d03f 2626 4ebf 3249 27bf
00000050: a52b bdbf d896 c63c 6847 a7be 23a5 04be
00000060: af40 e5be ef93 b2be 778e e93f 6d79 353e
00000070: a39b 6a3f b9df debe 72e8 d3bf e4b1 95be
00000080: dc6d b1bf 8112 8a3f 77c2 eabf d74b 69bf
00000090: 5c0e 75bf 7903 77bf 3206 31bf 196f 2fbf
000000a0: 4c43 99be bfe0 57c0 6f52 2abf 26e5 06c0
000000b0: c186 65bf 0081 76bd 9644 033e e445 603f
000000c0: eff3 f2bf ee8d d93e faa5 22be 768a 7a3e
000000d0: 72e5 f0bf 0b8f afbf 91d2 19c0 abe6 ac3e
000000e0: ff3f f3be 0239 d8bf f906 1640 4fc2 b63e
000000f0: 9621 84be c9d1 e4bf d1c8 06bf b248 febe
00000100: 2ea4 8dbf 736d e33d de00 47bf 8b75 74bf
00000110: cad1 bdbf 930e d33e 4aac 8e3f 03ce 7f3f
00000120: f006 3d3e 5481 373f 1e4f 1c3e b3d0 263e
00000130: b5cb bd3e 0b11 56bf 1118 02bc 9724 053c
00000140: 5bae 71bf 7047 bc3f e18f 773e fe00 ad3c
00000150: d2ec ad3f a027 9abf 246a 1ebf 2300 cbbf
00000160: 5820 22bf 702e a13e 5904 37be 1c3d f0bd
00000170: 050f 9ebe a562 50be 8454 293e 54f9 b9bc
00000180: cfd6 bdbf a182 87bd b883 01bd b3a6 40bf
00000190: 5c10 f1bf 12b5 4abf 0465 9abf 0ac6 8fbc
000001a0: 9a74 00c0 3088 d23e 9d4b a6bf faf7 01bf
000001b0: 18a8 023f 419d 2aba e100 13bf f933 b73f
000001c0: 0543 ab3f 1f01 fabe 5a34 a9be f76b 573f
000001d0: 40a7 0dc0 88e3 02c0 ebc8 3f3e 7721 f2bf
000001e0: 677a 9e3f 6a43 a0bf d620 e7bf c2f5 acbf
000001f0: ac91 493d 4ce0 15c0 8d23 b73e 6d30 fabe
00000200: f769 9a3e 3fcb 733f 8aaf 463e 823e 943f
00000210: 6a80 9cbf 7684 99bf e860 15be 6984 873e
00000220: 83b3 95bf 2a9f 363f 0a28 973f c5e0 a6be
00000230: 1a5c dabf 731f d0be 8216 243f add3 3cbf
00000240: 7c4c cbbe f0dc a83e aeb7 4e3f 02ac 8ebf
00000250: aa47 1abf 9383 b2bf 35fc debf aac7 0f3e
00000260: aceb 19bf c69b 593f 3860 883e 68ba 2cbf
00000270: fb1a 2d3f c458 d0bf af91 7abf a3bf 13bf
00000280: b9b8 26bf 0245 9c3f fa1a b7be 2a0a 96bf
00000290: 1617 43c0 d487 f43e 8620 3e3f 99ea 2cbe
000002a0: aa2f 99bf 3048 373f 7efe a73f 1edb b8be
000002b0: 874c 753f 4ae2 18c0 f897 7abe 7286 c63d
000002c0: 6a0a 183f b4c4 fcbf d474 76bf 0720 c63e
000002d0: f7dc 193f 41ee 0cbf ce1d c13c 9c5f 1c3e
000002e0: da10 753f 8ece 943d 709a 67be 8e4e 02bf
000002f0: f61f 2c3f ed84 f53e f59a 453e c7af 8dbe
00000300: b73d 57c0 1cdd 873f 03ea 0a3f cde9 d23f
00000310: a034 2bc0 43d2 133f 01b8 9dbf 843c 87be
00000320: f4f9 8bbf 9cf7 72bf 3b19 76bf 335a 8940
00000330: e54b 22c0 1fa5 bbbf 3cf8 ffbf 101a aa3f
00000340: 9e03 3240 fd22 e23e 14c9 98bf 5f57 ac3e
00000350: 4e70 9a3f a2cb 1cbe bd90 213f 5a5c b0be
00000360: 5e28 80bf f61e 593e ed6b c33f 4c32 4a3f
00000370: 2fa0 52bf 6b1a c33f 1a0e 503f c95c 743e
00000380: c655 4fc0 6383 a03f a12e 9bbf 021f 4ebe
00000390: 33ac 1e3e 92b6 573e 8e66 d83e 62e8 483d
000003a0: 638a afbe 722c a13f 4993 e93e fc7f 92be
000003b0: af4e bdbf 5e22 90bf 83c4 73be 66db 803f
000003c0: 1447 2940 06bb 14c0 ee67 5c40 837b 5c40
000003d0: b557 253f 6af0 923e 6087 f4bf f477 243d
000003e0: a630 04c0 0a2a 7a3f 4562 36be de7e 8dbc
000003f0: 1d6c c63f ded5 babf 59bb 2bbd 6538 993d

linear.bias f4 [512]
1.1192245 1.2309058 0.16812907 -0.45918143 -0.5626908 -0.38411063 0.8436322 -1.3434561
0.15605001 1.4623686 0.08540672 0.8603682 -0.6280238 0.110674225 -0.07946683 -0.64160603
0.5101948 0.29210573 0.44253203 0.15025729 0.13399908 0.83379304 -0.89250404 0.71679926
-0.8456984 0.086653 -0.36955005 1.3818393 -0.50113714 0.055763636 -0.32460523 0.6297177
0.014271883 -0.7047332 -0.004005464 -0.35480407 -0.055436723 -0.19956408 0.9305686 0.84547937
-0.23672363 -0.8233897 0.7128884 0.97345245 0.78944224 -0.006771071 0.22906794 -1.4541245
-1.1187798 0.57565695 -0.44001573 0.74575067 0.57927865 -0.113866255 0.46746835 0.9110482
0.7116113 0.9310449 -1.1477691 -1.3511024 -0.92510855 -0.0835208 1.342945 -0.66176677
0.66655844 0.8713422 0.45052287 -0.94798225 -0.25315586 -0.73303854 0.51577824 0.25440985
0.16970576 0.2867265 0.5346277 -2.4807956 1.1708176 0.22540104 -0.5422118 0.6354422
0.6951908 0.42223322 1.0207282 0.062309112 0.32978135 -0.76572716 0.34222946 0.5838516
1.0101814 0.010207854 -1.0373117 -1.1339028 -0.9751699 -0.006222415 0.68624455 0.8162813
-0.9425628 0.40358123 -0.93027467 0.7868162 0.17705052 0.6812281 0.532182 -0.7339282
0.64826745 0.46810755 -0.0010904167 -1.0077716 0.23665948 0.71632594 0.56191796 -0.8753785
-0.115061104 1.2666583 0.18954924 -0.9985858 0.713602 0.13870546 0.20305832 0.5020269
0.61703694 1.0049845 0.8685641 0.27370277 -0.47338584 0.50881165 -0.64372265 -0.6889794
-1.3087684 0.6273789 -0.9757805 0.8337882 -0.21490993 0.5355463 1.4425856 0.22340883
-0.0054856734 -0.052110154 -0.87510085 -0.91076356 0.6884281 0.6723507 0.17651722 0.11347327
-0.38793585 0.58475584 0.26562804 1.0772196 0.7822307 -0.19892524 -0.26584923 -0.9989188
0.79063475 -0.00015741958 0.26260874 -0.05915263 0.43477333 0.6926389 -0.8523425 0.6426693
1.1415403 -0.23616864 -0.21710347 -0.010401377 -0.45062876 -0.9825496 0.60416853 0.49302867
0.39802706 0.52693284 -0.03152594 0.46925923 -0.07802644 0.29749486 0.56692296 -0.05496896
-0.6503683 -1.0346056 -0.9548068 1.2080889 -1.9492792 -0.9178071 1.8123358 -0.8399946
0.21233526 0.2979243 0.21464483 -1.2388281 0.4063766 0.023068842 1.3663378 0.38131565
0.5786213 0.8647842 0.9073272 -0.4720044 1.8175955 0.42644593 0.48746678 0.059616726
-0.3112879 1.1037691 1.733477 0.4828464 -0.64642036 -0.6258722 0.39693287 0.43159944
-1.0365838 -0.24008738 0.12434854 0.46103385 0.6958842 0.4118229 0.86887926 1.0827042
0.45406547 0.7443995 -0.2627071 -0.7946077 0.38041776 -1.27646 0.4314288 1.2795438
0.14987479 0.93512326 0.27744076 0.46620896 -0.34894037 0.70345587 0.6325886 0.6113317
0.30685452 -1.6178772 -0.18662739 -0.7790947 0.18745041 0.6180386 -0.7086131 -0.34017467
0.49711892 0.9158282 -0.71739393 0.57335484 0.20256807 0.40054527 -0.24325043 -0.5615177
-1.3797582 0.3748747 1.3396312 -0.9597598 -0.55735695 0.07821956 0.76036733 -0.14428341
00000000: c042 8f3f 528e 9d3f 072a 2c3e d419 ebbe
00000010: 810c 10bf 26aa c4be 48f8 573f 5ff6 abbf
00000020: 93cb 1f3e e52e bb3f b8e9 ae3d 1741 5c3f
00000030: 2bc6 20bf 2ba9 e23d 81bf a2bd 4b40 24bf
00000040: 209c 023f e28e 953e 8f93 e23e 0cdd 193e
00000050: 0e37 093e 7673 553f 257b 64bf 2880 373f
00000060: b17f 58bf 2177 b13d aa35 bdbe 1ce0 b03f
00000070: 864a 00bf 6968 643d a832 a6be 2e35 213f
00000080: 9ed4 693c 6569 34bf 4440 83bb e1a8 b5be
00000090: 9e11 63bd 875a 4cbe be39 6e3f 5671 583f
000000a0: ae67 72be abc9 52bf db7f 363f 2e34 793f
000000b0: e318 4a3f dcdf ddbb c990 6a3e c020 babf
000000c0: 2d34 8fbf 415e 133f be49 e1be 84e9 3e3f
000000d0: 9b4b 143f b632 e9bd 0358 ef3e 743a 693f
000000e0: 282c 363f f558 6e3f 19ea 92bf ecf0 acbf
000000f0: ead3 6cbf f40c abbd 9fe5 ab3f 8c69 29bf
00000100: 93a3 2a3f 4810 5f3f efaa e63e f7ae 72bf
00000110: a59d 81be 6aa8 3bbf 0b0a 043f 0242 823e
00000120: 59c7 2d3e d1cd 923e 5cdd 083f 5bc5 1ec0
00000130: 5add 953f 88cf 663e 64ce 0abf 57ac 223f
00000140: 06f8 313f f42e d83e 39a7 823f d737 7f3d
00000150: 1ad9 a83e b206 44bf b338 af3e 4c77 153f
00000160: a04d 813f d83e 273c a1c6 84bf ba23 91bf
00000170: bca4 79bf 66e5 cbbb b9ad 2f3f d0f7 503f
00000180: cc4b 71bf 33a2 ce3e 7b26 6ebf c96c 493f
00000190: bb4c 353e f764 2e3f 143d 083f b8e2 3bbf
000001a0: dbf4 253f cbab ef3e 50ec 8eba a9fe 80bf
000001b0: dd56 723e 2361 373f dbd9 0f3f ce18 60bf
000001c0: 28a5 ebbd dc21 a23f 3219 423e 52a3 7fbf
000001d0: 9fae 363f ce08 0e3e 85ee 4f3e d684 003f
000001e0: 22f6 1d3f 55a3 803f 385a 5e3f c522 8c3e
000001f0: a15f f2be 7b41 023f 02cb 24bf f460 30bf
00000200: b985 a7bf e79b 203f c0cc 79bf 2573 553f
00000210: 5911 5cbe 9019 093f a5a6 b83f 49c5 643e
00000220: 2ac1 b3bb 7571 55bd 9c06 60bf cd27 69bf
00000230: d33c 303f 2d1f 2c3f eec0 343e ac64 e83d
00000240: 879f c6be 8fb2 153f 6600 883e 55e2 893f
00000250: 4540 483f 0fb3 4bbe 641d 88be 24b9 7fbf
00000260: 0a67 4a3f ff10 25b9 a774 863e 074a 72bd
00000270: 9c9a de3e c850 313f 1e33 5abf fa85 243f
00000280: fe1d 923f 31d6 71be 5f50 5ebe 8a6a 2abc
00000290: d0b8 e6be 5f88 7bbf caaa 1a3f 416e fc3e
000002a0: 34ca cb3e 12e5 063f 5821 01bd bf42 f03e
000002b0: 54cc 9fbd 3f51 983e dd21 113f 2227 61bd
000002c0: 897e 26bf f56d 84bf 386e 74bf a8a2 9a3f
000002d0: fb81 f9bf 68f5 6abf 9ffa e73f e309 57bf
000002e0: 6a6e 593e 8989 983e dbcb 5b3e eb91 9ebf
000002f0: 9810 d03e defa bc3c 28e4 ae3f ce3b c33e
00000300: 8720 143f 7f62 5d3f 9846 683f 90aa f1be
00000310: f8a6 e83f 1f57 da3e 3f95 f93e ab30 743d
00000320: 2161 9fbe 4e48 8d3f 93e2 dd3f a537 f73e
00000330: ce7b 25bf 2939 20bf c93a cb3e 9afa dc3e
00000340: c7ae 84bf 77d9 75be 73aa fe3d a10c ec3e
00000350: 7825 323f 73da d23e df6e 5e3f 0d96 8a3f
00000360: 457b e83e f790 3e3f 8c81 86be 696b 4bbf
00000370: 1ec6 c23e 0b63 a3bf 3ce4 dc3e 17c8 a33f
00000380: c778 193e 3d64 6f3f b70c 8e3e f1b2 ee3e
00000390: 50a8 b2be af15 343f 54f1 213f 3c80 1c3f
000003a0: 091c 9d3e 9a16 cfbf 401b 3fbe c072 47bf
000003b0: 00f3 3f3e c737 1e3f ab67 35bf 602b aebe
000003c0: 5f86 fe3e b873 6a3f 21a7 37bf 62c7 123f
000003d0: 016e 4f3e 4514 cd3e a416 79be a0bf 0fbf
000003e0: eb9b b0bf 94ef bf3e 0979 ab3f d1b2 75bf
000003f0: f2ae 0ebf 9431 a03d 6fa7 423f 08bf 13be

linear_action.weight f4 [4, 512]
-0.17731877 -0.2795686 -0.3815017 -0.1231585 -0.18258947 -0.43403342 0.60975593 0.2010691
-0.22734645 -0.18149078 -0.8927161 1.1936437 0.93689466 1.4700149 0.8718224 1.336119
-0.4524116 0.33163813 -0.41342682 -0.04897174 -0.65321237 0.06288549 0.83237904 0.5406541
0.5985559 0.6813027 -0.2781177 -0.34266272 -0.5778007 -0.8330143 0.5457999 -0.50213814
-0.18041289 -0.39778212 -0.048194986 1.579721 0.37464097 -0.43199843 1.6743706 -0.00805312
-0.035248075 -0.111752465 -0.0396395 -1.1017699 0.21660963 0.378843 1.0453942 0.08465299
-0.7925058 -0.86024904 0.13908191 -0.10928918 0.35648304 1.7222172 -0.26635087 -0.27670473
0.62921417 0.010777834 1.9259645 1.074674 0.21234676 -0.40789792 0.42994174 0.40366673
-0.74872065 -0.2654552 -0.18287861 0.32097048 -0.053266097 -0.059223376 0.0144743435 -0.19601266
-0.5252836 -0.43101686 -0.8213969 -0.9122758 -0.22469068 -0.2171712 -0.81624067 0.076314084
-0.3135268 -1.6807746 -0.24088797 -0.37082878 0.9490471 -0.3688199 1.5228995 1.0521502
-1.2097148 0.031842295 1.7585429 -0.08251128 2.1185346 0.9288156 0.05993884 0.27809712
0.9332567 0.4536296 0.73674977 -0.02032206 1.4818937 -0.20669042 -0.4786991 1.5341439
0.85560256 0.5228834 -1.0979924 -2.9959698 1.3547261 1.2154106 0.0050243232 1.5945921
0.44176063 -0.04702338 -0.2525239 0.7953946 0.41856337 1.156507 1.6474997 0.5309238
0.75801975 0.26252 0.19324142 0.17824872 0.66147983 -0.33515605 0.9254751 -0.026112301
-0.9330555 0.41366756 1.0996463 -0.3270493 -1.5120841 1.823353 -1.2498089 -0.26580286
-2.3730228 -1.38998 -0.1195677 -0.57764655 -0.051068168 -0.076439485 -0.25057125 -1.2733359
-1.0548948 0.5723204 0.963308 -0.31751102 -2.2556822 -1.2445011 -0.20112304 -0.9895184
0.14540401 -0.8156122 -0.3320394 0.8020688 -0.14615616 0.6529262 1.3494968 0.1316845
0.06920264 0.69768333 -0.10690964 0.22391121 0.3544174 -1.0802987 -0.54718363 -0.44412792
-0.1285544 -2.2174416 1.8036351 0.59339297 0.0016179711 -1.3380452 -0.9895733 -1.0874085
-0.19477698 -2.452184 -0.108834416 -0.26248902 0.7708498 1.0341455 -0.15557434 -0.0015404403
-0.89703745 -1.2358015 1.1712972 2.276165 0.8187116 0.18844694 0.27649733 0.13501236
-0.45018688 0.17495838 0.5007293 2.4876378 0.7282608 0.7600631 0.33050653 0.73619896
0.09747027 -0.4944439 0.32945266 0.3799184 1.1336042 1.379553 0.30132532 0.33020705
0.8273102 0.82580376 0.6473515 -0.27746862 -0.2583434 0.27752617 0.71250856 0.58952475
0.37189224 1.4036306 0.2325104 1.009215 -0.05527946 0.0010551235 0.9787936 -0.09262805
0.2855512 -0.6830156 -0.5123079 0.08649054 -0.531141 -0.11906943 0.2185414 0.29198974
0.14279391 2.3054955 -0.5489744 -0.48467988 2.1377196 0.30388197 -0.80944717 0.98436385
1.2241632 -0.8415732 -0.16295104 -0.7449633 -0.27368462 0.7970789 0.23378073 -0.05354908
0.12263087 0.55850893 0.08630706 2.6244729 -0.094587825 0.61901367 0.23095731 1.0599766
00000000: 0d93 35be 9e23 8fbe 3154 c3be 863a fcbd
00000010: bcf8 3abe a139 debe f718 1c3f 0fe5 4d3e
00000020: 82cd 68be b8d8 39be 0b89 64bf 51c9 983f
00000030: 54d8 6f3f 7329 bc3f c12f 5f3f f305 ab3f
00000040: 7ea2 e7be 79cc a93e aeac d3be 9796 48bd
00000050: ed38 27bf 1cca 803d cb16 553f 4f68 0a3f
00000060: f63a 193f db69 2e3f 7165 8ebe 7d71 afbe
00000070: bfea 13bf 6d40 55bf 8bb9 0b3f 208c 00bf
00000080: 28be 38be 19aa cbbe 1b68 45bd 4c34 ca3f
00000090: f1d0 bf3e e62e ddbe c751 d63f 3cf1 03bc
000000a0: 4960 10bd 7ade e4bd 075d 22bd cc06 8dbf
000000b0: eace 5d3e b6f7 c13e 7acf 853f 8c5e ad3d
000000c0: a9e1 4abf 4839 5cbf 7d6b 0e3e 01d3 dfbd
000000d0: f284 b63e 9d71 dc3f 245f 88be 3eac 8dbe
000000e0: 2e14 213f 8395 303c 0186 f63f eb8e 893f
000000f0: 6e71 593e ffd7 d0be 5321 dc3e 68ad ce3e
00000100: 28ac 3fbf bee9 87be 8844 3bbe 3e56 a43e
00000110: 8d2d 5abd 3694 72bd cc25 6d3c 8bb7 48be
00000120: fc78 06bf 3eae dcbe 1147 52bf e88a 69bf
00000130: 5015 66be 2162 5ebe 26f5 50bf 8f4a 9c3d
00000140: 9686 a0be 9f23 d7bf 56ab 76be 45dd bdbe
00000150: c0f4 723f f6d5 bcbe 5fee c23f dcac 863f
00000160: efd7 9abf 116d 023d ef17 e13f adfb a8bd
00000170: 1296 0740 dcc6 6d3f 6e82 753d bf62 8e3e
00000180: e9e9 6e3f 2442 e83e a29b 3c3f 737a a6bc
00000190: b1ae bd3f a7a6 53be 0c18 f5be d45e c43f
000001a0: c508 5b3f b0db 053f 048b 8cbf f8bd 3fc0
000001b0: aa67 ad3f 9392 9b3f 14a3 a43b 981b cc3f
000001c0: 732e e23e 969b 40bd d04a 81be fb9e 4b3f
000001d0: f04d d63e 6c08 943f 45e1 d23f 9fea 073f
000001e0: 950d 423f 0569 863e 14e1 453e d586 363e
000001f0: be56 293f 9399 abbe f0eb 6c3f 77e9 d5bc
00000200: badc 6ebf 3ccc d33e 36c1 8c3f 0173 a7be
00000210: f98b c1bf a263 e93f bdf9 9fbf 5017 88be
00000220: 9bdf 17c0 ddea b1bf e9df f4bd a5e0 13bf
00000230: db2c 51bd 4e8c 9cbd e04a 80be acfc a2bf
00000240: cb06 87bf 9783 123f 5a9b 763f ce90 a2be
00000250: 195d 10c0 d04b 9fbf 33f3 4dbe 1451 7dbf
00000260: cae4 143e f6cb 50bf 1101 aabe 6254 4d3f
00000270: f6a9 15be 2c26 273f 50bc ac3f 4dd8 063e
00000280: 1dba 8d3d 609b 323f 71f3 dabd fb48 653e
00000290: 3376 b53e 3a47 8abf 3a14 0cbf bc64 e3be
000002a0: c4a3 03be 90ea 0dc0 84dd e63f 9ae8 173f
000002b0: 1a12 d43a 1145 abbf ad54 7dbf 3430 8bbf
000002c0: 9e73 47be 95f0 1cc0 94e4 debd f664 86be
000002d0: 6a56 453f e15e 843f e14e 1fbe 99e8 c9ba
000002e0: 3fa4 65bf be2e 9ebf 11ed 953f b0ac 1140
000002f0: 1597 513f 3cf8 403e 0f91 8d3e ae40 0a3e
00000300: e57e e6be 4a28 333e cc2f 003f 7535 1f40
00000310: 4d6f 3a3f 7f93 423f 2738 a93e 8977 3c3f
00000320: 7e9e c73d c027 fdbe 05ae a83e aa84 c23e
00000330: f119 913f 3195 b03f 5047 9a3e e610 a93e
00000340: 9aca 533f e067 533f d4b8 253f 5e10 8ebe
00000350: 9645 84be e917 8e3e f666 363f 18eb 163f
00000360: a968 be3e 2baa b33f 3517 6e3e f52d 813f
00000370: b76c 62bd 124c 8a3a 3892 7a3f c6b3 bdbd
00000380: c433 923e 1cda 2ebf 9c26 03bf f421 b13d
00000390: dbf8 07bf acda f3bd 51c9 5f3e ae7f 953e
000003a0: 9138 123e 3d8d 1340 9689 0cbf f627 f8be
000003b0: 66d0 0840 6b96 9b3e ee37 4fbf 45ff 7b3f
000003c0: 61b1 9c3f 5771 57bf a3dc 26be eab5 3ebf
000003d0: 6420 8cbe 5d0d 4c3f 3764 6f3e 4856 5bbd
000003e0: e525 fb3d 71fa 0e3f c2c1 b03d 5df7 2740
000003f0: 43b7 c1bd ae77 1e3f 1380 6c3e 50ad 873f

linear_action.bias f4 [4]
-0.049323957 -0.24235003 0.5487186 -0.1495325
00000000: eb07 4abd 9b2a 78be d278 0c3f 0c1f 19be

linear_value.weight f4 [1, 512]
0.5680649 2.9913187 -3.2518833 -2.3719347 -2.0903986 -2.127373 -3.7094889 4.564952
1.025223 0.93903005 0.56008583 -3.0256937 -4.0100255 -2.7278028 -2.2339482 -3.2521956
-1.3109769 -1.8458463 2.4086506 1.927157 -1.7493452 3.060606 -3.5793967 -1.9007999
-2.1247485 4.4223747 2.7168877 1.9329782 -2.5618367 1.4136208 8.248138 -2.1551585
-1.8657963 -4.4196825 0.9043963 -5.0303807 -3.309298 7.34668 -3.6490386 -0.9313397
-3.0714476 -2.5855873 0.07242122 -2.3419368 1.5677358 -1.387793 1.9144298 -3.2231503
3.8828888 -1.8511502 -1.8033167 1.7019027 -2.0375698 3.8906932 -1.0408255 -2.5342953
-1.9518398 -1.6442935 -4.5698667 -2.542237 -2.7315366 -1.4730283 -0.9106072 -3.2071235
4.803272 -1.1789852 -1.7224019 -2.7017298 2.613304 -2.2322698 -2.6213126 2.4461806
-1.8114924 -4.824101 -2.9460292 -3.3812935 0.6594534 -0.99492246 -2.901475 4.1050143
5.3720613 5.554998 -1.5256457 2.8751292 -1.9105092 -2.988058 -3.9350784 -1.6584674
4.1152334 -2.1715481 -4.9213424 -1.6328042 -3.9726439 3.7210302 1.9305006 -1.0114472
-3.7395127 -0.8229432 -4.102102 -1.8673744 -3.4381351 -1.3763558 1.4173605 -3.7107408
3.2536838 -1.8434651 -2.8602853 -1.7459468 -2.2567608 -1.9489801 -1.1978701 -4.488193
-1.5807673 1.1528753 4.861685 -2.0689464 0.51499766 -2.3212109 -2.9353142 -2.3744187
-0.5321586 0.9910055 -1.688342 -2.133948 -2.0786123 2.1772563 -2.0823586 -1.049068
-1.5620425 3.949838 -3.2046468 3.0239577 3.0041118 -2.3452537 4.26091 -2.8322902
4.7162647 -1.812463 5.9197416 5.010946 -1.7424626 -2.2630339 4.478933 -0.69169694
-1.7988889 -2.2723274 -2.179485 1.0670311 6.16486 0.67297375 2.2050076 6.8696632
1.4343852 -2.4124708 -1.5943577 6.0997205 -1.2174149 -2.1082397 -4.0514917 -1.4436889
1.310067 -3.9268646 -1.8035215 -1.3154244 -2.253868 5.294514 1.0372765 -2.422537
4.3540053 -0.5735577 -2.5835073 1.3375224 3.8702807 0.3716076 0.6052981 -0.5768717
-3.020979 5.236364 -1.4887348 4.963846 -4.644208 -5.665611 4.4230595 -2.1737168
-1.2580454 -0.7148058 -2.6457214 -3.9824557 -1.1182301 -2.7113628 1.2477919 -1.8463823
-1.4921937 1.0976269 1.4497894 -4.613131 3.4716206 -2.3462522 -1.8922756 -1.6487937
6.1746206 3.3849962 2.6183786 2.302194 -3.8220427 -4.399689 -2.3873193 -1.4145108
-2.1873515 -2.2933795 1.6820796 -1.5043144 0.30092493 1.3524085 -2.002365 -2.1085904
-2.6913593 -0.80065054 -2.7443082 -2.349954 -1.1659174 -3.9800386 -2.0123022 0.8183482
-2.2649493 3.7913375 -3.4298222 -1.2352713 7.657986 -3.0212088 -0.8991556 -1.6537664
-0.51442796 -4.927574 -1.01398 2.458813 -3.24037 -1.3611386 -6.4961424 -3.410153
-1.8380942 4.432358 4.91182 -1.8167759 -1.9818631 -0.42037314 -2.2188835 -2.4064877
6.251087 -2.2032192 1.3000062 -4.0003953 -2.6549473 -2.4967928 -1.1849217 -3.7193048
00000000: b46c 113f c471 3f40 db1e 50c0 c7cd 17c0
00000010: 17c9 05c0 e126 08c0 4468 6dc0 1614 9240
00000020: 823a 833f 4664 703f c961 0f3f f7a4 41c0
00000030: 2152 80c0 5294 2ec0 02f9 0ec0 f923 50c0
00000040: 17ce a7bf b144 ecbf 5527 1a40 15ad f63f
00000050: 8bea dfbf f8e0 4340 d614 65c0 694d f3bf
00000060: e1fb 07c0 1884 8d40 7de1 2d40 d46b f73f
00000070: 22f5 23c0 87f1 b43f 60f8 0341 1eee 09c0
00000080: 6ad2 eebf 0a6e 8dc0 8486 673f e1f8 a0c0
00000090: 8acb 53c0 0118 eb40 d989 69c0 476c 6ebf
000000a0: 9992 44c0 437a 25c0 9451 943d 4be2 15c0
000000b0: 91ab c83f 33a3 b1bf 090c f53f 1848 4ec0
000000c0: 4081 7840 7df2 ecbf 15d3 e6bf f3d7 d93f
000000d0: 8b67 02c0 1e01 7940 c539 85bf e531 22c0
000000e0: e3d5 f9bf 3678 d2bf 593c 92c0 03b4 22c0
000000f0: 7fd1 2ec0 318c bcbf 8e1d 69bf 8341 4dc0
00000100: 67b4 9940 fde8 96bf aa77 dcbf 24e9 2cc0
00000110: 5f40 2740 82dd 0ec0 96c3 27c0 398e 1c40
00000120: fcde e7bf 095f 9ac0 be8b 3cc0 1d67 58c0
00000130: f0d1 283f 3db3 7ebf c4b1 39c0 475c 8340
00000140: ede7 ab40 8bc2 b140 5c48 c3bf 1e02 3840
00000150: 918b f4bf 583c 3fc0 53d8 7bc0 a948 d4bf
00000160: feaf 8340 a5fa 0ac0 a37b 9dc0 baff d0bf
00000170: cc3f 7ec0 5c25 6e40 a51a f73f 1a77 81bf
00000180: 2d54 6fc0 68ac 52bf 6b44 83c0 2006 efbf
00000190: 680a 5cc0 6d2c b0bf 126c b53f c77c 6dc0
000001a0: 5b3c 5040 aaf6 ebbf ea0e 37c0 2f7b dfbf
000001b0: c56e 10c0 2e78 f9bf cf53 99bf 479f 8fc0
000001c0: 9556 cabf 6b91 933f ec92 9b40 9e69 04c0
000001d0: e3d6 033f b88e 14c0 30dc 3bc0 7af6 17c0
000001e0: 8c3b 08bf 89b2 7d3f 971b d8bf 9b92 08c0
000001f0: fc07 05c0 2b58 0b40 5d45 05c0 dc47 86bf
00000200: 02f1 c7bf 25ca 7c40 ef18 4dc0 8688 4140
00000210: 5e43 4040 a318 16c0 6059 8840 3e44 35c0
00000220: a4eb 9640 cafe e7bf 866e bd40 ab59 a040
00000230: 0409 dfbf 8cd5 10c0 6b53 8f40 0d13 31bf
00000240: fe41 e6bf d06d 11c0 af7c 0bc0 7a94 883f
00000250: 8846 c540 0248 2c3f d81e 0d40 48d4 db40
00000260: ef99 b73f ec65 1ac0 ea13 ccbf e930 c340
00000270: 40d4 9bbf 66ed 06c0 d2a5 81c0 ccca b8bf
00000280: 47b0 a73f c051 7bc0 cbd9 e6bf d45f a8bf
00000290: 603f 10c0 a96c a940 7ac5 843f d90a 1bc0
000002a0: 0354 8b40 add4 12bf 2f58 25c0 ef33 ab3f
000002b0: aeb2 7740 5a43 be3e d1f4 1a3f ddad 13bf
000002c0: b857 41c0 4b90 a740 dd8e bebf d4d7 9e40
000002d0: 5a9d 94c0 af4c b5c0 b489 8d40 2d1e 0bc0
000002e0: a207 a1bf 83fd 36bf 8053 29c0 8ee0 7ec0
000002f0: 2a22 8fbf f886 2dc0 a5b7 9f3f 4156 ecbf
00000300: 3400 bfbf 0a7f 8c3f b392 b93f c59e 93c0
00000310: 082f 5e40 ff28 16c0 1636 f2bf ac0b d3bf
00000320: 7e96 c540 c7a3 5840 8493 2740 2657 1340
00000330: 599c 74c0 41ca 8cc0 d7c9 18c0 b10e b5bf
00000340: 91fd 0bc0 bbc6 12c0 624e d73f 608d c0bf
00000350: d512 9a3e b91b ad3f c026 00c0 25f3 06c0
00000360: 3b3f 2cc0 6ff7 4cbf bfa2 2fc0 a565 16c0
00000370: c83c 95bf f4b8 7ec0 8fc9 00c0 457f 513f
00000380: eef4 10c0 46a5 7240 3582 5bc0 5f1d 9ebf
00000390: 390e f540 7c5b 41c0 102f 66bf 9eae d3bf
000003a0: 8db1 03bf b0ae 9dc0 19ca 81bf 315d 1d40
000003b0: 3962 4fc0 ca39 aebf 66e0 cfc0 f23f 5ac0
000003c0: ac46 ebbf e0d5 8d40 a12d 9d40 1d8c e8bf
000003d0: b1ad fdbf 263b d7be 3002 0ec0 e503 1ac0
000003e0: e808 c840 8b01 0dc0 9a66 a63f 3d03 80c0
000003f0: a8ea 29c0 74cb 1fc0 84ab 97bf 1709 6ec0
