Reinforcement_Learning/exp2/pretrained_model/2_DQN_DuelingDQN/357000.pth (torch, 16335 bytes, 5 tensors)

linear.weight f4 [512, 2]
00000000: 2279 adbb 9c36 c23e 801a 9dbf 96ba edc0
00000010: d670 8bbe ab2a 423e acc4 cebe 0f4c b73e
00000020: de83 80bd 9799 3f3e 8469 1ebf 240b a0bf
00000030: 5d6f 70bf af9a a7bb 43a4 29bf e25b e3c0
00000040: 1bec a4bf 5c85 9740 cd6c 1bbf 0b9b 14c1
00000050: c59b 0bbf db58 1741 09de 3fbf 2f03 acc0
00000060: 1e6b e9bd 353c 993d 59eb 863e cce2 d640
00000070: c5ea e3be ac4f 37be 0db1 23bf 1d03 503f
00000080: 8cbd 00c0 c82a 21c1 8edd 43bf 5803 ffbe
00000090: b4ef 17bf 4fdb fac0 5e8c a13e 5f78 af3e
000000a0: 7665 e1be f300 02c0 d6ae b1be b5d0 07c1
000000b0: 4c3f 5abf f05d 95be 3fbb a7bb 36a5 2fbc
000000c0: f68f a0be f202 d1bc f404 473d 6b44 7e3f
000000d0: 94a7 81bf b9df 9bc0 f2bd f23e 522b d5be
000000e0: c8fb 91be 0457 d4bf 278a 58bf 9bab 08c0
000000f0: 10d0 a33e fd98 913e 2922 36bf fc91 f1c0
00000100: ebfc bd3d 5302 58be 7dc6 e4be 2ae9 03c0
00000110: 832e 773d f07f 1f40 7818 3abf 1c1b 06c1
00000120: e748 8e3e c4fb 153f 2054 283e 6a2f 913f
00000130: 5a3a c0be 7151 7ec0 2d1b 9abe 4e90 c5be
00000140: 1ad8 6cbf d037 bcc0 cba3 093f 6492 34bf
00000150: ec86 073e c6f4 f3bd 5c4f eebd c7b9 a5be
00000160: cf8c 76be b366 43c0 e970 03be 252d bbbf
00000170: b2a4 5fbd 27ea d5bf 2b7a 5cbf cde2 0fc1
00000180: a17f 6fbd e4fa 4abf d915 29be 3069 93c1
00000190: 218c 913e bb31 7e3f a3db 9dbe 3f3d 36be
000001a0: 23d3 81bf 6ea3 86c1 b93c 13bf 1455 1ac1
000001b0: dde0 afbe 7d0f 0c3f 7ea2 2fbf f9eb cac0
000001c0: a26f 93bf d5db 98c0 e51a f83e 88a6 18bf
000001d0: a907 52bf f4bd cec0 8f49 d33d 86bb 2b3e
000001e0: 5cff c6bd 2e2f 38c0 5b45 32bf a203 213f
000001f0: c889 b0bf 4312 c8c0 6eac c5be d7eb 04c1
00000200: e839 c8be c680 0dc1 b005 1abe b5c6 1a3e
00000210: fb51 20bf 87dd 04c1 349a 733e 4e15 82bf
00000220: 5dfd a03c 86dc 79bd 1406 92be f96a 113e
00000230: fea1 193f c8a3 0e41 f83a 223f 0c44 1341
00000240: 9c61 1dbf f73b 0ec1 9783 f63e c233 96bb
00000250: 8aac 0fbf a0f7 04c1 73dd 5ebf f1b5 10c1
00000260: c264 f0be b258 dcc0 71a7 b2bd 7be6 0641
00000270: c6b2 1c3d 2a0f 5dbf 0488 f4be c8fc 1cbe
00000280: e677 0bbe d42a 0ebe 8282 8bbf 8b30 ebc0
00000290: 439b e2bd 88d2 153c 0f77 a4be 3361 883e
000002a0: e222 97bf 2a00 cac0 f6a4 f03e af28 d63f
000002b0: 8b6e 213f 9c41 7e3e 5252 d4be 28d3 46c1
000002c0: ea1b a7bd d59d a1be 9d07 d43c 4769 1dc0
000002d0: e664 9b3d 6199 17be a844 013f 4a1f 4a3e
000002e0: 4c03 d6be bbdb 42c0 4e1f 2ebe 0447 18be
000002f0: be47 88bf 2aa5 80c1 29cc 70bf 59e3 e340
00000300: 86dd 24bf f796 08c1 a236 ffbe eb4b c7be
00000310: 1255 a43f f5f3 13c1 7210 1ebf 1a43 f2c0
00000320: 42af f33c e360 e93e 2283 25bf 33e5 14c1
00000330: 13d1 64bf 4e7b 63c1 e623 82be 11b0 183f
00000340: acdc 60be 9b44 ecbf 487b acbb 0123 0fbe
00000350: d6b1 b53d d656 25be 14f1 e2be 7f6a 3dbf
00000360: 4079 75bf 2399 e6c0 af32 333e ec92 aabf
00000370: 13f9 4fbd 4312 333f 23c8 823e b401 a43c
00000380: 93e5 7bbf dc06 e2c0 9c70 6cbf c437 e2c0
00000390: 4d4f 0fbf 2539 0f3e ff71 fd3b 5d4e 153f
000003a0: 1b07 343f 2b42 4441 159d ea3c f5b5 45c0
000003b0: 3660 a23e 78ec ffbe 656b 95be a85d 533e
000003c0: 0fb7 0ebd a909 a63e 8c17 69be f25e 943a
000003d0: cb85 30be f84d 6bc0 9cdf 023f 5fb0 15bf
000003e0: d575 babe 9d24 04bf 0dad bebe 7367 bf3d
000003f0: 746a 803e 87d2 d2be b2f0 d6be 5de5 85be
-0.005293981 0.3793229 -1.2273712 -7.4290266 -0.27234524 0.18961589 -0.40384424 0.35800216
-0.06275152 0.18710934 -0.61879754 -1.25034 -0.93919927 -0.0051148753 -0.6626627 -7.104966
-1.2884554 4.735029 -0.6071289 -9.287852 -0.5453456 9.459193 -0.74948174 -5.3753886
-0.11397384 0.07482187 0.2635143 6.715185 -0.44515052 -0.17901486 -0.63942033 0.8125475
-2.011569 -10.072945 -0.7650994 -0.4980724 -0.5935013 -7.839271 0.31552404 0.34271523
-0.4402272 -2.031308 -0.34703702 -8.488454 -0.85252833 -0.2917323 -0.005118757 -0.010720542
-0.31359833 -0.0255141 0.048588708 0.9932315 -1.0129266 -4.87106 0.47410542 -0.41634613
-0.28512406 -1.6589055 -0.84585804 -2.135474 0.31994677 0.28437033 -0.71145874 -7.5490704
0.09276756 -0.21094637 -0.44682685 -2.0611062 0.06034709 2.4921837 -0.72693586 -8.3816185
0.27789995 0.5858729 0.16438341 1.1342595 -0.3754452 -3.9737208 -0.30098858 -0.38586658
-0.92517245 -5.881813 0.53765553 -0.70535874 0.13235062 -0.11911921 -0.1163623 -0.323683
-0.24077152 -3.0531433 -0.1283604 -1.4623152 -0.054600425 -1.6712083 -0.86123914 -8.992871
-0.058471326 -0.7928908 -0.1651224 -18.426361 0.28427222 0.9929463 -0.30831632 -0.17796801
-1.0142559 -16.8298 -0.5751453 -9.645771 -0.34351245 0.54711133 -0.6860732 -6.3413053
-1.1518443 -4.776835 0.4845802 -0.59629107 -0.8204294 -6.4606876 0.103167646 0.16770753
-0.09716675 -2.8778796 -0.6963708 0.6289617 -1.3792048 -6.252229 -0.38608116 -8.307578
-0.3910668 -8.843939 -0.15041232 0.15114863 -0.6262509 -8.304084 0.23789293 -1.0162752
0.019652063 -0.061001323 -0.28520262 0.14200963 0.60012805 8.914986 0.6337123 9.204113
-0.61477065 -8.88964 0.4814727 -0.0045838067 -0.5612265 -8.310455 -0.87056655 -9.044419
-0.46951872 -6.885827 -0.08723343 8.43127 0.03825643 -0.86351264 -0.47760022 -0.15330803
-0.13619956 -0.13883525 -1.0899203 -7.3496757 -0.1106477 0.009144433 -0.32122084 0.26636657
-1.180752 -6.31252 0.47000855 1.6731166 0.630593 0.24829715 -0.41469055 -12.426552
-0.08159621 -0.3156573 0.025882537 -2.4595506 0.07587604 -0.14804603 0.50495386 0.19738498
-0.4179939 -3.0446613 -0.1700413 -0.1487084 -1.0646894 -16.080647 -0.94061524 7.1215024
-0.6440052 -8.536857 -0.4984637 -0.38925108 1.2838461 -9.24706 -0.61743844 -7.570691
0.029746655 0.4558173 -0.6465322 -9.305957 -0.8938152 -14.217604 -0.25418013 0.59643656
-0.2195918 -1.8458437 -0.0052637197 -0.13978197 0.0887181 -0.16146407 -0.44324553 -0.73990625
-0.9588814 -7.2061934 0.17499803 -1.3326087 -0.050774645 0.6994974 0.25543317 0.020020343
-0.9839718 -7.0633373 -0.9235933 -7.0693073 -0.5598038 0.13986643 0.0077345367 0.583227
0.7032334 12.266154 0.028639356 -3.0892308 0.31714028 -0.499851 -0.29183498 0.20641196
-0.034842547 0.32429245 -0.22762889 0.00113198 -0.17238538 -3.6766338 0.5112245 -0.58472246
-0.36418024 -0.5161837 -0.37241402 0.09345903 0.25081217 -0.41176245 -0.4198051 -0.26151553

linear.bias f4 [512]
00000000: c8ee 4abd db7b 6a3d ffbe d0be 088f 003f
00000010: e596 75be b635 243f 3a00 4c3f dea3 993e
00000020: 3e8c 52bf b0aa 983e 1127 33bf 04c9 a73e
00000030: 9545 0abf c804 1e3e 7292 16bf 6678 2a3f
00000040: fe08 003f be40 553f 8236 8f3e 2b67 cfbe
00000050: d298 033f 4fdc 843e 31ee 393f 753a 053f
00000060: 1062 2ebf 05d2 2b3f b89b 0dbf b802 a0be
00000070: c773 1d3f 939e 143f 7b1a 1fbf 47c9 a43e
00000080: d36e 363f a0d1 d33e cd00 5d3f e62a ab3e
00000090: 44b7 c7be d7d3 623f ce75 cd3e 51fa 603f
000000a0: a208 033f f973 e8be 0ebe a9bd b571 2abf
000000b0: 0968 cd3e ba96 073f 3020 c03e edc3 c63e
000000c0: 0b5f 003f fc41 9a3d edb9 6f3f d4fe 33bf
000000d0: b4f9 c33e 4d3c 963e 7709 4b3f 3e62 9c3e
000000e0: 1776 f73e 3cb0 04bf 6297 be3e 61d2 a1bd
000000f0: dc44 ab3e e04a 3d3f 0c87 143f cefa 873e
00000100: 64b8 8a3e 4110 e3be 1e29 973e 0e89 0c3f
00000110: 1f2d 91be 2b2c 273f 672a 5fbe 3d6d 6abe
00000120: f9f5 973e 7d1d 26bf d7cb 8b3e aed8 c83e
00000130: 7cc2 693e 4b12 a0be 531b 3c3f 6716 3b3f
00000140: d45f f5be 8473 ef3e 09fd 0dbf 0a1b 1abf
00000150: 2573 033f 1b1b 603f 9bf4 acbe d243 00bf
00000160: 8228 8cbe baac e53e 408d 27bf a2da 2fbf
00000170: 3286 4e3e 3668 02bf e848 c73e 7cc4 32be
00000180: 4c71 9b3e 437e 24bf c75c f6be 0979 923e
00000190: 34b2 2abf dc89 9f3e 4219 aa3e 8dfa fabe
000001a0: 292c ca3e 2654 0bbf c22e 09bf c32b 183f
000001b0: 574c d43e 6358 4c3f e88a 41be c1de aebe
000001c0: 2922 d93e bebb cd3e c11e 403f 4a4f 34bf
000001d0: a337 bcbe f19a d43e 595e c7be c2fa bbbe
000001e0: c965 e63e 3673 2dbf 93a1 ad3e 8924 0cbf
000001f0: 31cb 043f 63c7 1abf 4fba 1c3f db5b 2bbf
00000200: 8c25 d03e b119 893e 8399 3b3f 2f06 1bbf
00000210: a97d a1be 3900 573f c386 75be e623 b23e
00000220: a36e 653e 3529 9b3e d9da b7be 6418 563f
00000230: 516f e83e 0e61 203f 52b1 993e f9cd 673e
00000240: 32c0 94be 2788 4c3e dd46 70be f2cb 1d3f
00000250: 9ec3 01bf abf2 00bf 8313 8a3e a040 973e
00000260: 4566 b13e cf40 6c3e d14d 2ebe 8be0 e23e
00000270: 50ec 01be 68bd 91be 846d 4b3f b934 30bf
00000280: fbed e6be ea44 c03e 4401 31bf 4792 1f3f
00000290: 87e2 523f 5ab6 2bbf a7af 423f 3e32 273f
000002a0: c8ff 143f 37b4 473f 9e4e 843e 4c40 f3be
000002b0: 9842 213f f34b 78be e8be e23e 0bf2 823e
000002c0: aa9f f83e c0c7 593f 2f94 603f 47bd 24bf
000002d0: a0ff 95bd f992 e83e 58df e6be 194b 5e3f
000002e0: dc8f a23e fce2 b03e 71ed ec3e 14d6 963e
000002f0: 56f0 053f f2e4 1dbf 72c8 28bf 1c71 32bf
00000300: ae73 f53e bb30 083f cada e0be 017c 6c3e
00000310: b849 403f 7fc1 db3e 536f 38be 0eab ba3e
00000320: 88b9 98be 5e6c 133f 0fd4 f5be 38b4 0d3f
00000330: 2815 2b3f 0cc1 913e e151 273f b755 6f3f
00000340: ddb9 8ebe 5ccf 4abe a904 fc3e 72d0 0dbf
00000350: a70c d13e bf70 863e 939b 293f 103c 1dbf
00000360: 5b63 16bf cc86 e83e 43a1 ca3e 977c 28bf
00000370: 59db cc3e f9a0 25bf 7ff4 b53e 60f5 8e3e
00000380: c8cf 293f 3384 bbbe 14fc 2c3f ea30 6d3f
00000390: 7fa6 f23e 716f ef3e 243f fe3e 1f7c c53e
000003a0: 738d 483f 4c90 32bf f8fa 113f 4eb9 4d3f
000003b0: fc69 28bf cb44 863e 67ee 2b3f 26a8 03bf
000003c0: 2790 e13e ce53 063f a777 b33e b940 6f3f
000003d0: 5d3a 433f bfd9 363f b29b d9be 390a 433f
000003e0: e9ce c33e df5d c3be 4eb1 d23e 9317 57be
000003f0: 9792 623f 7955 fd3e 9762 283f 1f26 343f
-0.049544126 0.057247024 -0.40770718 0.5021825 -0.23983343 0.64144456 0.79687846 0.30007833
-0.8224524 0.29817724 -0.69981486 0.3277055 -0.54012424 0.15431511 -0.5881721 0.66589963
0.5001372 0.83301914 0.27971274 -0.40508398 0.5140506 0.25949332 0.72629076 0.52042323
-0.6811838 0.6711734 -0.5531573 -0.31252074 0.6150479 0.58054465 -0.6214978 0.32184812
0.71262854 0.4137087 0.86329347 0.33431166 -0.39007008 0.8860449 0.4012894 0.8788195
0.5118505 -0.4540098 -0.08288203 -0.66579753 0.40118435 0.52964365 0.37524557 0.38821355
0.50145024 0.07532117 0.93643075 -0.7031071 0.38276446 0.2934288 0.7931132 0.30543703
0.48332283 -0.5183141 0.3722487 -0.07901455 0.33450973 0.73942375 0.58018565 0.26558536
0.27093804 -0.44348338 0.29523557 0.5489663 -0.28354737 0.6530177 -0.21793519 -0.22893234
0.2967985 -0.64888746 0.27303955 0.39227813 0.22828096 -0.31263956 0.73479193 0.7308106
-0.47924674 0.4676782 -0.55464226 -0.6019751 0.5134757 0.8754136 -0.3378037 -0.50103486
-0.27374655 0.44858342 -0.65449905 -0.6869298 0.20168379 -0.50940263 0.3892281 -0.17457765
0.30359876 -0.6425516 -0.48117658 0.28607967 -0.66678166 0.31159866 0.33222395 -0.4901928
0.39486817 -0.54425275 -0.5358697 0.59441775 0.41464493 0.7982237 -0.18900645 -0.34154323
0.42408875 0.40182298 0.75046927 -0.70433486 -0.36761197 0.4152446 -0.3893917 -0.3671475
0.4499953 -0.6775392 0.33912334 -0.5474325 0.51872545 -0.6046049 0.61221784 -0.66937035
0.40653646 0.26777413 0.73281115 -0.6055631 -0.31541184 0.83984715 -0.23977189 0.34793013
0.22405486 0.30304876 -0.35909155 0.8363097 0.45397428 0.62648094 0.30018097 0.22637166
-0.29052883 0.19973813 -0.23464532 0.6163932 -0.50689113 -0.5037028 0.2696801 0.29541492
0.34648338 0.23071598 -0.17021872 0.44311938 -0.12687802 -0.28464818 0.7946398 -0.6883045
-0.4510344 0.37552577 -0.69142556 0.62332577 0.82376903 -0.6707512 0.76049274 0.6531104
0.5820279 0.7800936 0.2584123 -0.47509992 0.6299224 -0.24247722 0.44286275 0.2557529
0.48559314 0.8507042 0.8772611 -0.64351314 -0.07324147 0.4542463 -0.45092273 0.8683334
0.3175038 0.34548175 0.46274903 0.29460204 0.5231985 -0.6167747 -0.65930855 -0.6970384
0.4793982 0.53199357 -0.43916923 0.23094179 0.75112486 0.42921063 -0.18011217 0.3645863
-0.2982905 0.5758723 -0.4801335 0.55353117 0.66829157 0.28467596 0.6535931 0.93490165
-0.27876177 -0.19805664 0.49222305 -0.5539619 0.40829965 0.26257893 0.6625301 -0.61419773
-0.58745354 0.45415342 0.39576158 -0.6581511 0.400111 -0.6469875 0.35538098 0.2792158
0.66332674 -0.36624297 0.6757214 0.9265276 0.4739265 0.4676471 0.49657547 0.3857126
0.78340834 -0.6975143 0.5702357 0.8036088 -0.6578672 0.2622436 0.6716065 -0.5142845
0.44055292 0.52471626 0.35052225 0.93458134 0.7626093 0.71426004 -0.425016 0.76187474
0.38243797 -0.38157555 0.41150898 -0.21005087 0.8850493 0.49479273 0.65775436 0.7037067

linear_action.weight f4 [3, 512]
00000000: a7c2 70bc 0918 25c0 ae24 a03c 8b06 0bbe
00000010: a47b 2c3d cc40 19be 3512 0ebd f86f 053f
00000020: 072e 3fbf 51bf 973f da60 803e 18af 0f3e
00000030: cf9e c6bc 5664 be3f feab 9cbc 0ce1 9ebd
00000040: 823b 32bf cbd8 4abd bacd 393f 99fc 343c
00000050: cda1 42be 4651 953f 77e4 d6bd 9df1 33be
00000060: 4498 143c d2a0 7ebd e710 883f 6d10 31bd
00000070: 3ff0 e5bd 0c9a 19be 21c4 f1bb 4af3 123f
00000080: 8bcd eabd 4ccb 44be b100 8e3c 99d9 453f
00000090: 36b7 073d 6d63 38bd 81d3 8ebe b763 a4bd
000000a0: 3251 843e 827c edbc 2533 913b 89db 933c
000000b0: 7958 86be 93ed f1bd b46a 9cbe a456 393f
000000c0: a479 21be b83a 41c0 7bba 85bd 7ece 903c
000000d0: fee2 d9bf 75f1 a83f 79e0 51bd 0cba d13e
000000e0: db03 843d 1210 49bb bee9 ad3e 19c7 5a39
000000f0: 6f28 98be af15 9abd cda6 8b3e 7521 813f
00000100: 5432 8f3f ab1e 153d 55e7 7d3f 2ac0 2dbe
00000110: 27f8 133b aa43 e9bd e728 70bf 902c 67bf
00000120: b11a 463f 2327 063c 77e1 5d3f 07c2 3b3f
00000130: 605f 1d3f 3154 5140 2672 10be e519 94bd
00000140: b52f c43c e643 bd3e a89d 0cbd 0775 28b9
00000150: 9dc8 863e ee83 323f a039 c1bc 9ce9 2040
00000160: a15e 073d 13c0 6fbe 31ce fa3c 185f 8b3c
00000170: 1eed bfbe 3bc9 ef3c cfb2 b4bf cb45 c63e
00000180: 2ce1 4d3f b682 85b7 c52e 03c1 f6f9 193f
00000190: b47a ca3c 0e90 773f 2e72 b3bf 2000 f13b
000001a0: 0a94 55be 2b33 26bd ef6a 02bd 78e7 32be
000001b0: f93e ea3e 54d5 cfbd beb4 a6bc 2902 753c
000001c0: b2ce cd3e 42e7 db3e f66d 80bd e393 043c
000001d0: 2a5a 5341 9958 98be bcbf a93c 932c 0a3d
000001e0: c00e 05be bad8 b5bc b135 a4be ea90 fc3b
000001f0: 88cd 38be 099e eabc 8938 10be 3005 e03c
00000200: 0aea c0bf ab2e 603f 270c f1bd 3639 2d3d
00000210: f8fb 003d 82d8 81bd 031d 2cbf cdc3 f73e
00000220: a3bd e6bf 36f7 9f3f 3215 413c bc27 a7bd
00000230: 1486 19be 4ab3 83bf 6e8a f2be e218 443f
00000240: 5500 28bd 01da 07c0 c485 a2bc 6852 30be
00000250: 308b 9cbb d9f1 f3bc 2227 843f 690b 0b3f
00000260: e91e bebe ba9c 523f 9b01 043d d263 61bf
00000270: 28c2 a03c 90cc cabc fafe 16bd 86d9 2f3d
00000280: 3d11 2c3c 5bf1 d3bf f186 913f c9a0 03be
00000290: 6f5f 91bd 6bd2 79c0 9014 0e3f 0ab5 b2bd
000002a0: 2dba 9ebd d68a 66bd 509c 9b3f edb6 03bd
000002b0: 537e b5bd 35d4 a03c c8f8 583e 83a7 9e3f
000002c0: 901e 25be f650 abbd 9e6f 16bd f957 063c
000002d0: 6344 71c0 970d ea3e 71d3 113d 0452 ecbd
000002e0: d2ec 423f 564a babf 7495 223f 78ae 88bf
000002f0: 0658 1bbe 073a 0f3c 464e 213d 1050 d8bc
00000300: 2fc8 11be 490c 3dbe f561 e33b 7ceb 3b3f
00000310: c186 29bd 8372 8f3e 0b3d 93bf e7fa 933e
00000320: e2e9 3d40 769b f9bd 41a7 193d 9e4a 7ebe
00000330: 2b9d e4bd 2604 96bf 37e0 c9bd 618c 7fbd
00000340: 552b 46bc 710a 3fbc 174a 2cbe 56be b0bc
00000350: 3edc a3be ba4d 803f 56e3 babd 1db2 083d
00000360: f72a 053d 7a70 883e 7863 83be 09fb 50bc
00000370: 68e9 57bf 7da7 febb cd94 94bf b2b7 b73f
00000380: 2f0b 1abe e40a 5b40 5fd6 fbbd 1202 7dbd
00000390: 3bd6 07be 4e87 7fbf b206 863e 9c48 56be
000003a0: b1d6 0bbd fb46 b8bc b658 283e 6788 5fbd
000003b0: 87be 62bc 36da 8f3f 91f8 eabd 90ab 183d
000003c0: 12a2 a83e d51a 1c3e a2ac 59be af49 a33c
000003d0: 65ac 33bd e89e b5bd 83ed 9a40 5ca2 c9bd
000003e0: bf80 5fbe fada d1bc 3512 e93e 9d4b 17bd
000003f0: 9342 e9bd 9e2f 1ebe 1036 cabd 4ec5 27bd
-0.014694846 -2.579592 0.01954874 -0.13576715 0.0421101 -0.14966124 -0.034685332 0.52123976
-0.7467961 1.185526 0.25073892 0.14031637 -0.024245648 1.487437 -0.019124981 -0.07757768
-0.6962205 -0.049523156 0.7257954 0.011046552 -0.19007035 1.1665428 -0.10492795 -0.17572637
0.009069506 -0.06216509 1.0630158 -0.043228555 -0.11227464 -0.1500017 -0.0073781167 0.5740248
-0.114649855 -0.19218177 0.017334314 0.7728515 0.033133708 -0.045016695 -0.2789574 -0.080268316
0.25843197 -0.028990034 0.0044311457 0.018049018 -0.26239374 -0.11812892 -0.30550158 0.7239783
-0.15769058 -3.019209 -0.06529709 0.017676588 -1.7022398 1.3198687 -0.051239464 0.40962255
0.06446048 -0.0030679745 0.33967394 0.0002086427 -0.29718348 -0.07523667 0.27275696 1.0088335
1.1187234 0.0364062 0.9918111 -0.16967836 0.002257833 -0.11389859 -0.9381241 -0.9030237
0.7738448 0.008188042 0.8667216 0.7334294 0.61473656 3.2707636 -0.14106044 -0.072315015
0.02394853 0.36965865 -0.03433004 -0.00016065325 0.2632493 0.6973256 -0.023587048 2.5142584
0.03304923 -0.23413114 0.030615898 0.017013118 -0.37485594 0.029270759 -1.4117068 0.38725123
0.8042171 -1.5915703e-05 -8.198918 0.60147035 0.024716713 0.96704185 -1.401922 0.007354751
-0.20857254 -0.04057614 -0.03184026 -0.17471111 0.4575117 -0.10148111 -0.020349856 0.014954128
0.40196759 0.42949873 -0.062709734 0.0080919 13.209513 -0.29755095 0.020721309 0.033733916
-0.12993908 -0.02219807 -0.32072213 0.007707705 -0.18047154 -0.02863981 -0.14084066 0.027346224
-1.5071423 0.8757121 -0.11769896 0.04229089 0.031490296 -0.06340124 -0.6723177 0.48391572
-1.8026623 1.2497318 0.0117848385 -0.081618756 -0.14992553 -1.028909 -0.47371238 0.7660047
-0.04101594 -2.122681 -0.019839175 -0.17218935 -0.0047773346 -0.029778408 1.0324442 0.54314286
-0.37132958 0.82270396 0.032228094 -0.8804294 0.01962383 -0.024755746 -0.03686426 0.042932056
0.010502157 -1.6558031 1.1369306 -0.12854303 -0.07098281 -3.903468 0.55500126 -0.08725937
-0.07750354 -0.056284748 1.2157078 -0.032156873 -0.08861985 0.019632438 0.21188653 1.239487
-0.1612494 -0.083650514 -0.03672754 0.008199685 -3.769799 0.45713493 0.035602037 -0.11539081
0.7614261 -1.4553936 0.635093 -1.0678244 -0.15170297 0.008741862 0.039381288 -0.026405364
-0.1423652 -0.18461718 0.0069391676 0.73406196 -0.041388277 0.28017053 -1.1503004 0.2890236
2.9674 -0.12187855 0.03751302 -0.24833152 -0.1116279 -1.1720016 -0.09857219 -0.062389735
-0.012095292 -0.011660204 -0.16825138 -0.021575134 -0.3200397 1.002372 -0.09125392 0.033372987
0.032511678 0.26648313 -0.25661826 -0.012755164 -0.84340525 -0.007771431 -1.160791 1.4352934
-0.15043329 3.4225397 -0.122967474 -0.061769553 -0.13265316 -0.99815834 0.26176983 -0.20926136
-0.034140293 -0.022494784 0.1644009 -0.054573443 -0.013839371 1.1238468 -0.114731915 0.03727299
0.3293615 0.1524461 -0.2125726 0.019932596 -0.04386558 -0.088681996 4.841493 -0.09845421
-0.21826456 -0.025617111 0.45521703 -0.036937345 -0.11389651 -0.15447852 -0.09873593 -0.04095965

linear_action.bias f4 [3]
00000000: 9a14 b33d 6a0b 4e3e e3e3 67be
0.08744164 0.20121542 -0.22645526

linear_value.weight f4 [1, 512]
00000000: d5ed 8dbc d672 64bf 71ad cebc da79 25be
00000010: 1a35 9bbc 2ad8 c8bd 5985 53be 2d01 a6bf
00000020: f9ad e940 32cd debf a502 2241 7bf7 82bf
00000030: c231 64bc 91ad 673f 609c 253d efa1 6cbe
00000040: 6011 4840 1d70 19be ad7d c2bf 0286 15bd
00000050: ef3c 20bd ddd0 ecbf d796 42be db7d 33be
00000060: 6985 0b3d 8a86 81be bd6d b240 315f e43b
00000070: c5b1 7ebd c6f1 5bbd 5ac8 64bc ee95 b9bf
00000080: a920 c1bd d712 e83b 8aa0 94be a1bf cabf
00000090: 4ba4 d4bc 4356 77be 0a0d 253e 9a54 fbbd
000000a0: a411 82bf 6258 88bb 2c4a fabb 2e2b 253d
000000b0: afc3 b83d 5f59 5e3c 228a b0bd 7995 babf
000000c0: ef09 e8bd 75de ed40 8d77 7bbe 1cdc 953c
000000d0: 54b9 ba40 e4d0 e3bf ded1 37be 4834 a3bf
000000e0: b785 46bf cc10 b03b 175d 95bf c750 113c
000000f0: a5c6 513e 1911 4fbe 07d9 7cbf 5dd4 e8bf
00000100: 950d e8bf 394b a1bc 5b33 d1bf e239 60bd
00000110: e721 a93c 0f21 28be 280a d140 c326 b240
00000120: cf16 b8bf 5d27 26bd d18d cdbf cce8 bcbf
00000130: 7977 c1bf 088b e640 cc02 0dbe dafa 27be
00000140: 56e1 72bc dd7c 8abf f9e3 4f3c fd20 1dbd
00000150: 8e63 87bf a604 95bf a47f 80bc 72ea 8d40
00000160: 0d12 643c fae5 72bd e124 ad3c 6d9e 373c
00000170: 7fc7 553d c815 11bd 6134 a240 bf1d f640
00000180: cdde c0bf f300 c63b 4958 3340 a40e b0bf
00000190: 4da7 febc c5be cbbf 8646 8840 01d6 843c
000001a0: 9be5 c6bc 854e 273b fc7e b03c bea8 0dbe
000001b0: 0819 96bf ab22 bbbd 5791 193d 3152 19bc
000001c0: 6076 97bf 6d27 a1bf 7d5b 49be 6749 4f3c
000001d0: 5c68 7dc1 f292 dc3d d42b 023d 4a3c 963c
000001e0: 3536 dfbd 4365 61bc 046f 183e 5159 133b
000001f0: 2719 12be 272f 8bbc 3fbb 2abe d507 33bc
00000200: 204d 9340 d11a cabf 1c62 3bbe 3a4c dcbb
00000210: d351 24bd e880 2fbe 17e6 be40 8dd0 9cbf
00000220: c8b5 f63f 619c eebf c90d 68bc b4fd 48be
00000230: 72c7 513c dda2 cb3f fcaf 983e 7996 bebf
00000240: e600 bf3c 20ea 5840 7388 f83c ca64 483c
00000250: 43a4 bf3b be7d 1dbd f7f0 e1bf 9d1b aabf
00000260: 2821 823e cb28 d3bf b842 b83c 86ce b23f
00000270: 9491 c5ba fedc f63c 6dbf 5fbe 0d69 933c
00000280: 356f acbc b01d d240 3091 0541 48c7 93bc
00000290: 955c 13be 5c2e b740 388a 94bf 73d8 68be
000002a0: d973 9cbe 33f4 56be 1bfd efbf 5395 01bd
000002b0: 486f 48be 6b5a cfbb 9d95 5fbf eb27 e7bf
000002c0: 0cb4 24be 9bb0 51be 5a0a 77be 8e7c 8a3c
000002d0: 1d98 da40 e83a abbf f6bc 2fbd fed2 22be
000002e0: 331c bdbf 5a68 ae40 7b58 bebf 4a89 1f40
000002f0: dfa8 91be 9df6 213d 3a1a 833c fef8 12bd
00000300: b556 29be b825 14be 9585 d13b a988 bbbf
00000310: cabd 49be 5f7d 7dbf f34f b640 77d8 8fbf
00000320: a2fc f940 c0d8 7abe 063d e13b 7f42 cdbf
00000330: 2568 65be ce95 3a40 52f1 a6bd 8d87 57be
00000340: e212 2a3d 53f7 0abd 3580 98bd 2177 6b3c
00000350: cee4 e23d 086b d5bf c5b2 75be dd8b 0e3d
00000360: 9247 2f3d 0c32 86bf cdfb 053e 9bc4 283d
00000370: d68e dc3f 1807 1ebd 45f3 983f 3df3 fabf
00000380: 22f4 403c 9f38 0a41 c056 76be 3822 85be
00000390: 0122 05be 6deb 7740 4b5b 74bf caef 963d
000003a0: 430e 57be 23dc 233d 3830 64bf a248 59be
000003b0: 96a9 293d 0929 ebbf 8c6d ebbd 6cdd ab3a
000003c0: 3d63 93bf 73e2 62bf 470b 02bd 01a1 4dbe
000003d0: 6626 4abe 634c babd f982 1741 dbf7 05be
000003e0: 9896 2c40 f66f 323c 0d14 a1bf 2857 c73c
000003f0: b255 1bbe ea45 a0bd c3ce 54be 2d3b 45be
-0.017325321 -0.89237726 -0.025229188 -0.16159764 -0.01894622 -0.09806855 -0.20656337 -1.2969109
7.302487 -1.7406371 10.125646 -1.0231775 -0.013927879 0.90499216 0.040432334 -0.23108648
3.1260605 -0.14984174 -1.5194603 -0.036504753 -0.03912061 -1.850124 -0.19002853 -0.17528479
0.034062777 -0.25297958 5.575896 0.0069693555 -0.062181253 -0.05369737 -0.013963783 -1.449888
-0.094300576 0.007082324 -0.29028732 -1.583973 -0.025957247 -0.24154 0.16118255 -0.12271996
-1.0161633 -0.0041609267 -0.0076382365 0.040324382 0.09021699 0.013571112 -0.08620097 -1.4576865
-0.1133002 7.4334054 -0.24557324 0.018293433 5.835123 -1.7798123 -0.17951152 -1.275033
-0.7754778 0.005373096 -1.1669034 0.0088693565 0.20485933 -0.20221366 -0.9876866 -1.8189808
-1.8129145 -0.01968919 -1.6343797 -0.0547427 0.020646049 -0.16418861 6.53249 5.5672317
-1.4381961 -0.040564884 -1.6058904 -1.4758544 -1.5114585 7.2044716 -0.13770598 -0.16404286
-0.014824232 -1.0819355 0.01268863 -0.03836154 -1.0577257 -1.1642044 -0.015685864 4.434869
0.013920319 -0.059301354 0.02113575 0.011207205 0.052192207 -0.035421163 5.068894 7.691131
-1.5067993 0.0060425936 2.8022635 -1.3754468 -0.031085635 -1.5917593 4.258609 0.016215326
-0.024279406 0.002552898 0.021544926 -0.13833901 -1.1726389 -0.09137472 0.037492123 -0.009357975
-1.1833 -1.2590157 -0.19663806 0.012651778 -15.837978 0.10770215 0.03178008 0.018339295
-0.10899011 -0.013757053 0.14886099 0.0022483657 -0.14267407 -0.016990257 -0.16672991 -0.01092716
4.6031647 -1.5789434 -0.18299145 -0.006722954 -0.040117096 -0.17139018 5.965587 -1.2251145
1.9274225 -1.8641473 -0.014163443 -0.1962803 0.012803899 1.5909077 0.29821765 -1.4889671
0.023315858 3.3892899 0.030338502 0.012231061 0.005848439 -0.038449995 -1.7651662 -1.3289677
0.2541592 -1.6496824 0.022492751 1.3969276 -0.0015073293 0.030134674 -0.21850367 0.017994428
-0.021049121 6.566124 8.347946 -0.01803936 -0.14390786 5.724409 -1.1604681 -0.22738819
-0.30557135 -0.20991592 -1.8749117 -0.031636547 -0.195737 -0.0063279173 -0.87337667 -1.8059057
-0.16084307 -0.20477526 -0.24125043 0.016905095 6.8310685 -1.3377352 -0.042904817 -0.159008
-1.4774231 5.450238 -1.4870752 2.4927545 -0.2844915 0.03954183 0.016003717 -0.03588199
-0.16536982 -0.14467514 0.006394098 -1.465108 -0.19701305 -0.99019426 5.6972594 -1.1237935
7.812089 -0.24496746 0.0068737296 -1.6035918 -0.22403009 2.9153934 -0.08151497 -0.21047802
0.041521914 -0.033927273 -0.074463286 0.014371664 0.11078797 -1.6673288 -0.23993976 0.034801353
0.042792864 -1.0484023 0.13084336 0.041203123 1.723109 -0.038580984 1.194924 -1.960548
0.011776956 8.6388235 -0.2405653 -0.2600267 -0.13001253 3.8737442 -0.954518 0.07369955
-0.21001534 0.04000486 -0.89136076 -0.21219113 0.041421495 -1.8371898 -0.11495504 0.0013112254
-1.151466 -0.88626784 -0.031749036 -0.2008095 -0.1974121 -0.09096601 9.469476 -0.1308283
2.6966915 0.010890951 -1.2584244 0.024333552 -0.15169409 -0.07825835 -0.20781998 -0.19260855
