Reinforcement_Learning/exp2/pretrained_model/3_DDQN_DQN/581000.pth (torch, 28121 bytes, 4 tensors)

linear.weight f4 [512, 8]
000000 6d ef 85 3f 12 c3 81 3e 2f ef 8b bd e5 89 a9 be
       1.0463692 0.2534414 -0.0683273 -0.33113018
000010 7e 2c d5 3e 8b 35 dd 3e 08 68 ae be 42 06 ea 3e
       0.41635507 0.43204913 -0.34063745 0.457079
000020 e9 d0 23 bf 88 ce b6 3f 29 9d 97 bf ea 80 13 3f
       -0.63990647 1.4281778 -1.1844836 0.5761858
000030 71 fd 52 be 51 48 44 bf 91 ac 96 bf 18 43 29 bf
       -0.20604493 -0.76672846 -1.1771413 -0.66118
000040 e2 cc c2 3f 45 9d bb 3f 7d 8e 18 c0 8d d4 20 bf
       1.5218775 1.465737 -2.3836968 -0.62824327
000050 7f 1c fc bf 36 13 b2 3f 14 67 df 3e 33 87 0d bf
       -1.9696196 1.3912113 0.4363333 -0.5528442
000060 5d 00 16 bf 93 e3 24 3f e8 b4 c9 3e 1c d3 38 bf
       -0.58594304 0.6440975 0.39395833 -0.7219713
000070 4b da a2 be fb 93 60 3f 95 db 71 3e a4 fa 2b bf
       -0.3180717 0.877258 0.2361892 -0.6717932
000080 60 aa 53 bf 93 e0 46 c1 4c 4e c8 be 2e 45 9c bf
       -0.82681847 -12.429828 -0.39122236 -1.2208612
000090 ef 9a 8e bf 1e d0 e8 3e 89 0e b2 3e b5 d8 13 3f
       -1.1141032 0.4547128 0.34776714 0.57752544
0000a0 cd 6f 90 3e 9e 36 97 c0 b1 1f 0a bf d6 f0 07 c0
       0.28210297 -4.725417 -0.5395461 -2.1240745
0000b0 22 8d 5d bf e6 6d 09 be c9 c3 51 bd 31 a9 38 3d
       -0.86543477 -0.13420829 -0.051212106 0.04508323
0000c0 58 72 9d 3e 7d 63 07 3e b1 b3 20 3f 0d f5 99 bd
       0.307513 0.13221546 0.6277419 -0.07517443
0000d0 e8 fc 7e be d3 3f 45 be be 15 b4 3e b4 18 25 bf
       -0.24901164 -0.19262628 0.35172838 -0.6449082
0000e0 13 dc 34 bf 38 7c bd c0 fb b7 81 be 99 3f e2 bf
       -0.70648307 -5.9214134 -0.25335678 -1.7675658
0000f0 fe 10 b2 3f c4 28 5c 3e a5 e3 41 be 29 e0 07 be
       1.3911436 0.21499926 -0.18934496 -0.13269104
000100 f2 c7 57 bf 31 73 6b 3f 52 ce c6 be 0a fd 64 3f
       -0.8428947 0.91972643 -0.38829285 0.89448607
000110 47 96 93 3f 60 29 0e 40 16 38 e7 be 61 d5 42 3e
       1.1530236 2.2212753 -0.45159978 0.1902671
000120 6a a3 45 3e 35 52 1a 3f 36 d4 9e bd d3 98 db be
       0.19300619 0.6028169 -0.0775532 -0.42890033
000130 11 ff bc 3e c9 75 b7 be 82 c2 0f 3f d8 7d 1c bf
       0.3691335 -0.3583205 0.5615617 -0.6112952
000140 70 7a df bf 7c 0f 3f 3e a1 5d 27 40 65 2e 6e 3d
       -1.745924 0.1865825 2.6150897 0.058149714
000150 45 74 53 3f 95 f2 82 3f bb 82 63 bf 90 32 b4 be
       0.8259929 1.023028 -0.88871354 -0.35194826
000160 8c 7c 6e bf c6 50 fe 3f 01 3b e5 3d 9d 8f a2 3f
       -0.93158793 1.98684 0.11192895 1.2700077
000170 b7 47 83 bf cd 7b 00 c0 7e 3e b0 bd 80 9d f9 be
       -1.0256261 -2.0075562 -0.086056694 -0.48752975
000180 6e 5a eb 3f bd b3 56 bf 3f 92 06 c0 e6 23 60 bf
       1.8386972 -0.8386801 -2.1026762 -0.87554777
000190 22 95 24 40 47 3d ca 3f 1c 8b a6 3e 61 0d 2b bd
       2.5716023 1.579995 0.32528007 -0.041760806
0001a0 80 a5 08 be 9f f9 a2 c0 34 e2 0a bf 8d b5 e7 bf
       -0.13344383 -5.0929713 -0.5425141 -1.810228
0001b0 0e 10 a7 be 8c fb 4c be 86 ca 9b 3d 49 76 41 3f
       -0.32629436 -0.20017833 0.07606988 0.75571114
0001c0 e7 c7 04 bf 09 6e 9d 3f 69 9d 97 3f 55 7c 59 3e
       -0.51867527 1.2299205 1.1844913 0.21238835
0001d0 b8 d8 a5 3f 62 64 24 bf 86 f5 4c 3f 33 63 56 3f
       1.2956762 -0.6421567 0.8006214 0.83745116
0001e0 c3 f6 ac 3d ea a2 7a 3d 34 ed 4a be ad aa 0b 3e
       0.084455036 0.061190523 -0.19817048 0.13639326
0001f0 51 0a 3a be aa e4 8e bf 51 10 08 bf a4 73 39 bf
       -0.18167998 -1.1163533 -0.53149897 -0.7244208
000200 87 10 07 bf b7 eb 23 3e c0 5a 14 c0 f1 c6 a6 3e
       -0.52759594 0.16007887 -2.318039 0.32573655
000210 c0 c7 13 40 8f ca ed bf a5 68 1c bf b4 84 eb bd
       2.3090668 -1.8577441 -0.61097175 -0.114999205
000220 15 42 0a be 22 cb a3 c0 3b d0 38 40 2e d0 97 40
       -0.13501771 -5.1185465 2.8877094 4.7441626
000230 d1 09 63 3e 39 07 ed 3f bc d5 16 3e 9b c7 2f 3e
       0.22171713 1.8517829 0.1472997 0.17165987
000240 01 78 f4 bd b3 0d 2a be 1d fd c3 3e 44 9d 46 be
       -0.119369514 -0.16606788 0.38279048 -0.1939593
000250 90 dc 67 bf 08 ab 7d bf cf d2 97 bf c1 a8 d8 bf
       -0.90570927 -0.990891 -1.1861209 -1.69265
000260 93 30 8d be 21 12 f9 3d 87 66 c8 3f fe 5d 95 be
       -0.27576122 0.12161661 1.5656289 -0.29173273
000270 52 3c d7 be e8 d0 09 3f 6c 1f 70 bc 6a 74 ad bf
       -0.42038208 0.5383439 -0.014655929 -1.3551152
000280 d0 93 32 3f 52 66 17 c1 31 39 c7 be b2 03 70 bf
       0.69756794 -9.462481 -0.3891082 -0.9375564
000290 d1 d3 10 3e cb e9 32 3f d8 e7 2d bd 9f ec ad bf
       0.14143302 0.6988799 -0.04245743 -1.3587836
0002a0 c9 cf 8a bf 3e f8 d3 bf 8c 5a 74 3e 2b 5c 59 bf
       -1.0844661 -1.6560133 0.23862666 -0.8490626
0002b0 81 0e f3 3e fe 69 94 3e c5 49 59 bf e1 f4 70 3f
       0.47472003 0.28987116 -0.8487819 0.94123656
0002c0 3b aa 50 3f c5 5b a9 be 8a 5f d0 3f 59 d1 c2 be
       0.8150975 -0.33077827 1.6279156 -0.38050345
0002d0 cc 84 c5 bf 0d 95 5c bf 2e 6a bf 3e f6 ac 88 3e
       -1.5431151 -0.86164933 0.37385696 0.2669446
0002e0 8d bb 3b 3e d7 02 63 c0 c1 3d 6d be 4f 9d fc bf
       0.18333264 -3.5470483 -0.23168088 -1.9735507
0002f0 b4 f5 a0 be f4 ef d2 3e 8e de 71 be 84 51 bd be
       -0.31437457 0.41198695 -0.23620054 -0.36976254
000300 63 31 7b be 2d ca 04 3f e3 1b 7f 3e 7f dd be 3e
       -0.24530558 0.51870996 0.24912982 0.37278363
000310 87 81 ca 3b b3 7f 13 3f 62 82 98 be aa 0d 50 bd
       0.0061799916 0.5761673 -0.29786974 -0.05079428
000320 96 64 99 3f 3f e3 01 3f e3 a9 98 3e 91 b1 13 3e
       1.1983821 0.50737375 0.29817113 0.14423205
000330 79 56 5e be a3 8b 96 be 0b 95 fb be 29 00 85 3f
       -0.21712674 -0.2940341 -0.49137148 1.0390674
000340 ce 14 3d 3f b2 2a 9a 3e ca 2d 8e 3e ed b8 7b bf
       0.7385987 0.301107 0.2776931 -0.9832905
000350 73 3a 17 bf 26 fe 7b bf 93 6d 9d 3d 59 b6 22 3f
       -0.5907356 -0.98434675 0.07686915 0.6355949
000360 a6 0b 00 c0 cb 07 c7 3e fe 3b 82 3e 0c 80 3d bf
       -2.000711 0.38873133 0.25436395 -0.7402351
000370 5f 5d 9e be f3 53 5a 3f 34 4e 26 3f fb 71 66 bf
       -0.30930611 0.85284346 0.6496308 -0.9001767
000380 f4 48 7a bf c2 c9 3e c1 7b 91 13 bf ad 6d fb be
       -0.9776757 -11.924257 -0.5764386 -0.49107113
000390 5b b8 de be 34 e9 65 3e e1 8d e1 3d d8 e1 43 3f
       -0.43500027 0.22452241 0.110133894 0.76516485
0003a0 4e 9f 45 be c3 aa 40 bf 92 a9 67 bf 80 1e 78 3f
       -0.19299051 -0.7526056 -0.9049312 0.9692154
0003b0 be c8 2a 40 06 a5 4d bf 8c 3d 16 be c7 e2 07 3e
       2.6685023 -0.8032993 -0.14671916 0.13270102
0003c0 2d 09 1e 3f f8 cf d9 bd e2 e1 63 bf 96 c6 09 bd
       0.6173275 -0.1063537 -0.89016545 -0.033636652
0003d0 d8 fa 86 40 26 3b cd 3e cb ae ea bd 6a 6c 8c be
       4.2181206 0.4008419 -0.1145912 -0.27426463
0003e0 23 ca 61 bf 5e a6 23 3d 70 93 c9 bf e8 02 07 c0
       -0.8819906 0.039953582 -1.5748119 -2.1095524
0003f0 31 ba 1c 3f cd 02 31 bf 08 f6 ff be cf 91 c8 be
       0.61221606 -0.691449 -0.49992394 -0.39173743

linear.bias f4 [512]
000000 00 c2 26 3f 87 d8 99 bf b8 5a d9 be 1a 71 33 3f
       0.6513977 -1.2019204 -0.42452025 0.70094454
000010 f3 5d 38 bd 50 d9 5e bf e2 40 41 3f 2a 21 da be
       -0.045011472 -0.8705034 0.7548963 -0.42603427
000020 ea 73 19 3f 00 1c 7e 3f ab 9e c8 bf 4e 29 fa 3e
       0.59942496 0.99261475 -1.5673422 0.48859638
000030 1b b2 04 bf b3 e6 05 bf fc 13 b7 bf a9 ea b7 bf
       -0.5183427 -0.52305144 -1.4302974 -1.4368488
000040 ad d2 00 3b 72 e9 79 be 54 e0 01 3f f0 ef 2d 3f
       0.0019656823 -0.24405459 0.5073292 0.6794424
000050 40 3b 69 3f 4f c9 31 3f d8 92 47 3e c6 64 5a bf
       0.91106033 0.694478 0.1948961 -0.8531002
000060 c7 e4 6f 3f 92 88 9c 3e 70 28 14 be 55 20 7b be
       0.9370846 0.30572945 -0.1446855 -0.24524052
000070 d4 f6 bd bd a7 0e a7 be 8f 2c eb bd 66 ee 73 be
       -0.09275594 -0.32628366 -0.11483108 -0.2382141
000080 31 03 e9 bd e7 1d b4 3e 6c c3 ed be 95 f8 a7 3e
       -0.11377562 0.35179064 -0.46438158 0.3280684
000090 da 68 a0 3e d3 75 9b bd 46 07 75 3f 8e f6 95 be
       0.31329995 -0.075908326 0.95714223 -0.2928967
0000a0 f1 54 81 bd a0 82 98 be 09 a0 30 bf 4c 45 20 3f
       -0.063150294 -0.2978716 -0.68994194 0.6260574
0000b0 22 4e b1 3d 8b 46 a9 3e b8 6c 7e 3f 04 2d ad 3e
       0.08657481 0.33061633 0.9938464 0.33823407
0000c0 76 96 09 3f b7 af 41 3f e2 a5 fa 3b 1d bf 75 3e
       0.5374521 0.75658745 0.0076491693 0.23998685
0000d0 b9 27 64 3f c6 8a a8 be de 79 f1 be 57 34 98 3f
       0.8912311 -0.32918376 -0.4716329 1.1890973
0000e0 24 86 bd be c4 03 f3 be e1 86 10 3f 95 97 45 3f
       -0.37016404 -0.4746381 0.5645581 0.7718442
0000f0 29 de bd be e3 3a 14 3c 58 1e 66 3f ab 69 de be
       -0.37083557 0.009047243 0.8989005 -0.43439993
000100 1d e1 e4 3e 2f fd 6b bf 49 7f 37 3f 78 54 1f 3f
       0.44702998 -0.921832 0.71678597 0.62238264
000110 6f b7 5d 3f 21 65 ef be db e9 0e 3e e2 38 1b 3f
       0.8660802 -0.46756843 0.13956396 0.6063367
000120 a7 88 c8 3d 52 d6 90 bd 58 f3 0f be 4d 82 97 bf
       0.09791689 -0.07072128 -0.14057672 -1.183664
000130 ab 28 80 3f b6 4d 71 3d 14 0f ac bf 31 cd 9f be
       1.0012411 0.058912 -1.3442101 -0.31211236
000140 c6 65 b8 bd 1a 09 42 3f fb 3b 62 3f ca e8 b6 3e
       -0.09003787 0.7579514 0.8837277 0.3572448
000150 18 0f 3b 3f 48 65 47 3f 93 cb 66 bd 02 d0 59 3f
       0.73069906 0.7788892 -0.056346487 0.8508302
000160 2c 09 2d bf f3 ba 07 be 1e 24 b7 3e 74 0a d2 bd
       -0.6759212 -0.13254909 0.35769743 -0.102559
000170 bb 3e c6 be 69 17 30 be 8e 17 53 3f b2 b6 25 3f
       -0.38719735 -0.1719643 0.82457817 0.64731896
000180 5b 89 6e bf 9e bd 6c 3f 84 a7 0f bf 80 a3 80 3d
       -0.9317834 0.9247683 -0.56114984 0.06281185
000190 e1 d2 cd 3e e8 d6 d2 bd 59 a3 21 3f ac c1 81 bf
       0.4019995 -0.10294896 0.63139874 -1.0137229
0001a0 91 48 41 3f d0 fb ba be 7d 4f 0c be cc 03 07 bf
       0.7550135 -0.36520243 -0.13702197 -0.5274017
0001b0 98 5d 38 3e 60 7c 25 3f 75 22 d5 3d 50 83 5f bc
       0.18004453 0.64642906 0.10406963 -0.013642147
0001c0 b0 cb 18 bd 42 97 d0 3d 1a 8d d5 bd 66 df cd 3e
       -0.037303627 0.101851 -0.104273036 0.40209502
0001d0 f5 6b 35 3f 7b 06 fb be 4e 41 9d be e5 5c 24 bf
       0.70867854 -0.49028382 -0.30713886 -0.64204246
0001e0 65 9b 0a 3f c4 e3 b4 3e 90 35 4e 3f 7f 85 44 be
       0.54143363 0.3533002 0.8055048 -0.1919155
0001f0 93 d5 84 bd ec 6f 69 3f 99 77 dd be 4d 04 02 bf
       -0.064860485 0.91186404 -0.43255308 -0.5078781
000200 d3 16 eb be b9 78 8a 3f 61 3a a8 bc 84 be 92 3f
       -0.4591585 1.0818092 -0.02053565 1.1464391
000210 e3 db 23 be 10 d0 63 bf 3f 49 11 be 86 97 83 bc
       -0.16001849 -0.88989353 -0.14188097 -0.016063463
000220 46 5a a9 3d 3b 98 d9 bd 9b d4 b0 be d0 17 35 bf
       0.082691714 -0.10624739 -0.34537205 -0.7073946
000230 a8 fa 86 3e b6 62 18 3f 30 e0 2c bd f8 ba 0e bf
       0.2636311 0.5952562 -0.04220599 -0.5575404
000240 05 e2 fc 3e 12 f4 08 3e 69 b4 55 3e 1a 82 38 3f
       0.4939119 0.13374355 0.20869602 0.7207352
000250 b5 10 99 3e 1a 7a be 3e 7e a8 20 3f 1f b2 11 3f
       0.2989556 0.3720253 0.627571 0.56912416
000260 8f 23 fa bd d6 47 cf 3c 51 c8 84 3f 92 11 9e bf
       -0.122138135 0.025302809 1.0373632 -1.2349112
000270 0a 84 3e bf da 7b b2 3e 6f 88 21 3e e7 ff 0b bf
       -0.74420226 0.34860116 0.15774702 -0.5468735
000280 03 28 4f 3f 2e 0d 8d bf 2c 5f e7 3e 35 75 07 be
       0.8092043 -1.1019647 0.45189798 -0.13228305
000290 65 16 90 bf bd 30 10 bf b8 8b 90 bf 95 60 0c bf
       -1.1256834 -0.5632437 -1.1292639 -0.5483487
0002a0 cf 10 c8 3e 14 16 fa bd 2b 37 75 3e aa 44 83 3f
       0.39075324 -0.12211242 0.23946826 1.025533
0002b0 cc e0 5f 3f 79 5f 67 3e e6 c9 06 3f 25 f8 c3 bd
       0.8745239 0.22595014 0.5265182 -0.09568814
0002c0 2b 96 98 bf 41 71 7b 3f be 74 ee 3e 61 71 59 be
       -1.1920828 0.98219687 0.46573442 -0.21234657
0002d0 65 6d 1a bf f2 0b 46 3f 3b a4 e9 3e 74 cd a6 3e
       -0.6032317 0.7736198 0.4563311 0.32578623
0002e0 fa 29 fa 3d 65 b4 83 3e 42 2d 0a bf 62 17 0f bf
       0.12215038 0.25723568 -0.5397531 -0.55895054
0002f0 ab 0f 31 3f b9 23 ec 3e d9 fd 4b 3f a8 be 5d be
       0.6916453 0.46121004 0.79684216 -0.21654761
000300 ca 29 05 bf 49 43 60 bf 2b a0 9f 3e 42 ef 3c 3e
       -0.5201689 -0.8760267 0.31176886 0.18450645
000310 0a c7 64 bd b4 e0 17 be 6c ef ca 3e ca e2 50 bf
       -0.05585388 -0.14831811 0.3963579 -0.8159605
000320 14 25 31 3f f8 3e 82 bd b4 1a 79 3e e5 40 46 3f
       0.691972 -0.063596666 0.24326593 0.7744277
000330 98 f8 b3 be 9e ea f3 be 4e a6 1f 3f 47 77 4f bf
       -0.351506 -0.47639936 0.62363136 -0.8104138
000340 12 c5 3a 3f 1a ee 9f be ac 39 73 be e0 bc 00 3f
       0.72956955 -0.31236345 -0.23752469 0.502882
000350 f1 3a 46 3f a1 6f 51 bf 0a e3 bb be 41 a8 ad 3e
       0.7743369 -0.8181096 -0.36696655 0.3391743
000360 24 6d e9 be 74 71 a2 3e ed 0b 71 3f c9 69 01 bf
       -0.4559108 0.31727183 0.9415882 -0.5055204
000370 a7 26 04 3f 78 42 54 3e 9a 4e 30 3f 71 c5 01 3e
       0.5162148 0.20728481 0.68869936 0.12672974
000380 84 a4 d1 3e 33 6b 4b 3f bc 5d a9 3e 4c 53 9a 3e
       0.40945828 0.7946045 0.33079326 0.30141675
000390 3b fd 79 3f bd da 3b be d0 0a 54 bf 90 47 60 bf
       0.97652024 -0.18345161 -0.82829 -0.87609196
0003a0 77 10 f7 3e d4 d8 64 bf 62 35 57 3f 85 c3 26 3f
       0.4825475 -0.89393353 0.8406583 0.6514209
0003b0 38 a3 09 3f bb 7b 5e 3f 5f e0 cf 3f 8b 10 5a 3f
       0.5376468 0.8690755 1.6240348 0.8518149
0003c0 9a e1 02 bd 7b c0 f3 bd 3d 78 d6 be dc fe fa 3e
       -0.03195343 -0.11901947 -0.4188861 0.49022567
0003d0 d8 96 ae 3e e6 32 70 3f 8d 3a 53 3d 47 32 fa 3e
       0.3409946 0.93827665 0.05156951 0.48866484
0003e0 f4 22 9f be ee 0d ba 3e ca 34 86 3f cf 6f a7 3e
       -0.31081355 0.36338753 1.048486 0.3270249
0003f0 4b 2f 40 be cc d2 5f bf 8b cc 21 3f 57 a6 71 3f
       -0.18768041 -0.87431026 0.6320273 0.9439444

linear2.weight f4 [4, 512]
000000 7f 7f df 3d 60 ca 3c 40 a6 42 b9 3f d3 98 1f 3f
       0.1091299 2.949852 1.4473464 0.62342566
000010 fe c0 de be e6 00 70 bf 81 65 aa 3c 22 96 c5 3d
       -0.43506616 -0.9375137 0.020800354 0.09647776
000020 7f 93 15 bf 31 3a 91 3f 2e 0f 58 40 b7 f5 1b c0
       -0.58428186 1.1345884 3.3759265 -2.4368722
000030 7b a9 8e c0 06 04 77 bf 55 4f 89 40 4b 01 f2 bf
       -4.4581885 -0.96490514 4.290934 -1.8906645
000040 4d 92 4f c0 8a 5b 78 c0 6d d4 1b 3f 06 5d 0d 3f
       -3.2433045 -3.880587 0.6087101 0.5522007
000050 79 c8 4a 40 b8 a9 60 3f 25 a5 49 bf 6b 62 2c c0
       3.1684859 0.8775897 -0.78767616 -2.693507
000060 8c 6e 12 3f 79 6e 4f 3e fb aa b2 3f f7 dc 06 c0
       0.5719993 0.20256986 1.3958429 -2.1072366
000070 6c b2 20 bf 5c 69 41 40 68 74 87 40 4b 51 4a 40
       -0.6277225 3.0220556 4.2329597 3.1612117
000080 35 0d dc bf b5 13 6b bf 6b 23 f7 3f 52 a8 3c be
       -1.719153 -0.91826946 1.9307684 -0.18423584
000090 d0 ca 3c bf e9 41 86 40 ed cd 88 3f 77 56 b3 c0
       -0.7374697 4.1955457 1.0687844 -5.604305
0000a0 55 77 66 bb 2c f1 05 3e 50 d8 21 c0 18 72 65 3f
       -0.0035166342 0.13080281 -2.5288277 0.8962722
0000b0 cb 2a 6e bf 20 fe 6c be f0 ad 1d c0 da df 28 bf
       -0.93034047 -0.23143816 -2.4637413 -0.6596657
0000c0 cf 8d 02 bf 9a 34 b2 3f 6f 69 c3 be 96 c4 30 40
       -0.5099763 1.3922303 -0.38166377 2.7619987
0000d0 aa 8b ba 3f d2 02 58 40 b0 5d 07 bf 90 b8 be 3f
       1.4573872 3.3751721 -0.5287733 1.4900074
0000e0 8b 93 26 bf af 03 06 40 49 05 a1 bd 81 09 1e 3e
       -0.6506888 2.0939748 -0.07862336 0.15433313
0000f0 29 29 a3 bf fb 57 ca be dd e6 16 3f 3b 7f 39 bf
       -1.2746936 -0.3952025 0.5894602 -0.72459763
000100 a7 70 18 be 6d 13 e3 bf 19 80 dd bf b8 bf d4 3f
       -0.14886723 -1.7740303 -1.7304717 1.6621008
000110 0c 2b 86 3f 8f 4f 32 3f b0 31 a5 bf c6 f8 b1 be
       1.0481887 0.69652647 -1.2905788 -0.34760112
000120 cc 34 c6 bf 98 e3 e3 bf 6f ee 3e c1 81 8d 28 c0
       -1.5484862 -1.7803831 -11.933211 -2.6336367
000130 2c ef 0c 3f e4 86 48 bf 7e ae 9a bf ec 78 04 40
       0.5505245 -0.78330827 -1.2084501 2.0698805
000140 61 07 31 40 0c f3 c6 3f 4e 17 80 3e f7 6c 32 bf
       2.7660754 1.5542922 0.2501778 -0.6969752
000150 a1 2a 44 c0 50 b5 a0 3f ff 47 ce be 18 60 fe 3f
       -3.0651019 1.2555332 -0.40289304 1.9873075
000160 61 34 c5 3f 52 0c 23 3f 84 d1 2d 40 c2 a2 9b bf
       1.540661 0.63690674 2.7159128 -1.2159045
000170 60 bd ce bf 64 e2 d5 40 27 84 88 3f 8c 55 89 be
       -1.6151543 6.6838856 1.066533 -0.2682308
000180 e8 42 37 c0 de e4 04 3f 59 69 55 bf 38 d6 01 c0
       -2.8634586 0.51911724 -0.8336387 -2.0286999
000190 f1 5f e7 be c9 78 e6 bf b9 73 3b bf 7d 5b 34 c0
       -0.45190385 -1.8005611 -0.73223454 -2.818084
0001a0 07 20 ea 3f d3 38 8d 40 33 85 b3 bf 4d e5 60 c0
       1.8291024 4.4131866 -1.4025024 -3.5139954
0001b0 44 43 07 c0 59 62 69 3f 47 40 33 bf 93 1b bd be
       -2.1134806 0.9116569 -0.70019954 -0.369351
0001c0 a8 fe b2 bf f1 6e d4 be 38 71 16 40 48 8b a0 bf
       -1.3983965 -0.41490892 2.3506603 -1.2542505
0001d0 b5 c9 a1 3f dc 39 3b c0 1a 4c 0b bf 32 a9 84 bf
       1.2639681 -2.9254065 -0.54412997 -1.0364134
0001e0 14 ab 11 be fe 8e 11 bd f6 98 cd 3c 98 0e 3a bf
       -0.14225417 -0.03553676 0.025097352 -0.7267852
0001f0 6d ca 94 bf 4e 71 1d 3f b3 75 d3 3e c9 69 05 bf
       -1.1624275 0.61501014 0.41300735 -0.5211454
000200 d3 90 88 bf cc a9 88 3f 3d 5c a5 bc 13 eb ea 3e
       -1.0669197 1.0676818 -0.020185584 0.45882472
000210 2f b4 12 3e d0 b8 2c c0 f0 5b fe bd 6b 92 2e c0
       0.14326547 -2.69878 -0.124198794 -2.7276866
000220 13 ef ac bf e2 95 14 be 01 39 e9 3f d1 92 c3 3e
       -1.351046 -0.14510301 1.8220521 0.3819795
000230 3e 5d 72 bf e9 7f c4 bf f6 13 31 bf e6 5a 83 bf
       -0.94673526 -1.5351535 -0.6917108 -1.0262115
000240 6e 70 b6 be 2a 7d bf 3f e5 9c d1 bf 72 26 72 bf
       -0.35632652 1.4960072 -1.6376005 -0.9458991
000250 92 0a c9 3e 48 65 02 bf 2f 9e 68 3e ee b9 04 bf
       0.39265877 -0.5093579 0.22716592 -0.51846206
000260 be ef 90 bf 7e 98 ca bf 6b dc 43 3e e5 cf 8d 40
       -1.1323164 -1.5827787 0.19127052 4.4316278
000270 97 de bf 3f f2 f4 15 bf c0 b6 68 be 08 ee eb bf
       1.4989804 -0.5857688 -0.22725964 -1.8432016
000280 e6 57 aa 3f e5 b8 01 c0 2e ec c2 3d 26 14 21 3f
       1.3308074 -2.02691 0.09517704 0.6292137
000290 05 77 43 bf b0 03 19 c0 2e c7 31 c0 ac 1e 85 bf
       -0.76353484 -2.39085 -2.777782 -1.0399985
0002a0 53 ba 2a 3f c6 97 0a be ee f6 c9 be 60 4f 86 3f
       0.6669056 -0.1353446 -0.39446205 1.0492973
0002b0 56 5a 42 40 3a c5 4b 3e 8a ad dc be 45 fe 2d c0
       3.0367637 0.19899455 -0.4310115 -2.7186444
0002c0 fb 29 80 c0 cb 2d 14 40 d9 4d c7 bf 5e 2d 7c 3f
       -4.0051246 2.315295 -1.5570632 0.98506725
0002d0 a9 70 65 40 99 9b 76 40 ce ad 15 40 3c f6 2d 3f
       3.5850012 3.853247 2.3387332 0.6795385
0002e0 8e 38 37 bf 08 9a 36 3d cd 4d 17 bf 21 cb 2b 3f
       -0.7157067 0.04458049 -0.5910309 0.67106825
0002f0 1a 9a 53 40 52 8b 35 bf cf 80 16 3f 48 0c ef be
       3.3062806 -0.7091571 0.58790296 -0.46689057
000300 22 b7 55 bf e9 32 27 40 48 f4 eb 3f 8b b5 33 3e
       -0.83482563 2.6124823 1.8433924 0.17549722
000310 a5 26 8c bf 93 1a a5 bf ad 52 77 bf ef af e0 bf
       -1.0949293 -1.2898735 -0.9661053 -1.7553691
000320 9e 46 65 40 9d 5b 11 40 f0 e8 99 3f 30 7a 36 be
       3.5824351 2.2712166 1.2024212 -0.17820048
000330 c2 a3 b6 bf b1 8c 3c c0 31 34 e4 bf d6 63 14 3d
       -1.4268725 -2.9460871 -1.7828428 0.036228023
000340 ce 59 55 bf 88 58 f7 3f ea cf 29 40 52 c1 63 bf
       -0.83340156 1.9323893 2.653315 -0.8896686
000350 d9 cf 65 3e fe 7a 0b c0 00 e6 27 c0 e6 05 5b 3f
       0.22442569 -2.1793818 -2.623413 0.85555875
000360 3e a2 86 3f 07 f0 22 c0 40 c1 c3 3e 43 81 a6 bf
       1.0518262 -2.5459 0.38233376 -1.3008198
000370 0f 8e 12 bf 56 b9 53 40 ed aa ca 3e 68 6e 1e 3f
       -0.57248014 3.308187 0.3958353 0.61887217
000380 70 d5 21 bf 7a c6 26 c0 87 bf 9b be 98 a3 f1 be
       -0.63216305 -2.605864 -0.3041956 -0.47195125
000390 71 9a 21 bf b1 ca 52 bf 25 ad 64 bf a9 61 37 bf
       -0.63126284 -0.8234053 -0.893267 -0.7163339
0003a0 78 0e 0a 3d 64 22 44 c0 17 82 ef 3e f6 21 85 3e
       0.033705205 -3.064599 0.46778938 0.26002473
0003b0 5f 9b 05 c0 47 aa 36 3f 89 9e 9b 40 a2 ca 0b 3f
       -2.087608 0.7135357 4.8631024 0.5460607
0003c0 c6 67 5f bf a7 79 91 c0 e5 49 25 c0 02 0e 1f c0
       -0.8726772 -4.5461 -2.5826352 -2.48523
0003d0 75 5b f7 bd be 88 48 bf 1d 37 00 c0 86 7c ab bd
       -0.12077991 -0.7833365 -2.0033638 -0.0837336
0003e0 24 86 4d 40 ef 8b 53 3f 96 00 77 3f 9e 6b 7c bf
       3.2113123 0.82635397 0.9648527 -0.9860171
0003f0 ab a6 d2 3f 32 0c 71 bf 0a ae 27 c0 60 b9 5a 3e
       1.6457113 -0.94159234 -2.6199975 0.21359777

linear2.bias f4 [4]
000000 f6 47 9c 3e 43 f6 22 bc 40 9b 5e 3e 30 a1 50 3d
       0.30523652 -0.009946409 0.2173891 0.05093497
