Reinforcement_Learning/exp2/pretrained_model/3_DQN_DuelingDQN/566000.pth (torch, 30671 bytes, 5 tensors)

linear.weight f4 [512, 8]
000000 c0 92 0b bf ce 99 ef be 89 f2 04 c0 23 a7 9f bf
       -0.545208 -0.4679703 -2.0773032 -1.2472881
000010 50 c2 d5 3e 18 97 72 3e 3c 2b a0 3c 67 c3 4b 3f
       0.4174981 0.2369045 0.019551866 0.79595035
000020 0a 48 4a 3f c1 2a 47 3f 7a 73 2a be 43 b6 87 bf
       0.7901617 0.7779961 -0.16645613 -1.0602497
000030 73 02 23 40 35 49 d2 3f ba 0d b3 bf c8 4d 15 be
       2.5470245 1.6428591 -1.3988564 -0.14580452
000040 8e 6d ba bf 59 97 86 3f 5c 4a 87 bf 53 5a c1 bf
       -1.4564683 1.0514938 -1.0569568 -1.510569
000050 b3 e2 20 bf 89 74 84 3f 88 40 b8 3e e0 be 89 bf
       -0.62845916 1.0348064 0.35986733 -1.0761375
000060 a9 ca 07 bf b9 13 1a c1 66 df 1c bd 50 20 44 3f
       -0.5304361 -9.629815 -0.038298987 0.76611805
000070 25 bf aa bf a2 8b 2c 3f 65 3d 62 3e 84 6c a4 3f
       -1.3339583 0.6740056 0.22093733 1.2845616
000080 39 51 2c 3d 23 79 71 3e 35 98 16 be 25 41 5c c0
       0.042069647 0.23581366 -0.147065 -3.441476
000090 8e 86 39 3f d1 4f 11 3e 25 16 4a bf 52 3a 5d be
       0.7247094 0.14190604 -0.7894004 -0.21604279
0000a0 6f 2b 32 3f c2 6d ce c0 55 19 28 3e 31 0d 7a bf
       0.69597524 -6.450898 0.16415913 -0.9767638
0000b0 eb 1b 8c bf de 94 04 3e e7 53 14 3f 9a 60 d7 3b
       -1.094602 0.12947413 0.57940525 0.006572795
0000c0 0c 5a 39 3f 03 88 97 3f 61 3e 07 bd 9a bd c9 3e
       0.72403026 1.1838382 -0.033018474 0.39402467
0000d0 fe 48 f7 3e da 6b 6a bf 3f 2e e7 be be c2 1b bf
       0.48297876 -0.9157082 -0.4515247 -0.6084403
0000e0 0e 80 63 3f b4 d3 df 3f 5c 93 c6 be 24 94 ee bf
       0.8886727 1.7486482 -0.387843 -1.8638959
0000f0 3f 6f aa 3f 8a 14 c1 3f ab a6 bc bf d8 de e4 be
       1.33152 1.5084393 -1.4738363 -0.44701266
000100 31 eb 5f bf 05 26 10 bf 60 f3 16 40 ad 82 64 bf
       -0.8746825 -0.56308013 2.3586044 -0.89261895
000110 6f 9f a6 bf 6f bb d0 3f ab 63 5b 3e 08 0c 7a bf
       -1.3017405 1.63072 0.21424739 -0.9767461
000120 72 d6 38 3f 13 be 30 c0 28 b0 77 40 ee e0 34 40
       0.7220222 -2.7616012 3.8701267 2.8262286
000130 93 6b 02 40 c9 95 82 3f ec 11 52 be a1 92 53 be
       2.0378158 1.0201961 -0.20514649 -0.20661403
000140 0c 4a 04 bf 9f a3 1c 3f 35 57 19 3f 87 d6 0b c0
       -0.51675487 0.61187166 0.5989869 -2.1849687
000150 20 5a 65 bf 87 d0 15 bf 4b 99 93 bf a0 cc e9 be
       -0.89590645 -0.5852131 -1.1531156 -0.4566393
000160 d2 ac 3b bf bf 5b 12 bf 1d 18 b6 3f 3a 30 75 bf
       -0.7331058 -0.57171243 1.4226109 -0.9577671
000170 0b 86 e3 3f b4 e2 11 3d e9 f4 e2 3e 00 56 a3 bd
       1.7775282 0.03561659 0.44327477 -0.079753876
000180 d7 68 3d 3f 27 81 69 3f 6b a4 6f 3f dc 5b 80 3f
       0.739881 0.91212696 0.93610257 1.0028033
000190 aa f7 ac 3d f2 4c 31 3f 3b c2 10 3f 7b dd e3 bf
       0.08445676 0.69258034 0.5654637 -1.7801965
0001a0 eb a4 36 c0 df 6c 12 c1 20 6c 3e bf 16 cc 97 bf
       -2.8538158 -9.15158 -0.74383736 -1.1859157
0001b0 07 26 d2 3e ce 91 b8 3e 38 7f 04 bf 07 46 2b 3f
       0.41044638 0.3604874 -0.5175662 0.6690373
0001c0 16 38 3f bf 6a 29 a7 3f f5 e4 e4 be 55 f6 e8 3f
       -0.74694955 1.3059514 -0.4470593 1.8200175
0001d0 a1 e4 e5 bf 17 d4 4d be 70 9c f0 3e 65 1f f0 be
       -1.7960397 -0.20100437 0.46994352 -0.46898952
0001e0 44 b5 ca 3f c5 7a 3f 3e 28 e5 a0 be 5b e3 63 3f
       1.5836568 0.18699177 -0.31424832 0.8901879
0001f0 4c e1 86 3e 12 d8 c4 bf 3f fb fa 3d 07 5b db be
       0.26343763 -1.537844 0.12254953 -0.42842886
000200 2a f5 ad bf 49 a2 d3 bf f8 eb 36 bf 98 c1 d7 bf
       -1.3590443 -1.65339 -0.7145381 -1.6855955
000210 d9 52 cf 3d 62 c7 c7 bf e9 37 e6 be 20 92 88 3e
       0.10123224 -1.5607722 -0.4496453 0.26673985
000220 f5 fa 88 bd 55 f2 d9 3c e6 49 fa 3e d2 cd 80 3e
       -0.06688491 0.02660481 0.48884505 0.25157028
000230 8d ae 67 bf 2b 9e 46 40 28 d8 b0 3a 33 9a 8d be
       -0.9050072 3.1034038 0.0013492154 -0.27656707
000240 9d d0 82 be 54 c8 04 bf db b1 39 3e a9 ad 35 be
       -0.25549784 -0.51868176 0.18134253 -0.17742027
000250 4f 70 e9 3e c4 5b d9 bf 85 b9 af bf fa 32 03 bf
       0.45593497 -1.698113 -1.3728491 -0.5124966
000260 13 81 80 3f fd 09 92 3d 9b fa 0f 40 80 00 90 3d
       1.003939 0.07130811 2.2496707 0.07031345
000270 49 6e 84 3f 3d 02 f3 bf 57 52 19 3f 6e 1f 60 bf
       1.0346156 -1.8985058 0.59891266 -0.8754796
000280 08 43 d9 3e 54 a1 0f bf c4 36 3f be 03 cc 68 bf
       0.42433953 -0.5610554 -0.18673235 -0.909363
000290 28 80 a2 3f 0e cd f2 3e 8e 0b 0d 3e 17 80 66 3f
       1.269536 0.4742207 0.13773939 0.900392
0002a0 c9 17 44 bf e9 6f 45 3f 9b ea 80 3e e0 75 56 bf
       -0.76598793 0.77123886 0.2517899 -0.8377361
0002b0 41 0c 38 bf 52 63 50 3f 5f d4 44 bf 7a 10 80 3e
       -0.718937 0.8140155 -0.7688655 0.2501257
0002c0 0c bb 58 3f bb cd 17 3f c8 03 83 be 2d 8c 8b 3f
       0.8466041 0.59298295 -0.25588822 1.0902153
0002d0 bc bb ee 3f d1 6f 27 3e 96 55 39 3f 73 c1 63 be
       1.8651042 0.16351248 0.7239622 -0.22241764
0002e0 3b 91 a4 bf a2 52 c4 c0 2f 00 e7 3f 11 e7 2f 40
       -1.2856821 -6.135087 1.8046931 2.7484782
0002f0 42 ff 68 be fc 3c 7a bf a2 6e 08 3f f3 20 c7 bd
       -0.22753623 -0.97749305 0.5329381 -0.097230814
000300 d1 3b 5c bf d5 0f ae bc 48 95 7b bf 80 84 90 bf
       -0.8602877 -0.021247784 -0.9827466 -1.1290436
000310 42 8c 1b 3f c5 a0 0b 3d 77 fc 51 bc fa b2 db 3e
       0.6076089 0.03408887 -0.01281654 0.42909986
000320 6a 90 03 40 33 17 3d 3f 5d 30 e1 3e 3c 2c 66 3f
       2.0556893 0.73863524 0.4398221 0.89911246
000330 6d 43 33 3f 91 71 14 3e c2 b1 c4 be 40 9a 31 bd
       0.7002476 0.14496447 -0.38416868 -0.043359995
000340 ac be 80 3f d9 a4 b1 c0 99 95 b6 3f 5d 30 30 40
       1.0058188 -5.551373 1.4264404 2.7529519
000350 2c b8 20 3f 86 0c 32 bf 6c 66 54 3e c4 12 fb 3e
       0.62781024 -0.6955036 0.20742196 0.49037755
000360 81 8e 4f bf 5d b3 14 3f 7d 2d d3 be 67 70 0c 3f
       -0.8107682 0.58086187 -0.41245642 0.5485901
000370 2b 3c 25 40 bc 32 05 40 82 b2 32 3e 61 d0 35 bf
       2.5817974 2.0812216 0.17450908 -0.71021086
000380 e5 50 c2 be f0 30 a3 3e 87 6e de 3e 9d ec f0 bf
       -0.37952343 0.31873274 0.434437 -1.8822209
000390 3f af 9d 3f cd d5 80 bd 4d 6d 00 3f d1 0e a7 3f
       1.2319106 -0.06290779 0.5016678 1.3051397
0003a0 8b 97 18 3e 1b 38 89 3e e4 48 ee 3f d0 38 04 bf
       0.14901559 0.26800618 1.8615994 -0.5164919
0003b0 03 1d a4 bf c2 39 ed bd 99 ba 0d 3c fc 37 c6 bf
       -1.2821354 -0.11583282 0.008650445 -1.5485835
0003c0 38 61 1b 3f 17 9d d1 bd 2a fd 8d bd 30 dc 2e 3e
       0.6069522 -0.10235041 -0.06933053 0.17076182
0003d0 99 9f 7c 40 e7 07 99 3d ba ca 1b 3f 64 9c 5e 3e
       3.947241 0.074722104 0.6085621 0.21739346
0003e0 ef 73 2f bf 84 0c 2f 3f 2f d6 5e bf 67 60 b2 3e
       -0.68536276 0.6837847 -0.8704557 0.34839174
0003f0 99 59 0f bf c9 a6 88 3e 24 64 59 be 0c 69 ba be
       -0.5599609 0.26689747 -0.21229607 -0.3640827

linear.bias f4 [512]
000000 5b 41 00 3f 5f bd dd bd 62 1e f5 3e a0 cb 45 bf
       0.50099725 -0.10827135 0.47874743 -0.7726383
000010 a4 22 8d 3e 38 a2 9b be 66 9e 46 3f 72 ca f9 3d
       0.2756549 -0.303972 0.77585447 0.121968165
000020 c9 4a 04 3f 7f d6 e5 3e e0 83 0d 3e f3 ad a8 3e
       0.51676613 0.4489021 0.13819838 0.32945213
000030 4d d3 17 3e ee 34 1f 3e c2 16 a2 3e 2e ac 10 3f
       0.14826699 0.15547535 0.31657988 0.56512725
000040 25 83 16 bf 99 3b 96 3e b9 5a 9e be 04 b1 e8 be
       -0.5879386 0.29342344 -0.3092859 -0.45447552
000050 78 eb 14 3f 3c 1c a9 3f 40 0e 23 3f 52 a1 ae bf
       0.58171797 1.3211741 0.6369362 -1.3642981
000060 cd 6a 25 3f e5 e4 28 3f d7 a7 ac bd eb ee 50 3e
       0.6461609 0.65974265 -0.084304504 0.2040364
000070 07 18 73 3d ca 38 0b 3f da e5 34 bd f5 98 85 3f
       0.059349086 0.5438353 -0.044164516 1.0437304
000080 8b 66 bc bf 69 ca dc 3e 69 e1 a5 3e b8 25 91 3e
       -1.4718794 0.43123177 0.32398537 0.2834909
000090 d0 b5 0f 3f a6 b3 65 3f 4c c4 07 3f d8 1a 0e bf
       0.561368 0.89727247 0.530339 -0.5550971
0000a0 db cb 33 be 3c bf 63 3e ee 9c 16 3f 91 51 80 bf
       -0.17558233 0.22240919 0.58833206 -1.0024892
0000b0 32 be 81 3f 66 89 1c 3f 39 15 92 3f 7e 47 b0 be
       1.0136168 0.61147153 1.1412727 -0.34429544
0000c0 17 c4 8c bf a1 3c 36 3f ee cc ac be 92 60 23 3e
       -1.0997342 0.7118626 -0.337501 0.15954807
0000d0 42 eb 31 3e e4 9e d3 3e 73 98 c8 be aa 56 71 bf
       0.173749 0.4133216 -0.3917881 -0.94272864
0000e0 ec c4 52 bf 96 c4 3a 3f 83 0a 09 3f 73 07 3a bf
       -0.8233173 0.72956216 0.53531665 -0.72667617
0000f0 1d 17 86 3e bc 8d 19 bf 4f e7 69 3f 92 de 14 3f
       0.2618951 -0.59981894 0.91368574 0.58152115
000100 ef 26 d8 3e 2b dc e1 be aa 36 00 bf 2b 3a a3 3f
       0.42217204 -0.44113287 -0.5008341 1.2752126
000110 fd 31 36 3e 7f 4f 22 bf 48 62 af bd a7 9a 10 3f
       0.17792507 -0.6340255 -0.085636675 0.5648598
000120 47 a2 3d 3f fd 9e 55 3f 1d b8 99 3e 62 15 7a 3d
       0.7407574 0.8344572 0.3002328 0.06105555
000130 d8 86 d0 3e 6c cf 31 3f 92 00 84 bf dd 8c 46 3f
       0.40727878 0.69457126 -1.0312674 0.7755869
000140 89 cd 1d 3f 45 b5 57 3e c0 e9 2c 3f ba 8f 14 3f
       0.61641747 0.21065243 0.67544174 0.5803181
000150 ed e5 44 3f 36 19 a5 3d 38 80 e9 bd e8 c1 86 3e
       0.7691334 0.08061449 -0.11401409 0.26319814
000160 39 fe e9 3e 0c 94 2a 3e 49 48 ed 3e 5f d4 2a bf
       0.4570177 0.16658038 0.46344212 -0.667303
000170 8e 76 df 3e 5c 9e d1 be 98 f5 88 3e 64 0a 47 bd
       0.43645138 -0.4094113 0.26749873 -0.048593894
000180 cb 83 df 3e 14 63 c0 bd cb 4f 61 bf 29 0b e7 be
       0.43655238 -0.09393898 -0.8801238 -0.45125702
000190 d8 17 ac be c8 d6 bd 3e 44 e3 e6 bd 3a d0 97 be
       -0.3361194 0.37077928 -0.11273816 -0.29651052
0001a0 30 8f 32 3f 16 e2 19 3f 83 d4 f9 3e 8a 36 00 3f
       0.69749737 0.60110605 0.48794946 0.5008322
0001b0 38 20 55 bf 1a 3b 2a 3f c9 1b 1c be 16 c9 23 3f
       -0.83252287 0.6649643 -0.15244974 0.6397871
0001c0 0f c5 8c be 82 7d 2d 3f ef c7 98 3e fe 3a 31 3f
       -0.27494094 0.67769635 0.29840037 0.6923064
0001d0 da f9 91 bf 64 4e b6 bf e3 4d 05 3f 33 c0 77 3f
       -1.1404374 -1.4242673 0.5207197 0.9677765
0001e0 20 9a 46 bf 36 96 82 3f 1e 06 34 be e5 0b 0c 3f
       -0.77578926 1.0202091 -0.17580459 0.5470565
0001f0 b5 d8 0d 3f b2 2a 79 3f 47 ea 1e 3e 53 9b 40 3f
       0.55408794 0.9733077 0.15519057 0.75237006
000200 aa b5 22 bf 56 c0 ad 3d c4 e0 19 3f 67 a7 8e 3f
       -0.6355845 0.08483951 0.6010859 1.1144837
000210 43 d2 1f bf ff c2 f3 3e e1 2e d1 be 25 d6 57 3f
       -0.6243021 0.47609708 -0.40856078 0.84311134
000220 06 66 22 bf a6 8b 87 be 14 b9 58 bf 81 03 64 bf
       -0.63436925 -0.2647373 -0.84657407 -0.89067847
000230 7d 6f 4c 3f 48 c9 02 bf 09 2a a8 3f 7b 6f b1 bf
       0.7985762 -0.5108838 1.3137828 -1.3862146
000240 20 23 ae bf 00 b2 68 3f 0f 28 67 bf 11 c8 20 3f
       -1.3604469 0.90896606 -0.902955 0.6280528
000250 3f c2 39 3f 5f 73 4a 3f b0 a8 10 bf e7 ab c1 3e
       0.7256202 0.7908229 -0.56507397 0.37826464
000260 c6 56 42 3f 91 22 7d bf 12 d1 49 3d f3 78 ec bd
       0.75913656 -0.9888087 0.04927165 -0.11546507
000270 d3 0e 2d 3f fe fd 5a bf 5e 9b af bf 86 4b 60 be
       0.67600745 -0.8554381 -1.3719289 -0.2190381
000280 5d 28 1d 3e c3 51 0d 3f 0e 29 58 3f 3b 18 e1 3e
       0.15347429 0.55202883 0.84437644 0.439638
000290 bd 34 21 3f 4a a5 48 3f ce cc 1f bd 4c eb 42 bf
       0.629711 0.7837721 -0.039013676 -0.76140285
0002a0 c6 4b 96 3e 48 d4 1b 3f cd bc 45 bf 74 81 49 3e
       0.29354686 0.6087079 -0.7724121 0.19678289
0002b0 a8 8e a6 be 6f 97 ac bf 64 83 22 3e 7c 4f 1b 3f
       -0.32530713 -1.3483714 0.15870434 0.6066816
0002c0 ca ce 49 3f 53 a7 14 bf 89 67 bc 3e 22 8d 2c 3d
       0.7883116 -0.58067816 0.3679774 0.042126782
0002d0 8a e6 d6 3e 2a 36 94 be 4e 93 60 3f 31 3a 5a 3f
       0.41972762 -0.28947574 0.8772477 0.85245043
0002e0 22 13 02 3f 5d 54 8c be 08 83 3d c0 85 ea 65 3f
       0.50810444 -0.27408114 -2.9611225 0.89810973
0002f0 cd 8e 1b 3f ac 6d fc be 8b 77 98 3f ec e6 d7 be
       0.6076477 -0.49302423 1.1911482 -0.42168367
000300 18 e6 da be 1f af 3c bf 32 84 75 3f a6 06 90 3e
       -0.42753673 -0.73704714 0.9590484 0.28130072
000310 34 ac 43 3e 3d 40 25 bc 62 aa bf be 8e e4 40 3f
       0.19108659 -0.010086116 -0.3743468 0.75348747
000320 cf 81 61 be 25 b3 a0 3f 3f 11 06 3f 47 3c cc bf
       -0.22022174 1.255467 0.52370065 -1.5955895
000330 b2 8f 32 3e c0 9b fc 3e 59 e4 55 3e 74 4b 61 bd
       0.17437628 0.49337578 0.20887889 -0.0550036
000340 e9 01 2d be 63 62 12 3f 58 ef 87 be c6 cf 51 bf
       -0.1689526 0.57181376 -0.26549792 -0.8195766
000350 07 6d af bf c6 a3 9c 3e 5b 6c 60 3f 01 34 de 3e
       -1.3705148 0.305937 0.8766534 0.4339905
000360 a7 1a 4e 3f bb a6 82 bf 40 4e 8b be f6 ab a0 bd
       0.8050942 -1.0207132 -0.27208138 -0.07845299
000370 c1 49 b7 3e a9 77 ca 3e da 2a a8 bf d2 11 b3 3f
       0.35798457 0.39544418 -1.3138077 1.3989813
000380 4e bf 0a 3f 43 b6 7c 3f 04 67 e1 3e fc 43 b5 3e
       0.5419816 0.9871561 0.44023907 0.3540343
000390 ac 89 aa be 53 c3 33 be 4e 58 85 3e 45 85 18 3f
       -0.3330816 -0.17554979 0.26043934 0.59578353
0003a0 f5 d3 35 bf f5 f7 89 3e 1f 3a d8 3e 20 7f 6d 3f
       -0.71026546 0.2694699 0.42231843 0.927721
0003b0 8d 19 ce 3e 5f c8 f3 bd f2 69 62 3e 3c 14 2c bf
       0.4025387 -0.11903452 0.22110727 -0.67218375
0003c0 26 08 cf bc 3e a3 08 3f e6 59 53 be 07 89 49 bf
       -0.02527244 0.5337409 -0.20639762 -0.7872471
0003d0 14 0f 5f 3f 19 a9 8a 3f 8c a4 7c 3f 28 a9 cc be
       0.8713238 1.0832855 0.9868858 -0.39972806
0003e0 d0 e9 5b bf 25 03 4c bd 09 e4 91 3e 47 a7 bb be
       -0.85903645 -0.049807686 0.2849429 -0.3665106
0003f0 0c 8c 2b bf 45 e0 5c bf 9c be 7b bf 72 00 21 bf
       -0.6701057 -0.8627971 -0.9833772 -0.62891304

linear_action.weight f4 [4, 512]
000000 e4 df 94 3e b4 22 56 3f d7 d6 a6 3f f8 f0 78 3f
       0.29077065 0.836467 1.3034314 0.9724269
000010 1d 78 cd 3d a5 dd c8 be bf 17 39 be 97 87 4f be
       0.100326754 -0.392316 -0.18075465 -0.20266567
000020 1f b0 d9 3e a1 a0 5a 3f d5 09 1d bf 26 f9 36 be
       0.42517182 0.8540135 -0.6134313 -0.1786848
000030 8f 06 c5 3f 24 e0 82 3f c2 82 92 3f 0e bf 7e bd
       1.5392627 1.0224652 1.1446154 -0.062193923
000040 38 c0 66 3f 42 61 94 bf 91 ab 02 40 7d 90 72 3f
       0.9013705 -1.1592181 2.0417216 0.9475172
000050 dc 7e 01 3f 78 4a c5 be e2 40 86 3f 95 f2 bb 3f
       0.505842 -0.38533378 1.0488551 1.4683405
000060 ac 8d c3 3e 2e 84 69 3f a3 3a b5 bc 76 d3 55 bf
       0.38194025 0.91217315 -0.022122687 -0.8352579
000070 f3 8a b6 3e 29 ab 86 3d bd 4e 27 be d3 13 85 3f
       0.35652885 0.06575615 -0.1633863 1.0396675
000080 bb fa 5e 40 37 34 db 3d be 9f 69 3f e0 1e d1 3e
       3.4840534 0.107033186 0.9125937 0.40843868
000090 63 ac 47 3f ce 2a 49 3e db bc 7d 3f 93 f5 4e 3f
       0.77997416 0.19645235 0.99116296 0.80843467
0000a0 f3 db 27 3d 74 a9 d8 3e 03 59 d0 3d cf c8 b8 3e
       0.040981244 0.42316782 0.10173228 0.36090705
0000b0 b3 ac c6 be 53 8f 3a bf 45 67 3f 3f be 37 ea be
       -0.38803634 -0.72874945 0.7476695 -0.45745653
0000c0 9f 14 bc 3d 9f 4b 13 3f 8b ba 17 3e f4 0b 59 3e
       0.09183621 0.57537264 0.14817254 0.21195966
0000d0 90 37 7a bf 38 01 88 bd ac 32 1f 3e ac 1d 86 be
       -0.9774103 -0.066408575 0.15546674 -0.26194513
0000e0 96 1b ce 3f 63 f8 3c be ff 13 be 3e ab 6e 22 3f
       1.6102169 -0.18454127 0.3712463 0.63450116
0000f0 f5 d3 a9 3d 21 da 8a bf ab b8 c0 3e c5 b6 eb 3e
       0.08292381 -1.0847818 0.3764089 0.4603788
000100 ae 8f dc be 77 cc f1 3b 6d 23 33 3f 21 f8 15 bf
       -0.4307837 0.0073791104 0.6997593 -0.5858174
000110 c4 22 45 bf b3 aa 3a 40 91 63 95 bf 3c da 21 3f
       -0.77006173 2.9166687 -1.167101 0.63223624
000120 1c 49 cf bf 23 13 f7 bd 9a f1 e3 bd cf ba d2 3d
       -1.6194186 -0.12064197 -0.11130066 0.10289537
000130 34 8c a4 3e 0f b7 bd be d3 76 33 3f e0 60 a1 bf
       0.32138216 -0.37053725 0.70103186 -1.2607689
000140 39 79 ad 3f fd cc 1a 3f 26 51 95 be a9 00 b7 be
       1.3552619 0.6046904 -0.29163474 -0.3574269
000150 3f 6c af 3f d4 67 aa be 42 33 11 bf 86 0b 80 3f
       1.3704909 -0.3328234 -0.5671884 1.0003517
000160 61 c8 88 bf 32 f5 6c 3f 49 00 42 bf 9a e4 b7 3d
       -1.0686151 0.9256164 -0.75781685 0.08979149
000170 e2 69 12 bf 59 06 2f 3f f7 53 21 3e 1a 1a e2 3e
       -0.57192814 0.6836906 0.15754686 0.4416054
000180 5c 71 27 3b 5b 74 94 3f 15 24 e7 3f 5e 53 5a bf
       0.0025549745 1.1598009 1.8057886 -0.8528346
000190 ea 22 c8 3f 03 d9 8a 3e fa 4c 9b be 69 f2 0a 3f
       1.5635655 0.27118692 -0.30332166 0.5427614
0001a0 1a 18 32 3f 1c 67 cd be 77 e2 8f 3e d7 0e 2e bb
       0.69568026 -0.4011773 0.28102466 -0.0026559138
0001b0 55 c0 22 40 7b c4 a7 bd af fe ea be 63 07 d8 bf
       2.542989 -0.081917726 -0.45897433 -1.6877254
0001c0 69 cc fa bc 0f df 54 3e b0 8d 85 bf ab 26 0b 3f
       -0.030615048 0.20788215 -1.0433865 0.5435588
0001d0 1f 62 10 40 a9 bc 78 3f 27 46 e5 3e 7e 6f 65 bd
       2.2559888 0.9716287 0.44780084 -0.05601453
0001e0 4f 2d b1 bc 2f 7f f4 3e 2c 75 7d 3e 88 0c 56 3e
       -0.02162805 0.47753283 0.24751729 0.20903218
0001f0 5f 9b 0e 3f 9a e6 5a bf 17 88 15 3f 8a be ca 3e
       0.5570583 -0.8550812 0.5841078 0.39598495
000200 ce a3 62 3d 16 4a 43 3f ed 99 9b 3e 66 e8 61 be
       0.055331998 0.7628492 0.30390874 -0.22061309
000210 9d 23 44 40 15 85 85 be ad f6 b5 bd 77 ca a1 3f
       3.0646737 -0.26078096 -0.0888494 1.2639912
000220 51 be 8c 3f 00 51 f9 3e fe 12 ea 3e 19 60 7b bd
       1.099558 0.4869461 0.45717615 -0.061370943
000230 f1 b0 2b bf 81 1b cb 3e e0 cb e5 be 35 64 c7 3f
       -0.67066866 0.3966942 -0.44882107 1.5577456
000240 53 86 c0 3f d3 79 b7 be 64 eb 0f 3e 2e 7b 30 3e
       1.5040992 -0.35835132 0.14054638 0.1723449
000250 b3 fb 31 3f 98 ba 15 3f 6a 7d 66 3f c4 9f 46 bf
       0.6952469 0.58487844 0.90035117 -0.77587533
000260 9a de b4 3e c9 43 9a 3f 08 88 80 3f c5 be b2 be
       0.35326082 1.2051936 1.0041513 -0.3491117
000270 ff c3 d3 be af d9 a1 3e e3 30 a1 3f 37 0b 87 3e
       -0.4136047 0.31611392 1.2593044 0.26375744
000280 6e 77 41 3f 07 8e 6d 3f aa 9c e5 3e 1a c4 6a 3d
       0.7557286 0.9279484 0.44846088 0.057315923
000290 a4 79 3f 3e b4 1f f5 3e 2d 21 05 c0 5e 15 b8 3e
       0.18698746 0.4787575 -2.08015 0.35953802
0002a0 00 dd c7 3f 82 d5 8b 3e be 29 26 be 35 eb d2 be
       1.5614319 0.2731133 -0.16226861 -0.41195074
0002b0 b6 34 ec bb 05 c9 93 3f c9 37 ce bd 67 97 67 3c
       -0.007208432 1.1545721 -0.10069234 0.014135218
0002c0 f6 d9 07 3f 14 0e 18 be 1c 76 1a 3f 0e f5 ef 3e
       0.53066957 -0.1484912 0.6033647 0.4686665
0002d0 1a d1 a9 3e 14 fa 94 3f ad ec 8a 3e 71 f6 a2 3e
       0.33167344 1.1638818 0.27133694 0.31828645
0002e0 7a 37 09 3e 6e 3f 0e bf 30 72 b7 3b b2 41 bf be
       0.13400069 -0.55565536 0.005598329 -0.3735481
0002f0 92 95 e9 3d 04 2e b6 3f ab a2 fc be 02 05 32 c0
       0.114054814 1.4232793 -0.49342856 -2.7815557
000300 58 96 8d 3e 6f 29 5a 3f fb 56 4e 3f 34 b7 d4 3c
       0.27653766 0.8521947 0.8060147 0.025966264
000310 ec f8 ee 3e 99 09 7b bf 18 b6 8f 3b d5 61 4f 3f
       0.46674287 -0.9806152 0.004385721 0.81008655
000320 c3 8c 90 3e 28 80 b3 be 94 86 ed 3f 23 85 8d bf
       0.28232393 -0.35058713 1.8556695 -1.1056255
000330 c4 52 bc be 74 4c 84 3f c6 2b cd be ea 87 91 3e
       -0.36781895 1.0335832 -0.4007246 0.28424007
000340 b4 f3 8d be bf a0 61 3f 30 70 8a 3f e5 e5 02 3e
       -0.27724993 0.88135904 1.0815487 0.1278301
000350 ac 60 af bf 60 a5 3c 3f 69 00 44 3e 3f 1b 2f 3e
       -1.3701377 0.7368984 0.19140781 0.17100237
000360 92 0d b5 3f 3d 76 8f 3e 7f 16 ab be db 83 d7 3f
       1.4144766 0.28019896 -0.334156 1.6837114
000370 01 54 cf 3d f4 f3 81 3e 09 1e 9a bf ce 59 e5 3d
       0.10123444 0.25381434 -1.2040416 0.111987695
000380 69 c5 ce 3e 70 9a 5d be ed c4 f9 3e 73 79 4c 3f
       0.40384987 -0.21640944 0.48783055 0.79872817
000390 d5 a4 9d be 3f 09 15 bf 58 68 49 bf e4 39 f4 3e
       -0.3078982 -0.58217233 -0.7867484 0.47700417
0003a0 27 42 30 3f 70 33 30 3e 31 64 bb bd ca 74 93 3e
       0.6885094 0.17207122 -0.09149969 0.2880004
0003b0 ed 4c 6a 3f 00 79 fc 3e 88 8e af bf 2d 01 70 3e
       0.9152363 0.49311066 -1.3715372 0.23437949
0003c0 a7 4a 43 3f 74 ec 40 3e 3f 57 16 bf 82 32 16 3f
       0.76285785 0.188402 -0.58726877 0.5867082
0003d0 cd 25 03 3f 16 ba 90 bf 4e 27 0b 3f ff 91 99 3e
       0.51229554 -1.1306789 0.5435685 0.299942
0003e0 c0 1c a7 bf eb 9e 10 bd 2c 8a 0e 3f a4 17 5a bf
       -1.3055649 -0.035307806 0.55679584 -0.8519232
0003f0 e4 33 28 bf 4a ab cb bc a7 9b a5 bf cf 18 98 3e
       -0.6570418 -0.02486195 -1.2938126 0.29706427

linear_action.bias f4 [4]
000000 86 ef d8 bd 36 6b 97 be b2 89 dd 3e 8b 92 79 3e
       -0.105925605 -0.29573983 0.43269116 0.24372308

linear_value.weight f4 [1, 512]
000000 8a bf 4b bf 35 86 44 40 8f 3e 00 c0 41 8a 17 c0
       -0.7958914 3.0706913 -2.0038183 -2.3678133
000010 1a aa 2a bf 06 22 08 c0 47 b3 98 bf 7e 7e 16 40
       -0.66665804 -2.1270766 -1.1929711 2.3514705
000020 9a d0 04 c0 d9 4f 79 40 95 47 c8 be 4c 91 e3 bf
       -2.075232 3.8954985 -0.39117113 -1.7778716
000030 76 1f f0 bf 57 7b 2b c0 9b df 2d c0 02 17 ec bf
       -1.8759601 -2.679403 -2.7167728 -1.8444521
000040 50 86 6f c0 19 1d c3 bf 44 ff 2a 3d de a0 46 40
       -3.7425728 -1.5243255 0.041747347 3.1035686
000050 dd 63 b1 bf 16 4e ae 3f de df 9e be 84 1c 21 c0
       -1.3858601 1.361758 -0.31030172 -2.5173655
000060 ef 50 45 bf 94 9a 9e 3e f3 92 a8 bf 26 b1 de bf
       -0.7707662 0.3097731 -1.3169845 -1.7397811
000070 ee 0e 99 bf ac 7e 52 bf 91 02 2b 40 c3 ce 2e c0
       -1.1957681 -0.82224536 2.6720316 -2.7313697
000080 5a 6a 03 c0 b7 cd 05 c0 68 66 5f c0 f8 59 25 c0
       -2.0533662 -2.0906808 -3.4906254 -2.5836163
000090 d1 46 17 c0 50 0f 4a 40 31 b0 83 c0 0c 64 03 c0
       -2.3636973 3.1571846 -4.1152577 -2.0529814
0000a0 c0 ed 02 c0 9c ba bd bf af db a0 be 00 41 a7 40
       -2.045761 -1.4822574 -0.31417605 5.2266846
0000b0 fb 4d 12 40 4b e7 97 bf fc 17 59 c0 f2 35 39 40
       2.2860096 -1.186746 -3.392089 2.8939176
0000c0 79 b7 a5 40 21 93 97 bf c7 2f 78 40 de b0 84 40
       5.1786466 -1.1841775 3.877916 4.14659
0000d0 fa cd d8 bf a0 68 8e 40 4a a2 de bf 0e e5 5e c0
       -1.6937859 4.4502716 -1.7393277 -3.4827304
0000e0 16 5a 94 c0 e6 d6 79 3f 1e b4 04 bf 01 d7 55 c0
       -4.635997 0.97593534 -0.51837337 -3.3412478
0000f0 43 a3 01 c0 06 00 5f bf 3d e5 51 bf d2 13 89 bf
       -2.0255897 -0.8710941 -0.81990415 -1.0709174
000100 c8 16 22 40 2f f9 01 c0 e3 68 1b c0 69 90 32 40
       2.5326405 -2.030834 -2.4282768 2.790064
000110 08 3a 11 40 97 30 99 c0 8d 8f 52 c0 11 0e 2a bf
       2.269167 -4.7871814 -3.2900116 -0.66427714
000120 4c b7 99 40 2c 25 04 c0 66 70 18 bf 32 0a 27 c0
       4.803625 -2.0647688 -0.59546506 -2.6099973
000130 83 f5 a8 bf b8 ff 72 be ff 7d 08 c0 9b e2 9d 40
       -1.3199924 -0.23730361 -2.1326902 4.933912
000140 1b f4 22 bf 76 a0 6b 40 e1 22 24 bf 95 5c 23 40
       -0.63653725 3.6816688 -0.6411572 2.5525258
000150 84 e9 b1 bf f9 c0 d5 bf 93 c3 03 c0 0d 74 9c 3f
       -1.3899388 -1.6699516 -2.058812 1.2222916
000160 aa 6a be 40 44 ce 1a c0 e6 0a 15 40 1f c0 b2 c0
       5.9505205 -2.4188395 2.3287902 -5.5859523
000170 9a 89 fb bf a8 82 1f 40 cd f9 c6 3f ef 50 94 40
       -1.9651368 2.4923496 1.5544983 4.6348796
000180 6c d0 ef bf 3e a0 77 c0 d8 5d 28 c0 a1 ab 10 c0
       -1.873548 -3.8691554 -2.6307278 -2.2604754
000190 d1 4d c3 bf d3 a9 4f bf 21 ea 2f 40 3e f9 b8 bf
       -1.5258123 -0.81118506 2.748665 -1.4451063
0001a0 b3 90 88 40 fb 67 89 bf 7d e9 f3 bf e1 20 bd bf
       4.2676635 -1.0734857 -1.905563 -1.4775659
0001b0 20 1b 92 c0 17 18 22 c0 8a 85 26 c0 f8 96 07 c0
       -4.565811 -2.5327203 -2.6019006 -2.1185894
0001c0 5b 0e 28 c0 6d c5 0c bf e0 c8 96 bf 1e b1 01 40
       -2.6258762 -0.5498875 -1.1780052 2.0264354
0001d0 22 c1 8a c0 cc ab 1c c0 93 c9 8e bf a8 37 08 40
       -4.336076 -2.4479856 -1.1155266 2.128397
0001e0 af ac 05 c0 1a 42 83 40 4e 2c 05 3f 1c 44 1b bf
       -2.0886648 4.101819 0.5202073 -0.606508
0001f0 35 fc f5 bf 16 3e b7 3e c9 ed 13 c0 f0 2a 22 bf
       -1.9217592 0.35789555 -2.3113883 -0.6334677
000200 df 68 e0 bf 54 98 95 3f bd cb 82 be f4 53 a3 3f
       -1.7532004 1.1687112 -0.25546065 1.2759995
000210 68 3d 78 c0 82 2d d4 bf 89 b0 ee bf 1b a9 b6 bf
       -3.878748 -1.6576388 -1.8647624 -1.4270357
000220 7b fd 67 c0 a6 63 84 bf f6 fb 92 40 96 46 52 40
       -3.6248462 -1.034291 4.593257 3.2855582
000230 3b d0 3a 40 c7 e8 e6 bf b3 29 8d 3f 91 67 81 c0
       2.9189594 -1.8039788 1.102835 -4.0438924
000240 ff f7 88 c0 4b f2 25 c0 d2 b5 2e c0 b5 8c 05 bf
       -4.280273 -2.5929134 -2.7298474 -0.52167827
000250 1e a7 99 bf d5 85 42 bf b8 1b eb 3f 7c 2a 9c 40
       -1.2004125 -0.7598546 1.8367834 4.880186
000260 f6 5e 76 40 7b c6 27 c0 91 b5 82 c0 b8 02 e5 40
       3.849546 -2.6214893 -4.084664 7.156582
000270 a5 2e a8 40 c7 3f 0b c0 33 fa 2e c0 75 a5 b7 bf
       5.255694 -2.1757677 -2.734021 -1.4347368
000280 e4 44 2b 40 3a 59 16 c0 eb c3 36 bf 71 bc 92 be
       2.6760798 -2.349196 -0.713927 -0.28659394
000290 5f 0f b8 bf a4 ec f7 bf 44 3e 58 40 bd d5 bd c0
       -1.4379691 -1.9369092 3.3788004 -5.932341
0002a0 e0 7a 3e c0 bd f4 84 3f 4c 9f b4 c0 31 21 71 40
       -2.9762497 1.0387188 -5.6444454 3.7676508
0002b0 98 8c 75 40 84 74 62 c0 55 6b 83 bf c2 33 15 bf
       3.8367062 -3.5383615 -1.026713 -0.582821
0002c0 42 cb 92 bf f5 7c 84 bf 24 a2 df bf 84 e8 37 40
       -1.1468279 -1.0350634 -1.7471356 2.8735666
0002d0 33 a5 f1 bf e1 fc 64 c0 bf b3 15 40 4c f8 99 40
       -1.887854 -3.5779345 2.3390958 4.8115597
0002e0 7d 50 34 bf f1 b6 13 c0 7f c6 12 41 69 2f 1c 40
       -0.70435315 -2.3080409 9.173461 2.4403937
0002f0 6a 15 99 bf aa 73 29 c0 ce 22 b5 3f 05 b4 04 c0
       -1.195966 -2.6476846 1.4151247 -2.0734875
000300 28 e1 0d c0 9a 6e 41 c0 cb e5 28 3f 82 4e 92 bf
       -2.2168674 -3.0223756 0.65975636 -1.1430209
000310 4b cc 85 bf 1b 50 be 40 d8 4b 48 c0 d7 67 71 bf
       -1.045297 5.9472785 -3.1296291 -0.9429907
000320 f4 9d 58 40 6b b9 bc 3f a9 60 e2 be 76 94 d1 40
       3.3846407 1.4744085 -0.4421437 6.5493727
000330 40 16 00 c0 5f 30 dd bf 14 02 be bf 40 9f a3 bf
       -2.001358 -1.7280387 -1.4844384 -1.2782974
000340 64 5d ac bf 86 b0 ab bf da 07 4b 40 5b 13 c0 bf
       -1.3466 -1.3413246 3.1723542 -1.5005907
000350 fa 37 65 40 24 41 6c bf 71 59 97 bf 10 3d c2 be
       3.5815415 -0.92286897 -1.182417 -0.37937212
000360 f6 94 c7 bf 0f 50 24 c0 1e 6d 0e c0 0b df 83 be
       -1.5592334 -2.5673864 -2.22541 -0.25756106
000370 e3 84 72 bf 71 1b 33 bf 2d e8 fd c0 47 fc 19 40
       -0.9473402 -0.6996375 -7.934592 2.4060228
000380 34 21 a7 bf 43 79 e2 3f b8 a6 38 c0 b2 4d 07 40
       -1.3057008 1.7693256 -2.8851757 2.1141171
000390 23 08 f4 40 a8 a0 d3 be f0 01 f0 bf 19 c6 36 bf
       7.6259933 -0.41333508 -1.8750591 -0.71396023
0003a0 cd 6f ff bf 70 f8 e6 bf ae 96 4b bf 22 d4 e7 3f
       -1.9955994 -1.8044567 -0.79526794 1.8111613
0003b0 15 c9 33 c0 fd c9 33 c0 1c a6 4b 3e ae 4e af bf
       -2.809148 -2.8092034 0.19887584 -1.3695886
0003c0 60 83 2c c0 9d 76 39 bf 91 2a 30 40 c7 9d 40 40
       -2.6955185 -0.72446615 2.752598 3.00963
0003d0 74 a0 ab be 33 6e db 40 e8 e5 97 3f e3 66 24 c0
       -0.33520854 6.857202 1.1867037 -2.5687797
0003e0 b8 69 b1 40 59 9c 91 c0 ad 33 70 40 bc 97 36 40
       5.544155 -4.5503354 3.753154 2.8530111
0003f0 07 e9 48 c0 a0 6d 7b c0 17 d8 30 bf 23 ed 4b c0
       -3.1392229 -3.928566 -0.69079727 -3.1863487
