Reinforcement_Learning/exp2/pretrained_model/2_DDQN_DQN/287000.pth (torch, 13785 bytes, 4 tensors)

linear.weight f4 [512, 2]
000000 22 79 ad bb 9c 36 c2 3e ef bc 00 bf 5e d9 4e c1
       -0.005293981 0.3793229 -0.5028829 -12.928068
000010 d6 70 8b be ab 2a 42 3e b0 08 ea be 0b 8e 53 40
       -0.27234524 0.18961589 -0.45709753 3.3055446
000020 de 83 80 bd 97 99 3f 3e aa 26 17 bf c0 f1 68 3f
       -0.06275152 0.18710934 -0.5904337 0.9099388
000030 3c 78 86 bf a4 14 f1 3f ea e1 34 bf f4 6a 26 c1
       -1.0505443 1.8834424 -0.7065722 -10.401112
000040 6c 7d f1 bf 58 b7 fa 40 db b0 d9 be e8 c7 35 c1
       -1.8866401 7.834881 -0.42517743 -11.361305
000050 99 5a 98 be ca 56 49 41 e2 37 13 bf 96 5c 66 40
       -0.2975662 12.583689 -0.57507145 3.599401
000060 1e 6b e9 bd 35 3c 99 3d 8f 9a 80 3f d8 f6 f5 40
       -0.11397384 0.07482187 1.0047168 7.6863823
000070 c5 ea e3 be ac 4f 37 be 8d 9d 2c bf 90 c7 2c 40
       -0.44515052 -0.17901486 -0.67427903 2.6996803
000080 d6 12 bf bf fe 84 5d c1 5e 55 5c bf fc 5a cd be
       -1.4927623 -13.844969 -0.8606776 -0.40108478
000090 20 11 1b bf ec 5d 2c c1 5e 8c a1 3e 5f 78 af 3e
       -0.60573006 -10.77293 0.31552404 0.34271523
0000a0 75 0a 99 be 65 cd d2 3f 91 ef 96 3f 51 c6 10 bf
       -0.2989079 1.6468931 1.179186 -0.56552607
0000b0 1a 62 66 bf 10 4a a7 3f e0 65 69 3d e6 49 ea 3f
       -0.8999344 1.3069477 0.05698192 1.8303802
0000c0 f6 8f a0 be f2 02 d1 bc 15 62 5e 3e 3d 1d 96 3f
       -0.31359833 -0.0255141 0.21717103 1.1727673
0000d0 24 27 fd be 54 12 33 41 f2 bd f2 3e 52 2b d5 be
       -0.49443924 11.191975 0.47410542 -0.41634613
0000e0 45 d3 80 be 3e 72 1e 3f b2 96 4f bf 5d ed e0 3e
       -0.25161186 0.6189307 -0.8108932 0.43931094
0000f0 10 d0 a3 3e fd 98 91 3e ea f3 1f bf c1 c8 1a c1
       0.31994677 0.28437033 -0.6248156 -9.674012
000100 78 a5 70 3d 40 80 59 3f 64 bf ca be 32 a1 45 40
       0.058751553 0.8496132 -0.39599144 3.0879636
000110 db 82 26 3e 5d 73 d2 3f 2f 9b 29 bf ea e5 35 c1
       0.16260855 1.6441456 -0.66252416 -11.368631
000120 e7 48 8e 3e c4 fb 15 3f d0 e6 d1 3e 0a 95 3e 3f
       0.27789995 0.5858729 0.40996408 0.74446166
000130 27 d6 47 be 1c d5 0d be 15 dc 9a be 87 b5 f3 be
       -0.19515286 -0.13850826 -0.30246034 -0.47599432
000140 f8 8b 26 bf dc 91 4a c1 cb a3 09 3f 64 92 34 bf
       -0.65057325 -12.66061 0.53765553 -0.70535874
000150 ec 86 07 3e c6 f4 f3 bd 5c 4f ee bd c7 b9 a5 be
       0.13235062 -0.11911921 -0.1163623 -0.323683
000160 92 19 d5 bd 0c ff 4b 3f 03 bb 70 bd 7a e8 9a 3f
       -0.10405268 0.79686046 -0.0587721 1.2102196
000170 ff 20 af 3c 37 01 30 40 c2 78 2e bf 34 cf 19 c1
       0.021378038 2.7500741 -0.6815301 -9.613087
000180 bb bc 3f bd bc 57 e9 3f 13 e4 d1 be d4 34 69 c0
       -0.046810847 1.82299 -0.4099432 -3.6438494
000190 4c d0 cf 3e d4 08 91 3f a3 db 9d be 3f 3d 36 be
       0.40588605 1.1330819 -0.30831632 -0.17796801
0001a0 c9 ef c9 bf a4 98 44 c1 90 62 3e bf 78 f7 37 c1
       -1.5776302 -12.287266 -0.74369144 -11.497917
0001b0 d2 cb ce be 8c 06 f3 3f 24 e1 23 bf c7 1b 24 c1
       -0.40389878 1.8986373 -0.6401541 -10.256782
0001c0 66 38 60 bf 5a f7 5c 40 e5 1a f8 3e 88 a6 18 bf
       -0.8758606 3.4525971 0.4845802 -0.59629107
0001d0 2e 71 bc be 81 93 ec 3f 8f 49 d3 3d 86 bb 2b 3e
       -0.368051 1.8482515 0.103167646 0.16770753
0001e0 41 24 0c be 10 23 0e 40 94 5f 3e bf 26 d7 02 40
       -0.13685705 2.22089 -0.7436459 2.0443816
0001f0 84 00 c6 bf 16 f5 19 c1 a1 a7 fe be 19 13 3c c1
       -1.5468907 -9.622335 -0.49737266 -11.7546625
000200 9b c6 07 bf f1 9f 3c c1 b0 05 1a be b5 c6 1a 3e
       -0.5303742 -11.789048 -0.15041232 0.15114863
000210 b5 a9 30 bf 49 32 2d c1 1a 16 28 3e 51 f9 9a 3f
       -0.6900895 -10.824777 0.16414681 1.2107335
000220 5d fd a0 3c 86 dc 79 bd fc 1d 4f be 92 a7 d6 3f
       0.019652063 -0.061001323 -0.20226282 1.6769888
000230 23 69 3b 3f ff 6b fe 40 1e 32 1a 3f 17 d7 fe 40
       0.732073 7.950683 0.6023272 7.963756
000240 bd 79 1d bf 25 30 0b c1 97 83 f6 3e c2 33 96 bb
       -0.6151388 -8.699254 0.4814727 -0.0045838067
000250 a5 53 64 bf e3 1f 2e c1 80 c5 3d bf 7e 6f 39 c1
       -0.8919013 -10.882785 -0.74129486 -11.58972
000260 6c a4 82 bf 35 cf 09 c1 9d 82 ac bf 22 99 f8 40
       -1.0206428 -8.613088 -1.347736 7.768693
000270 24 0d 80 3d 8e bd a4 be e4 45 0a bf 31 1d ae 3f
       0.062525064 -0.3217587 -0.54012895 1.3602659
000280 e6 77 0b be d4 2a 0e be ac 61 cd bf 4d af 21 c1
       -0.13619956 -0.13883525 -1.6045432 -10.105298
000290 43 9b e2 bd 88 d2 15 3c 0f 77 a4 be 33 61 88 3e
       -0.1106477 0.009144433 -0.32122084 0.26636657
0002a0 c0 9e c3 bf 60 68 18 c1 cf 9b 36 3f d5 da 08 41
       -1.5282822 -9.525482 0.71331495 8.553426
0002b0 68 6f 21 3f fc 63 7e 3e 6c cd 33 c0 2e b5 c1 c0
       0.6306062 0.24842829 -2.809413 -6.0533667
0002c0 ea 1b a7 bd d5 9d a1 be 62 28 10 3e d1 e8 96 3f
       -0.08159621 -0.3156573 0.14077905 1.17898
0002d0 e6 64 9b 3d 61 99 17 be a8 44 01 3f 4a 1f 4a 3e
       0.07587604 -0.14804603 0.50495386 0.19738498
0002e0 27 1a 28 be 41 f8 64 40 4e 1f 2e be 04 47 18 be
       -0.16416226 3.5776522 -0.1700413 -0.1487084
0002f0 c4 b9 3c c0 5c c0 77 c0 e0 ff 4c bf 5d 19 1e 41
       -2.9488382 -3.8711157 -0.80077934 9.881192
000300 9e 2b 22 bf 12 67 34 c1 a2 36 ff be eb 4b c7 be
       -0.63347805 -11.275164 -0.4984637 -0.38925108
000310 a5 57 14 c0 c5 a2 ed c0 35 3f 83 bf 13 e9 1d c1
       -2.3178494 -7.4261193 -1.0253664 -9.869403
000320 42 af f3 3c e3 60 e9 3e 02 84 3f bf e4 e3 35 c1
       0.029746655 0.4558173 -0.748108 -11.368137
000330 54 fa c8 be d2 b0 fb 3e e6 23 82 be 11 b0 18 3f
       -0.39253485 0.4915834 -0.25418013 0.59643656
000340 2c b9 44 be 31 68 1d 40 48 7b ac bb 01 23 0f be
       -0.19211262 2.4594843 -0.0052637197 -0.13978197
000350 d6 b1 b5 3d d6 56 25 be 89 c0 c6 be dd 66 e0 3f
       0.0887181 -0.16146407 -0.38818768 1.7531391
000360 06 1e 8b bf a8 48 20 c1 0d 63 90 3e 89 38 94 be
       -1.0868537 -10.017738 0.2820057 -0.28949383
000370 13 f9 4f bd 43 12 33 3f 23 c8 82 3e b4 01 a4 3c
       -0.050774645 0.6994974 0.25543317 0.020020343
000380 22 01 3c bf 62 dc 26 c1 db 44 9c bf a4 db 07 c1
       -0.7343923 -10.428804 -1.2208513 -8.491123
000390 fd ed 1c bf 47 c6 01 40 ff 71 fd 3b 5d 4e 15 3f
       -0.6130064 2.027727 0.0077345367 0.583227
0003a0 ec d1 cf bf 56 f2 e2 40 83 0b 0f 3d ab 7e 37 3f
       -1.6235938 7.092082 0.034923088 0.71677655
0003b0 36 60 a2 3e 78 ec ff be 9b a0 97 be b3 f7 54 3e
       0.31714028 -0.499851 -0.2961472 0.20797615
0003c0 93 77 0d be d9 c7 30 40 8c 17 69 be f2 5e 94 3a
       -0.13815145 2.7621977 -0.22762889 0.00113198
0003d0 61 2b 2f 3f d4 25 6f 40 9c df 02 3f 5f b0 15 bf
       0.68425566 3.7366838 0.5112245 -0.58472246
0003e0 65 f2 ad be 15 7e f6 3f 0d ad be be 73 67 bf 3d
       -0.33973995 1.9257227 -0.37241402 0.09345903
0003f0 e0 c7 73 3e e0 8a 93 3f b2 f0 d6 be 5d e5 85 be
       0.23806715 1.1526756 -0.4198051 -0.26151553

linear.bias f4 [512]
000000 c8 ee 4a bd 4f d0 09 bf ff be d0 be 42 07 eb 3e
       -0.049544126 -0.5383348 -0.40770718 0.45903975
000010 e5 96 75 be 2e 70 2e 3f ef 57 23 3f fe 70 85 3e
       -0.23983343 0.6813992 0.6380605 0.2606277
000020 2d 14 09 3f 29 93 b2 3e b4 26 f2 be 4d 27 8e 3e
       0.5354641 0.348779 -0.47295153 0.2776436
000030 95 45 0a bf 07 26 8e be 72 92 16 bf 46 da 24 3f
       -0.54012424 -0.27763388 -0.5881721 0.6439556
000040 8d fa ce 3e 67 1b 48 3f 63 df 6b 3e 2b 67 cf be
       0.4042553 0.7816681 0.23034434 -0.40508398
000050 9b a9 e0 3e b3 8e 3f 3f 26 4e 1c 3f 88 f3 16 3f
       0.438794 0.74827117 0.61056745 0.5896535
000060 10 62 2e bf b9 b8 46 3f 92 a4 9e be b8 02 a0 be
       -0.6811838 0.77625614 -0.30984932 -0.31252074
000070 63 14 1d 3f d6 32 25 3f 7b 1a 1f bf c4 ae 73 3e
       0.6135923 0.64530694 -0.6214978 0.23797137
000080 bc 26 50 3f 3a 9d d6 3e a2 aa 5d 3f ad 63 b4 3e
       0.81309104 0.4191683 0.8658849 0.35232297
000090 44 b7 c7 be 96 fc 78 3f 73 69 f3 3e 1c 93 6c 3f
       -0.39007008 0.97260416 0.4754139 0.9241197
0000a0 99 23 7a 3e f9 73 e8 be 0e be a9 bd b5 71 2a bf
       0.24427642 -0.4540098 -0.08288203 -0.66579753
0000b0 d6 71 e9 3e 7e d8 53 3f 4d 15 d6 3e 6f 12 77 3e
       0.45594662 0.82752216 0.41813126 0.24128126
0000c0 0f 85 1a 3f fc 77 af be e2 ab 7e 3f d4 fe 33 bf
       0.6035928 -0.34271228 0.9948102 -0.7031071
0000d0 56 ba c9 3e 35 2b bf 3e fa 54 39 3f 33 04 7c 3e
       0.39399976 0.37337652 0.7239529 0.24610977
0000e0 a6 1f da 3e 3c b0 04 bf 76 f1 92 3e 61 d2 a1 bd
       0.4260227 -0.5183141 0.28699845 -0.07901455
0000f0 51 fb e9 3e 0e c1 2e 3f 49 b0 29 3f 57 51 b7 3e
       0.45699552 0.6826333 0.66284615 0.35804245
000100 dd 0b ba 3e 41 10 e3 be ba 5c b2 3e 51 ac 31 3f
       0.36337176 -0.44348338 0.3483637 0.6940356
000110 1f 2d 91 be a8 a7 37 3f 93 05 63 be 52 8d 46 be
       -0.28354737 0.717402 -0.22170095 -0.19389847
000120 b9 2a 60 3e 7d 1d 26 bf 35 ac d5 3e ce 5a bf 3e
       0.21891297 -0.64888746 0.41732946 0.37373966
000130 c5 cd e3 3e 05 c2 8e bf 1a 2d 57 3f 09 bc 25 3f
       0.44492927 -1.115296 0.84053195 0.64740044
000140 d4 5f f5 be 2f 32 33 3f 09 fd 0d bf 0a 1b 1a bf
       -0.47924674 0.6999845 -0.55464226 -0.6019751
000150 38 55 2a 3f 75 01 65 be be f3 ac be 45 ce 14 3f
       0.66536283 -0.22363837 -0.3377971 0.5812724
000160 82 28 8c be 2f a6 f4 3e 40 8d 27 bf a2 da 2f bf
       -0.27374655 0.47783038 -0.65449905 -0.6869298
000170 18 5d 98 3e 36 68 02 bf 06 c3 10 3f 71 76 8c bf
       0.29758525 -0.50940263 0.5654758 -1.0973645
000180 d0 1b 76 3e 43 7e 24 bf fd 98 ef 3e f2 73 e9 3e
       0.24034047 -0.6425516 0.46796408 0.45596272
000190 34 b2 2a bf 43 43 bf 3e ab 04 f3 be 8d fa fa be
       -0.66678166 0.37356004 -0.474645 -0.4901928
0001a0 f1 a0 fb 3e 26 54 0b bf c2 2e 09 bf f8 2e 1a 3f
       0.49146226 -0.54425275 -0.5358697 0.6022792
0001b0 b1 e6 93 3e 39 9e 77 3f e8 8a 41 be c1 de ae be
       0.2888694 0.96725804 -0.18900645 -0.34154323
0001c0 29 a1 86 3e e4 62 05 3f a2 25 28 3f 4a 4f 34 bf
       0.2629483 0.5210402 0.65682423 -0.70433486
0001d0 bb 7d 7f bf 41 5d 10 3f 59 5e c7 be be c7 b9 be
       -0.99801224 0.56392294 -0.3893917 -0.36285204
0001e0 88 ad 09 3f 36 73 2d bf 1e ae e9 3e 89 24 0c bf
       0.5378041 -0.6775392 0.45640653 -0.5474325
0001f0 1b 24 e1 3e 63 c7 1a bf 5d 1d 2b 3f db 5b 2b bf
       0.4397286 -0.6046049 0.6684168 -0.66937035
000200 ab e1 be 3e 8b 55 e0 3e 4c 34 3b 3f 2f 06 1b bf
       0.37281546 0.43815264 0.73126674 -0.6055631
000210 a9 7d a1 be 22 9d 5a 3f 51 8c 41 be 06 ae d2 3e
       -0.31541184 0.85396016 -0.18901183 0.41148394
000220 04 59 cc 3e 4e a8 ba 3e d9 da b7 be a9 32 54 3f
       0.39911664 0.3645653 -0.35909155 0.828898
000230 8e 47 d9 3e f1 8a 97 3e 81 9b 9d 3e e3 47 d0 3e
       0.42437404 0.2959819 0.30782703 0.40679845
000240 32 c0 94 be c6 b6 b6 3e dd 46 70 be 2b 14 3b 3f
       -0.29052883 0.3568632 -0.23464532 0.7307765
000250 9e c3 01 bf ab f2 00 bf 4e 2d c1 3e b6 3c 43 3e
       -0.50689113 -0.5037028 0.37729877 0.19066128
000260 43 85 4b 3f 38 62 2a 3e d1 4d 2e be 2d a7 a9 3e
       0.79500216 0.1663903 -0.17021872 0.33135357
000270 50 ec 01 be 68 bd 91 be 62 ad 39 3f b9 34 30 bf
       -0.12687802 -0.28464818 0.72530186 -0.6883045
000280 fb ed e6 be 35 2c eb 3e 0c 16 88 bf dd 07 5a 3f
       -0.4510344 0.45932165 -1.0631728 0.8516825
000290 a2 5c 65 3f f2 39 c6 3b 11 1e 63 be 65 2e 01 3f
       0.8959447 0.006049388 -0.22179438 0.5046142
0002a0 26 ca 14 3f 4e cc 70 3f a1 99 ac 3e 4c 40 f3 be
       0.58120954 0.94061744 0.3371096 -0.47509992
0002b0 60 d9 17 3f f3 4b 78 be 63 cb e6 3e 16 ca ec 3e
       0.5931606 -0.24247722 0.45077047 0.4624793
0002c0 dd fc cc 3e d7 aa 59 3f 20 4c 56 3f 47 bd 24 bf
       0.4003667 0.85026306 0.8370991 -0.64351314
0002d0 0c 7b c2 3e 5e d0 54 3d 58 df e6 be 8b 81 6a 3f
       0.37984502 0.051956527 -0.45092273 0.91603917
0002e0 a0 67 f0 3e be 4b ac be 6f 11 b3 3e ab 1a 88 be
       0.4695406 -0.33651537 0.34974238 -0.26582846
0002f0 c0 ba 17 3f f2 e4 1d bf 72 c8 28 bf 1c 71 32 bf
       0.5926933 -0.6167747 -0.65930855 -0.6970384
000300 fe 87 14 3f a0 c0 28 3f ca da e0 be 74 15 59 3f
       0.5802001 0.6591892 -0.43916923 0.8479836
000310 2c 83 20 3f 9a a8 86 3e 55 35 ca 3e 94 2d 75 bd
       0.6270015 0.26300508 0.39493814 -0.05985792
000320 a0 1e 70 be 48 32 f8 3e 0f d4 f5 be 11 95 24 3f
       -0.23449183 0.48475862 -0.4801335 0.6428996
000330 91 f0 13 3f 45 19 fe 3d 2e 0c 69 3f 28 2e 55 3f
       0.5778895 0.124071635 0.9103421 0.83273554
000340 dd b9 8e be 5c cf 4a be 12 47 f3 3e 72 d0 0d bf
       -0.27876177 -0.19805664 0.4751516 -0.5539619
000350 03 5a e9 3e cc 0f c0 3e 90 24 12 3f 10 3c 1d bf
       0.45576486 0.37512052 0.5708704 -0.61419773
000360 5b 63 16 bf aa a2 cf 3e f4 60 da 3e 97 7c 28 bf
       -0.58745354 0.4055379 0.42652094 -0.6581511
000370 0d 8a cd be f9 a0 25 bf b1 2f ac 3e 06 23 aa be
       -0.40144387 -0.6469875 0.33630136 -0.33229846
000380 d6 66 4a 3f f3 b7 47 be ec 21 39 3f e1 26 60 3f
       0.79063165 -0.19503765 0.72317386 0.87559325
000390 70 a1 f3 3e a6 b2 88 3e b1 df 37 3f a2 cd da 3e
       0.47584105 0.26698798 0.718257 0.4273501
0003a0 31 4b 40 3f 4c 90 32 bf 53 9a 07 3f 1d 09 65 3f
       0.75114733 -0.6975143 0.52969855 0.8946703
0003b0 fc 69 28 bf 2f a7 96 3e 5f 29 49 3f 26 a8 03 bf
       -0.6578672 0.29424426 0.7857875 -0.5142845
0003c0 58 4d 0e 3f 9e 5d 38 3f d4 d1 b2 3e c1 a0 82 3f
       0.5558677 0.7201785 0.3492571 1.0205308
0003d0 35 47 4b 3f 37 6b 53 3f b7 c0 d1 be bc 92 65 3f
       0.7940553 0.8258547 -0.40967342 0.89677024
0003e0 7c 7b ed 3e df 5d c3 be 85 25 86 3e 93 17 57 be
       0.46383274 -0.38157555 0.262005 -0.21005087
0003f0 ab 41 72 3f 97 ac 11 3f 3e cd 25 3f 5f 78 2a 3f
       0.9463145 0.56903976 0.647663 0.6658992

linear2.weight f4 [3, 512]
000000 a7 c2 70 bc 70 2d 43 3f ae 24 a0 3c fe f9 94 be
       -0.014694846 0.7624121 0.01954874 -0.2909698
000010 a4 7b 2c 3d 35 d8 9a be ac 92 5b be 67 4a 21 3f
       0.0421101 -0.30243078 -0.2144267 0.63004154
000020 60 a6 8d 40 cd 7c c9 be 56 1e 27 41 fe 52 73 be
       4.4265594 -0.39353028 10.444906 -0.23762128
000030 cf 9e c6 bc 2a c6 61 40 fe ab 9c bc 93 e6 8b be
       -0.024245648 3.52772 -0.019124981 -0.27324352
000040 0f 60 6a 3f 19 49 68 be dd 91 95 3f 99 fc 34 3c
       0.91552824 -0.22684135 1.1685139 0.011046552
000050 77 be 93 be e9 95 01 40 7d 4e 87 be 47 3f 05 bf
       -0.2885625 2.0247748 -0.2642707 -0.5204968
000060 44 98 14 3c 5a 63 fe be d3 b4 d3 40 6d 10 31 bd
       0.009069506 -0.49685174 6.6158233 -0.043228555
000070 ae 1a 90 be 0f 37 87 be 21 c4 f1 bb 75 ec 3b 3f
       -0.28145355 -0.26409194 -0.0073781167 0.7340768
000080 77 d7 df be 11 7e 85 be d7 01 f6 be 92 6f 04 bf
       -0.43719074 -0.26072744 -0.4804828 -0.5173274
000090 36 b7 07 3d 5c 19 10 bf 26 3f a1 be 73 bf ac be
       0.033133708 -0.56288695 -0.3149349 -0.33739814
0000a0 0b 2a 2c 40 82 7c ed bc 25 33 91 3b 89 db 93 3c
       2.690066 -0.028990034 0.0044311457 0.018049018
0000b0 17 c7 aa be 36 ca c1 be 0e 52 08 bf 79 51 57 3f
       -0.33355018 -0.37849587 -0.53250206 0.8410869
0000c0 9e 3c c7 be c7 77 7a 3f 76 43 0d bf 7e ce 90 3c
       -0.38913435 0.97839016 -0.5518106 0.017676588
0000d0 60 ef 85 3e 78 8c 02 bf ab 9a 8f be d8 e8 2d 3f
       0.2615919 -0.5099559 -0.2804769 0.67933416
0000e0 5b 93 7c be 12 10 49 bb 52 02 26 be 19 c7 5a 39
       -0.24665587 -0.0030679745 -0.16211823 0.0002086427
0000f0 27 af c3 be ea f2 8b be d9 53 0f bf 02 eb 16 bf
       -0.38219568 -0.27333766 -0.55987316 -0.58952343
000100 e0 cc 12 bf ab 1e 15 3d c0 16 f0 be 52 31 f9 be
       -0.57343864 0.0364062 -0.46892357 -0.4867044
000110 27 f8 13 3b fc 9f b7 be 5c 63 8d 40 9a 87 a0 40
       0.002257833 -0.35864246 4.418379 5.016553
000120 de 70 19 3f 23 27 06 3c a8 5e 02 bf c1 f8 fb be
       0.59937847 0.008188042 -0.50925684 -0.49213222
000130 8a 94 df be 6c 92 92 40 b8 cd e9 be d0 86 80 be
       -0.43668014 4.580374 -0.45664763 -0.25102854
000140 b5 2f c4 3c cb 3a 36 bf a8 9d 0c bd 07 75 28 b9
       0.02394853 -0.7118346 -0.03433004 -0.00016065325
000150 2f 9b 2e bf 89 65 98 40 bb 08 00 bd 6d 97 7d 3f
       -0.6820554 4.7623944 -0.031258326 0.9905918
000160 a1 5e 07 3d 26 04 07 bf 31 ce fa 3c 18 5f 8b 3c
       0.03304923 -0.52740705 0.030615898 0.017013118
000170 7c 77 b6 be 3b c9 ef 3c 5b e6 0e 3f a5 f0 e0 40
       -0.35638034 0.029270759 0.55820245 7.0293756
000180 7d 51 97 3f b6 82 85 b7 be f4 c3 3e 4d d5 f2 be
       1.1821743 -1.5915703e-05 0.3827266 -0.4742836
000190 b4 7a ca 3c 22 12 f1 be 2d 55 c3 3c 20 00 f1 3b
       0.024716713 -0.47084147 0.023844326 0.007354751
0001a0 9d 56 a4 be 2b 33 26 bd ef 6a 02 bd 32 03 ae be
       -0.3209733 -0.04057614 -0.03184026 -0.33986813
0001b0 b1 d8 c0 3e 65 7f fd be be b4 a6 bc 29 02 75 3c
       0.37665322 -0.49511257 -0.020349856 0.014954128
0001c0 7c 33 14 3f 80 0d ac be 48 51 80 be e3 93 04 3c
       0.5789106 -0.3360405 -0.25062013 0.0080919
0001d0 52 21 b2 40 4f 79 f3 be bc bf a9 3c c4 61 f7 3c
       5.5665674 -0.4755349 0.020721309 0.030197985
0001e0 17 0b bb be ba d8 b5 bc 96 c0 81 3f ea 90 fc 3b
       -0.36531898 -0.02219807 1.0136898 0.007707705
0001f0 30 66 93 be 09 9e ea bc 6f 15 06 bf 30 05 e0 3c
       -0.287889 -0.02863981 -0.52376455 0.027346224
000200 88 35 d3 bd 3b 9d f0 be a6 12 9d be 36 39 2d 3d
       -0.10312945 -0.46994957 -0.3067829 0.04229089
000210 f8 fb 00 3d 2f 5c 95 be 10 69 a5 40 f4 b9 54 be
       0.031490296 -0.29171893 5.169075 -0.2077406
000220 0b 29 4b 3c de 56 04 bf 32 15 41 3c 0c 56 a6 be
       0.012399922 -0.5169505 0.0117848385 -0.32487524
000230 fc 69 4f be 9c 2d 9c 3f 43 e7 b6 be e2 49 ed be
       -0.20255274 1.2201419 -0.35723314 -0.4634543
000240 55 00 28 bd c4 ed c0 be c4 85 a2 bc 74 e9 9b be
       -0.04101594 -0.376814 -0.019839175 -0.30451548
000250 30 8b 9c bb d9 f1 f3 bc 23 38 f6 be 6d fe de 3f
       -0.0047773346 -0.029778408 -0.48089704 1.7421395
000260 c7 94 8a 3f 34 fd 7f be 9b 01 04 3d 43 70 c8 be
       1.0826653 -0.24998933 0.032228094 -0.3914815
000270 28 c2 a0 3c 90 cc ca bc 81 59 73 be 86 d9 2f 3d
       0.01962383 -0.024755746 -0.23764612 0.042932056
000280 3d 11 2c 3c f7 11 e0 3e fe d1 ee 40 3d bd f7 be
       0.010502157 0.43763706 7.463134 -0.48386565
000290 4c 60 bf be 4c d0 13 be 7c 50 a5 40 80 61 7d be
       -0.37378156 -0.14434928 5.1660748 -0.24744225
0002a0 a9 7d 10 bf 4a c6 18 bf 11 63 fd be ed b6 03 bd
       -0.5644174 -0.59677565 -0.49489644 -0.032156873
0002b0 e9 38 8d be 35 d4 a0 3c fd 3d 49 be 88 9c ca be
       -0.27582482 0.019632438 -0.19652553 -0.3957255
0002c0 4b b6 82 be c7 af ba be 8a 94 8c be f9 57 06 3c
       -0.25529703 -0.36462232 -0.27457076 0.008199685
0002d0 aa a3 3f 3f cc 82 68 40 71 d3 11 3d c8 fe 01 bf
       0.74859107 3.6329832 0.035602037 -0.5077939
0002e0 6d 00 a0 be 6d 57 90 be 3c f5 f5 be 0c 77 c7 3f
       -0.31250325 -0.281917 -0.4803866 1.5583205
0002f0 e8 f7 1a bf 07 3a 0f 3c 46 4e 21 3d 10 50 d8 bc
       -0.60534525 0.008741862 0.039381288 -0.026405364
000300 af 0b bf be 80 29 f0 be f5 61 e3 3b bf cc c3 3f
       -0.373136 -0.46906662 0.0069391676 1.5296859
000310 7f 84 5d be 88 65 60 3d 7f e5 47 40 41 71 83 bf
       -0.21632574 0.054784328 3.1233823 -1.0268937
000320 6e 57 8c 40 f4 a1 8d be 41 a7 19 3d 32 60 1b bf
       4.3856726 -0.27662623 0.03751302 -0.6069366
000330 26 4b 97 be 21 43 8f 40 43 9d 0a bf 55 63 86 be
       -0.2954952 4.4769444 -0.5414621 -0.2624766
000340 55 2b 46 bc 71 0a 3f bc a2 41 88 be 56 be b0 bc
       -0.012095292 -0.011660204 -0.26612574 -0.021575134
000350 50 7c dc be 70 11 3b be 20 62 85 be 1d b2 08 3d
       -0.43063593 -0.1826837 -0.26051426 0.033372987
000360 f7 2a 05 3d 6c ca 73 be 72 b2 8f be 09 fb 50 bc
       0.032511678 -0.23807687 -0.2806583 -0.012755164
000370 e1 cc 60 3f 7d a7 fe bb 80 ea e1 3f c4 4f 80 3c
       0.8781262 -0.007771431 1.7649689 0.015663035
000380 e4 52 a5 be 3d 82 a0 40 90 99 26 bf bd 81 97 be
       -0.32289803 5.015898 -0.6507807 -0.2959117
000390 12 fc 86 be 62 19 98 be 67 4a 35 bf 5c 0a 7a be
       -0.2636419 -0.29706866 -0.70816654 -0.24418014
0003a0 33 6b b1 be fb 46 b8 bc be b4 80 be 83 b0 e9 be
       -0.346521 -0.022494784 -0.25137895 -0.4564248
0003b0 87 be 62 bc 4e 05 9d 3f c6 ff 8e be 90 ab 18 3d
       -0.013839371 1.2267244 -0.27929515 0.03727299
0003c0 83 19 0c bf e5 84 43 bf d0 4f 79 be 14 7e c6 be
       -0.5472643 -0.76374656 -0.24346852 -0.38768065
0003d0 ec c2 88 be 73 8a 96 be 3c e0 29 41 5e 2d 04 bf
       -0.26711214 -0.29402503 10.617245 -0.51631725
0003e0 3a 74 81 3f fa da d1 bc 5f 07 28 3f 9d 4b 17 bd
       1.0113595 -0.025617111 0.6563625 -0.036937345
0003f0 a7 8c 08 bf 47 5f c6 be 90 19 8e be 26 73 80 be
       -0.5333962 -0.38744566 -0.27753878 -0.2508785

linear2.bias f4 [3]
000000 42 87 9e be e8 7b b6 be 51 94 22 3d
       -0.3096257 -0.35641408 0.039692227
