Reinforcement_Learning/exp2/pretrained_model/2_DDQN_DQN/414000.pth (torch, 13785 bytes, 4 tensors)

linear.weight f4 [512, 2]
00000000: 2279 adbb 9c36 c23e 577c 80bd 2f9e 8cc1
00000010: d670 8bbe ab2a 423e 7ccb 4bbf 6279 9e40
00000020: de83 80bd 9799 3f3e 65da 5fbf fe3d c5bf
00000030: b97d a4bf 83ac 2cc0 dfaa 5ebf e9d5 06c1
00000040: 19f0 90bf b74b 1a41 d31a b1be ab16 32c1
00000050: a130 d2bd be74 c240 969c 6dbf 16ed b9c0
00000060: 1e6b e9bd 353c 993d eea9 043e 3525 0541
00000070: c5ea e3be ac4f 37be a05e 89bf 1fe9 5d40
00000080: e0a6 9cbf 5594 8cc1 1a9e 80bf 2de5 9cc0
00000090: d567 53bf 9925 edc0 5e8c a13e 5f78 af3e
000000a0: 808f 10bf a2b0 543f 2990 853d e5c3 d6c0
000000b0: 3c5b 8ebf 290f 62c0 e146 8dbe d1f2 b840
000000c0: f68f a0be f202 d1bc 9b0c 00be a199 ca40
000000d0: 55e3 8a3e 35ec b03d f2bd f23e 522b d5be
000000e0: f319 f8be e999 0040 276a 87bf cd35 72c0
000000f0: 10d0 a33e fd98 913e c18d 4dbf dc66 07c1
00000100: e251 8ebe a23a a140 3b56 39bf b61c 9840
00000110: 0e8c 5fbe b508 c140 dbf8 c9be 04bc 33c1
00000120: e748 8e3e c4fb 153f 3b46 a43c 72ad c240
00000130: 9399 aebe 49ec 7bc0 b4dd 0ebf 33a7 92bf
00000140: 31fb c9bf 5501 a1c0 cba3 093f 6492 34bf
00000150: ec86 073e c6f4 f3bd 5c4f eebd c7b9 a5be
00000160: daeb 95be d8bf f5be 5887 e7be b45f a940
00000170: 4aaf 3fbe 5dee b040 b7f2 4ebf 3f7c 1ec1
00000180: 6557 b7be 80a0 b240 d3be 88bf c94f 18c1
00000190: 3d21 773d 87ae bf40 a3db 9dbe 3f3d 36be
000001a0: 9c2f cebf 69ff 8ec1 9128 34bf d91a 2ac1
000001b0: 7598 39bf ca04 8840 1dba 58bf 35f5 f0c0
000001c0: e43f 9bbf 2700 a5c0 e51a f83e 88a6 18bf
000001d0: b761 2fbf 27e3 47c0 8f49 d33d 86bb 2b3e
000001e0: 63a7 d4be fe17 9c40 b80e 87bf 028d 863e
000001f0: f9b5 a7bf 82b6 fbc0 bfb3 17bf 2701 25c1
00000200: 6d63 1abf 1fbf 27c1 b005 1abe b5c6 1a3e
00000210: 119a f9be 0702 26c1 e868 dcbd 2ca4 b140
00000220: 5dfd a03c 86dc 79bd 1573 20bf 5911 a140
00000230: 5b97 463e d013 0041 e275 623f 91dd 1f41
00000240: 97fc 56bf 8a07 1ac1 9783 f63e c233 96bb
00000250: a5e6 34bf 0b39 1ec1 366f 3fbf 0d87 27c1
00000260: b87d 20bf 4fa8 0cc1 cc2b dabf da27 6e40
00000270: fa53 4fbe 8b2f 4c40 f49c 44bf 7a0c 54bf
00000280: e677 0bbe d42a 0ebe 0f67 adbf ea2d ffc0
00000290: 439b e2bd 88d2 153c 0f77 a4be 3361 883e
000002a0: c187 a7bf cd21 d3c0 8758 363f 6c04 1741
000002b0: 986e 213f 7846 7e3e f614 32c0 0026 1ec1
000002c0: ea1b a7bd d59d a1be 0a7e 8b3f 5a06 f140
000002d0: e664 9b3d 6199 17be a844 013f 4a1f 4a3e
000002e0: 6835 83be dded b940 4e1f 2ebe 0447 18be
000002f0: 7d03 0bc0 0ed1 67c1 31ff e7be 107b 2741
00000300: cc07 42bf ee29 0ec1 a236 ffbe eb4b c7be
00000310: 8044 d9bf 63e2 7fc1 4959 3bbf 39b4 11c1
00000320: 42af f33c e360 e93e 5c11 3cbf c5a2 24c1
00000330: 4440 c8be fd3f fc3e e623 82be 11b0 183f
00000340: 47aa fdbe 7ef1 a940 487b acbb 0123 0fbe
00000350: d6b1 b53d d656 25be 019d 3fbf fd53 4540
00000360: 12fe 83bf a696 0ec1 2716 37bd 73de 9440
00000370: 13f9 4fbd 4312 333f 23c8 823e b401 a43c
00000380: 4c36 6fbf 9980 01c1 17bc 5cbf 6739 13c1
00000390: eca7 68bf 2874 0240 ff71 fd3b 5d4e 153f
000003a0: 4862 8a3d c09b 1f3f c090 51be 0261 8e40
000003b0: 3660 a23e 78ec ffbe 5283 97be b3f7 543e
000003c0: 18b2 f6be 1a36 be40 8c17 69be f25e 943a
000003d0: 021f afbd f42f 2140 9cdf 023f 5fb0 15bf
000003e0: 64ce 0cbf 96fa c9bf 0dad bebe 7367 bf3d
000003f0: 24d4 c13d 7d5c b240 b2f0 d6be 5de5 85be
-0.005293981 0.3793229 -0.06273716 -17.577238 -0.27234524 0.18961589 -0.7960737 4.952317
-0.06275152 0.18710934 -0.8744262 -1.5409544 -1.2850868 -2.6980293 -0.8697948 -8.427224
-1.1323272 9.643485 -0.34590778 -11.130534 -0.102631815 6.0767508 -0.92817056 -5.810191
-0.11397384 0.07482187 0.12955448 8.321584 -0.44515052 -0.17901486 -1.0732002 3.4673536
-1.2238426 -17.572428 -1.0048249 -4.9029756 -0.8258031 -7.4108396 0.31552404 0.34271523
-0.56468964 0.8308202 0.06521637 -6.711413 -1.1121593 -3.5321753 -0.2759314 5.7796407
-0.31359833 -0.0255141 -0.12504809 6.3312535 0.27126566 0.08638803 0.47410542 -0.41634613
-0.48457298 2.009394 -1.057927 -3.7845337 0.31994677 0.28437033 -0.80294424 -8.462612
-0.27796847 5.0384073 -0.723972 4.7535048 -0.2183077 6.032313 -0.39447674 -11.233402
0.27789995 0.5858729 0.02005302 6.0836725 -0.34101543 -3.9362967 -0.5580704 -1.1457275
-1.5779783 -5.0314126 0.53765553 -0.70535874 0.13235062 -0.11911921 -0.1163623 -0.323683
-0.29281503 -0.47997928 -0.45220447 5.2929325 -0.18719211 5.529097 -0.80839103 -9.9053335
-0.35808864 5.5820923 -1.0683235 -9.519479 0.060334433 5.9900546 -0.30831632 -0.17796801
-1.6108279 -17.874712 -0.703744 -10.631555 -0.72498256 4.2505846 -0.84658986 -7.5299325
-1.2128873 -5.1562686 0.4845802 -0.59629107 -0.68508476 -3.1232393 0.103167646 0.16770753
-0.41533956 4.8779287 -1.0551367 0.26279455 -1.3102409 -7.866029 -0.59258646 -10.312781
-0.6030796 -10.48416 -0.15041232 0.15114863 -0.48750356 -10.375495 -0.10762197 5.5512905
0.019652063 -0.061001323 -0.626756 5.0333676 0.19393675 8.004837 0.88461125 9.991593
-0.8397917 -9.626841 0.4814727 -0.0045838067 -0.70664436 -9.8889265 -0.7477907 -10.470471
-0.6269183 -8.791091 -1.7044616 3.7211823 -0.20246878 3.1904018 -0.7680199 -0.8283154
-0.13619956 -0.13883525 -1.3547076 -7.9743547 -0.1106477 0.009144433 -0.32122084 0.26636657
-1.3088304 -6.597876 0.7122883 9.43858 0.6305938 0.24831569 -2.7825294 -9.884277
-0.08159621 -0.3156573 1.0897839 7.5320253 0.07587604 -0.14804603 0.50495386 0.19738498
-0.25626683 5.810286 -0.1700413 -0.1487084 -2.172088 -14.488539 -0.45311883 10.467545
-0.7579315 -8.885237 -0.4984637 -0.38925108 -1.697403 -15.99277 -0.73183113 -9.1065
0.029746655 0.4558173 -0.7346399 -10.289739 -0.3911153 0.4926757 -0.25418013 0.59643656
-0.49543974 5.310729 -0.0052637197 -0.13978197 0.0887181 -0.16146407 -0.74848944 3.0832512
-1.0311911 -8.911779 -0.04469886 4.6521544 -0.050774645 0.6994974 0.25543317 0.020020343
-0.93442225 -8.093896 -0.862245 -9.201514 -0.9088123 2.0383396 0.0077345367 0.583227
0.06757027 0.6234703 -0.20465374 4.449342 0.31714028 -0.499851 -0.29592377 0.20797615
-0.4818275 5.944104 -0.22762889 0.00113198 -0.08550836 2.5185518 0.5112245 -0.58472246
-0.5500243 -1.5779598 -0.37241402 0.09345903 0.09464291 5.57379 -0.4198051 -0.26151553

linear.bias f4 [512]
00000000: c8ee 4abd e219 d33e ffbe d0be 45ba b23e
00000010: e596 75be f52d 5b3f 61e4 6e3f aa61 cc3e
00000020: 982c b3bf a57a cb3e fb50 a53e 0dbf cf3e
00000030: 9545 0abf 7aaa f9bb 7292 16bf d255 1b3f
00000040: dc09 e53e 0b6e 913f e32d bf3e 2b67 cfbe
00000050: e715 e83e be60 0f3f 65ea 6a3f 44c5 8c3e
00000060: 1062 2ebf d2e8 003f fac9 11be b802 a0be
00000070: 6b51 093f e76f 733f 7b1a 1fbf 372f c03e
00000080: 809a 0d3f d014 a13e 5994 1f3f 0e9b c93e
00000090: 44b7 c7be c6db 2f3f 4d8d 383f 9cb8 7f3f
000000a0: 75a6 483f f973 e8be 0ebe a9bd b571 2abf
000000b0: af28 e83e c677 213f 2709 8a3e 6e3d c63e
000000c0: 3dd5 b53e b3e9 e83e 58a9 3b3f d4fe 33bf
000000d0: d443 023f 3939 b93e 4e25 1d3f daba c33e
000000e0: af40 0e3f 3cb0 04bf 565c 273f 61d2 a1bd
000000f0: b358 503e c549 4c3f 39e4 0f3f 60b7 a33e
00000100: 9d80 a63e 4110 e3be 1404 b03e ec10 cd3e
00000110: 1f2d 91be 3e91 083f 3679 82bd a40a 90be
00000120: a5ad ca3e 7d1d 26bf 3bba b53e 0d9d bf3e
00000130: 3b65 a13e 9845 87bf 2c6b 113f 3833 4d3f
00000140: d45f f5be a768 143f 09fd 0dbf 0a1b 1abf
00000150: d5d8 113f 1925 82be 8ef4 acbe 19d3 453f
00000160: 8228 8cbe 1dda 213f 408d 27bf a2da 2fbf
00000170: 5a0c 853e 3668 02bf 8f43 103f fd18 97be
00000180: a37b b83e 437e 24bf 7e1e ff3e bf5a b53e
00000190: 34b2 2abf 3d37 bc3e 4db1 f3be 8dfa fabe
000001a0: 8119 8d3e 2654 0bbf c22e 09bf edae 013f
000001b0: 30e2 eb3e 91ed 2e3f e88a 41be c1de aebe
000001c0: 916d d63e 1c07 cf3e 8f0e 2e3f 4a4f 34bf
000001d0: a84a 85bd bfc6 713e 595e c7be 01e5 b9be
000001e0: 2934 a73e 3673 2dbf bb0e f83d 8924 0cbf
000001f0: 5a02 1a3f 63c7 1abf 2c51 b63e db5b 2bbf
00000200: fb88 0f3f 1af1 b53e eef0 553f 2f06 1bbf
00000210: a97d a1be 7f01 623f 9831 24bf d868 393f
00000220: c412 acbf db4b ca3e d9da b7be ca73 513f
00000230: 0d8a 403f 4dc2 573f 848e 7a3e 4857 a83e
00000240: 32c0 94be 2f9d 003f dd46 70be 0da1 7b3f
00000250: 9ec3 01bf abf2 00bf e1d1 a93e 6597 b33e
00000260: 6c0b 243f 5193 0e3e d14d 2ebe bda2 f63e
00000270: 50ec 01be 68bd 91be 5e09 4b3f b934 30bf
00000280: fbed e6be 9d21 183f b98f e4be 754b 103f
00000290: 7158 2d3f 2543 003f dc36 94be f329 1f3f
000002a0: b7fc b43e 9e13 233f 6ea2 9c3e 4c40 f3be
000002b0: ac5d 333f f34b 78be 2175 0e3f ccbe a33e
000002c0: 78c6 bf3e 4351 2e3f 9a54 6a3f 47bd 24bf
000002d0: e178 fa3e 88d0 2b3f 58df e6be 78ba 173f
000002e0: fbff ba3e 2e9e 4a3f 717a a73e e1cb 0d3f
000002f0: 70c4 bf3e f2e4 1dbf 72c8 28bf 1c71 32bf
00000300: 06c1 bd3e c590 ca3e cada e0be bc04 253e
00000310: fef2 603f 6658 fd3e 31ba 59bf 43d6 e73e
00000320: e770 6fbe d835 fb3e 0fd4 f5be 4401 033f
00000330: 2d23 293f 459c 87be 2f8c 1a3f d0db 8c3f
00000340: ddb9 8ebe 5ccf 4abe f6d7 0e3f 72d0 0dbf
00000350: b0ab 163f 437a b93e 755e 253f 103c 1dbf
00000360: 5b63 16bf 8761 023f c255 343f 977c 28bf
00000370: 575e d83e f9a0 25bf 7e74 7a3f 5c3f aabe
00000380: d6ae 6f3f d194 2b3f 15f6 f43e a2e8 7a3f
00000390: 8042 a93e 4a9c dc3e d8c6 1b3f b124 183f
000003a0: 4874 0c3f 4c90 32bf ac6d 193f 4f0c 203f
000003b0: fc69 28bf 2b39 023f 2729 6d3f 26a8 03bf
000003c0: 8802 ea3e cb22 1a3f 0a27 b73e 0c4e 523f
000003d0: bf64 423f 7d47 613f 2ab4 8bbf 66fa 173f
000003e0: 0fa1 37bf df5d c3be 4ceb d43e 9317 57be
000003f0: 6d69 213f da56 b13e 5dc0 243f fd58 203f
-0.049544126 0.41230685 -0.40770718 0.34907737 -0.23983343 0.85617 0.9331723 0.39918262
-1.3997984 0.39742008 0.32288346 0.40575448 -0.54012424 -0.0076191993 -0.5881721 0.60677826
0.44734085 1.1361707 0.37339696 -0.40508398 0.4532921 0.5600699 0.9176391 0.27494252
-0.6811838 0.50355256 -0.14237204 -0.31252074 0.5363986 0.95092624 -0.6214978 0.37536022
0.55313873 0.3146119 0.62335736 0.3937611 -0.39007008 0.6869472 0.7209061 0.99891067
0.78378993 -0.4540098 -0.08288203 -0.66579753 0.4534354 0.63073385 0.26960108 0.38718742
0.3551425 0.45490798 0.73305273 -0.7031071 0.5088475 0.3617647 0.6138505 0.38228494
0.5556745 -0.5183141 0.6537527 -0.07901455 0.20346336 0.79800063 0.56207615 0.31975842
0.3252 -0.44348338 0.3437811 0.40051973 -0.28354737 0.5334662 -0.063707754 -0.28133118
0.39585605 -0.64888746 0.35493645 0.37424508 0.31522545 -1.0568113 0.56804156 0.8015628
-0.47924674 0.57972187 -0.55464226 -0.6019751 0.56971484 -0.25418928 -0.3378033 0.77275234
-0.27374655 0.6322344 -0.65449905 -0.6869298 0.25985986 -0.50940263 0.56353086 -0.29511252
0.36031827 -0.6425516 0.4982795 0.35420796 -0.66678166 0.36760893 -0.47596207 -0.4901928
0.2755852 -0.54425275 -0.5358697 0.5065754 0.46071005 0.6833125 -0.18900645 -0.34154323
0.41880468 0.40435112 0.67990965 -0.70433486 -0.0650838 0.23610972 -0.3893917 -0.3630753
0.32656983 -0.6775392 0.121121846 -0.5474325 0.6015984 -0.6046049 0.35608804 -0.66937035
0.5606839 0.35535508 0.83570755 -0.6055631 -0.31541184 0.8828353 -0.64138174 0.72425604
-1.3443227 0.39510998 -0.35909155 0.81817305 0.7521065 0.84280854 0.24468428 0.3287909
-0.29052883 0.50239843 -0.23464532 0.9829262 -0.50689113 -0.5037028 0.33167937 0.35076442
0.6407993 0.13923384 -0.17021872 0.48171034 -0.12687802 -0.28464818 0.7931117 -0.6883045
-0.4510344 0.5942629 -0.44640902 0.5636514 0.67713076 0.50102454 -0.28948104 0.62173384
0.35349056 0.6370181 0.30592674 -0.47509992 0.70064807 -0.24247722 0.55647475 0.31981504
0.37456107 0.68092746 0.9153534 -0.64351314 0.48920348 0.6711507 -0.45092273 0.59268904
0.36523423 0.79147613 0.32710603 0.5538922 0.37454557 -0.6167747 -0.65930855 -0.6970384
0.37061328 0.39563575 -0.43916923 0.16115087 0.87870777 0.49481505 -0.8504973 0.45280656
-0.23382913 0.49064517 -0.4801335 0.51173806 0.660693 -0.26486412 0.60370153 1.1004581
-0.27876177 -0.19805664 0.5579828 -0.5539619 0.58855724 0.3622609 0.64597255 -0.61419773
-0.58745354 0.50930065 0.70443356 -0.6581511 0.42259476 -0.6469875 0.97834 -0.33251464
0.93626153 0.6702395 0.47843996 0.9801122 0.33058548 0.4308799 0.60850286 0.59430987
0.5486493 -0.6975143 0.5993297 0.6251878 -0.6578672 0.5086848 0.9264092 -0.5142845
0.45705056 0.6020934 0.35771972 0.8215034 0.75934976 0.8799971 -1.0914357 0.5936645
-0.7173013 -0.38157555 0.41585767 -0.21005087 0.6305149 0.34636575 0.64356023 0.62635785

linear2.weight f4 [3, 512]
00000000: a7c2 70bc b6eb b840 ae24 a03c f65e f4be
00000010: a47b 2c3d 1714 f4be 1aae 12bf 742c 90bf
00000020: 39ab 6340 0ca5 59bf b4cf 38bd 6830 7fbf
00000030: cf9e c6bc c3db 69bf feab 9cbc 5367 edbe
00000040: d5f0 1e40 9409 eabe 7b30 84bf 99fc 343c
00000050: 24d8 d3be a927 7cbd 466b 18bf a3b0 9dbe
00000060: 4498 143c affa 3abe a506 19bc 6d10 31bd
00000070: 84b9 98be cb8a 13bf 21c4 f1bb 3c2c a1bf
00000080: 1450 82be 7fc0 edbe adde 77be 40ac 86bf
00000090: 36b7 073d e66c 22be bf7c a3be 0a12 9abe
000000a0: 2043 8d3f 827c edbc 2533 913b 89db 933c
000000b0: fdad 62be 7062 8dbe c5fc 79be 58b5 86bf
000000c0: a2b6 90be 7126 bb3f 4ca0 27be 7ece 903c
000000d0: 40c6 0040 7bd7 a0bf 133e adbe 980e 8dbf
000000e0: 773e 65bf 1210 49bb c3de f6be 19c7 5a39
000000f0: c91a babe c15c f3be 6aff 92bf 8cb8 c2bf
00000100: 2650 c2bf ab1e 153d 19ad 7ebf a1c5 53be
00000110: 27f8 133b 8e91 b3be 596f 3840 dde7 9040
00000120: 7a7a 9dbf 2327 063c 0d57 b7bf 7c4c a4bf
00000130: cb2d a6bf 048f d140 2f3d 69be 43e2 c3be
00000140: b52f c43c 3f5e 93bf a89d 0cbd 0775 28b9
00000150: d0bf 8ebf cd1b b940 bb08 00bd 03ff 0540
00000160: a15e 073d dc44 ba3f 31ce fa3c 185f 8b3c
00000170: cea9 91be 3bc9 ef3c 69b1 ce3f 6d7e e140
00000180: 41ac 8abf b682 85b7 c09d f83f e334 acbf
00000190: b47a ca3c 7203 a1bf 1305 c03c 2000 f13b
000001a0: 5a8f aebe 2b33 26bd ef6a 02bd 8565 eabe
000001b0: 9182 9abf d660 32be beb4 a6bc 2902 753c
000001c0: de5f 8ebf cd57 a8bf 443c d8be e393 043c
000001d0: a882 a2bc 86c0 84be bcbf a93c eb59 f63c
000001e0: 9718 aebe bad8 b5bc 5b1c f8bd ea90 fc3b
000001f0: 58da c6be 099e eabc 20e6 04be 3005 e03c
00000200: fe8e c03f 8ba8 b1bf 10f8 ffbe 3639 2d3d
00000210: f8fb 003d 1f28 c1be 470b 8a40 6839 1bbf
00000220: 23a6 863f 4171 a4bf 3215 413c 5f18 bbbe
00000230: 7e2d 9abe b472 ab3f e36a 1cbf 6237 a9bf
00000240: 5500 28bd 322f 8a3f c485 a2bc e8ed d0be
00000250: 308b 9cbb d9f1 f3bc 2986 97bf b499 98bf
00000260: 6401 08be cf9b 4dbf 9b01 043d 4e37 af3f
00000270: 28c2 a03c 90cc cabc 8d52 dcbe 86d9 2f3d
00000280: 3d11 2c3c a12c 893f 5800 1441 567c 5dbe
00000290: 059e 6ebe eb8f 8f40 19b4 ac40 f013 19bf
000002a0: 4ce4 4bbe e778 2bbe fb43 b3bf edb6 03bd
000002b0: 1180 05bf 35d4 a03c 53fa 12bf e18d 8dbf
000002c0: 9c3c 09bf a411 a0be 1dbb b0be f957 063c
000002d0: 7320 5340 7547 873f 71d3 113d 496c 3ebe
000002e0: d485 99bf 6355 ba3f cd6a 1dbf edae b23f
000002f0: 44d4 0ebe 073a 0f3c 464e 213d 1050 d8bc
00000300: 00f4 acbe 24fc a9be f561 e33b 423a adbe
00000310: 93b4 f1be 0219 86bf eda5 b240 78a2 8dbf
00000320: f03a b140 f09d 13bf 41a7 193d 8120 41be
00000330: a889 05bf 1dcb 123f 583f 17be cfee eabe
00000340: 552b 46bc 710a 3fbc 313b c2be 56be b0bc
00000350: cd40 f8bd 4c49 98bf 658b fcbe 1db2 083d
00000360: f72a 053d 2726 90bf c401 8fbe 09fb 50bc
00000370: 649d c23f 7da7 febb 211e c83f 2df1 753c
00000380: fdb3 aabe 9f7c b740 0e60 17be 8998 e2be
00000390: 8958 cfbe ccfd 7340 8d21 8dbf cad7 8abe
000003a0: ffc6 87be fb46 b8bc e15d 63bf 664b 7abe
000003b0: 87be 62bc 7f00 9ebd 97ac 06bf 90ab 183d
000003c0: d69d 9bbf d683 77bf 1cd8 10bf d163 21be
000003d0: b380 97be 7837 bdbe b635 df40 e9a8 3cbe
000003e0: 9300 bb40 fada d1bc 9b91 68bf 9d4b 17bd
000003f0: 9675 4cbe 8180 a0be 5c99 e8be 99e1 cbbe
-0.014694846 5.7787733 0.01954874 -0.477287 0.0421101 -0.47671577 -0.5729691 -1.1263566
3.5573256 -0.85017467 -0.045119956 -0.9968324 -0.024245648 -0.91350955 -0.019124981 -0.46367893
2.4834492 -0.45710433 -1.0327295 0.011046552 -0.4137584 -0.06156126 -0.59538686 -0.30798826
0.009069506 -0.1825969 -0.009339963 -0.043228555 -0.29829037 -0.57633656 -0.0073781167 -1.2591624
-0.2545172 -0.46435925 -0.24206038 -1.0521317 0.033133708 -0.15861854 -0.3193111 -0.30091888
1.103611 -0.028990034 0.0044311457 0.018049018 -0.22136684 -0.27614164 -0.2441283 -1.0524092
-0.28264338 1.4621106 -0.16369742 0.017676588 2.0121002 -1.256576 -0.3383642 -1.1020079
-0.8954844 -0.0030679745 -0.4821683 0.0002086427 -0.3634856 -0.47531703 -1.1484196 -1.5212569
-1.5180709 0.0364062 -0.99482876 -0.20680858 0.002257833 -0.35071987 2.8817961 4.5283036
-1.2303002 0.008188042 -1.4323441 -1.2835841 -1.2982725 6.548708 -0.22777246 -0.38258561
0.02394853 -1.1513137 -0.03433004 -0.00016065325 -1.1152287 5.7846437 -0.031258326 2.0936897
0.03304923 1.4552264 0.030615898 0.017013118 -0.28449863 0.029270759 1.6147891 7.046683
-1.0833818 -1.5915703e-05 1.9423141 -1.345364 0.024716713 -1.2579176 0.02343992 0.007354751
-0.34093744 -0.04057614 -0.03184026 -0.45780578 -1.2071096 -0.17419752 -0.020349856 0.014954128
-1.1123006 -1.3151795 -0.4223348 0.0080919 -0.019837692 -0.25928134 0.020721309 0.030072173
-0.34003136 -0.02219807 -0.121147834 0.007707705 -0.38838458 -0.02863981 -0.1297841 0.027346224
1.5043638 -1.387956 -0.49993944 0.04229089 0.031490296 -0.37725922 4.3138766 -0.6063447
1.0519451 -1.2847062 0.0117848385 -0.3654203 -0.30112833 1.339438 -0.61100596 -1.3220026
-0.04101594 1.0795653 -0.019839175 -0.40806508 -0.0047773346 -0.029778408 -1.1837817 -1.1921906
-0.1328178 -0.8031587 0.032228094 1.3688753 0.01962383 -0.024755746 -0.4303173 0.042932056
0.010502157 1.0716745 9.250084 -0.21629462 -0.23302467 4.486318 5.3969846 -0.5979605
-0.19911307 -0.1674534 -1.4005121 -0.032156873 -0.5214854 0.019632438 -0.57413214 -1.1058923
-0.5360811 -0.3126346 -0.34517756 0.008199685 3.2988555 1.0568682 0.035602037 -0.18595995
-1.1993966 1.4557308 -0.6149109 1.3959633 -0.1394816 0.008741862 0.039381288 -0.026405364
-0.33779907 -0.3320018 0.0069391676 -0.3383351 -0.4720808 -1.0476382 5.5827546 -1.1065207
5.5384445 -0.5766287 0.03751302 -0.18860056 -0.5216317 0.57341176 -0.14770257 -0.45885321
-0.012095292 -0.011660204 -0.37935784 -0.021575134 -0.12121735 -1.1897368 -0.493251 0.033372987
0.032511678 -1.1261643 -0.27931035 -0.012755164 1.5204282 -0.007771431 1.5634195 0.015011114
-0.33340445 5.7339625 -0.14782736 -0.44257 -0.40497234 3.8123655 -1.1025864 -0.2711776
-0.2651901 -0.022494784 -0.8881512 -0.24442825 -0.013839371 -0.07714938 -0.526071 0.03727299
-1.2157543 -0.9668554 -0.56579757 -0.15760733 -0.29590377 -0.36956382 6.9753065 -0.18423809
5.84382 -0.025617111 -0.90847176 -0.036937345 -0.1996673 -0.3134804 -0.45429504 -0.39820555

linear2.bias f4 [3]
00000000: 2091 17bd e698 08bf 04f3 7e3e
-0.037003636 -0.53358305 0.2489739
