Reinforcement_Learning/exp2/pretrained_model/2_DQN_DQN/357000.pth (torch, 13785 bytes, 4 tensors)

linear.weight f4 [512, 2]
000000 22 79 ad bb 9c 36 c2 3e 6c 7a f8 bf 1c b9 8b c1
       -0.005293981 0.3793229 -1.941236 -17.465385
000010 d6 70 8b be ab 2a 42 3e 6d 6a 50 bf c2 c5 e4 c0
       -0.27234524 0.18961589 -0.8141239 -7.1491404
000020 de 83 80 bd 97 99 3f 3e 1a 98 a6 be 6e 50 b6 c0
       -0.06275152 0.18710934 -0.3253792 -5.697318
000030 f8 b2 bb bf e8 f0 ce c0 64 f2 5f bf 24 1b df c0
       -1.4663992 -6.4669075 -0.87479234 -6.972063
000040 3c 34 1e bf f1 40 03 c1 c0 85 1a bf d7 27 1f c1
       -0.61798453 -8.203355 -0.60360336 -9.947227
000050 0e dd b1 bd af 41 fc c0 80 cf 46 bf 89 fe da c0
       -0.08684741 -7.883018 -0.7766037 -6.843571
000060 1e 6b e9 bd 35 3c 99 3d 93 d6 89 3f 8c 17 b5 bf
       -0.11397384 0.07482187 1.0768608 -1.4147811
000070 c5 ea e3 be ac 4f 37 be 72 46 f9 be d4 c1 8f c0
       -0.44515052 -0.17901486 -0.48686558 -4.4924107
000080 07 4e 06 c0 5d 47 68 c1 6b d2 15 bf 9f 9d cc c0
       -2.0985124 -14.517423 -0.585242 -6.394241
000090 0b 97 3b bf 2e 64 d4 c0 5e 8c a1 3e 5f 78 af 3e
       -0.7327735 -6.637229 0.31552404 0.34271523
0000a0 45 83 17 bf f2 a7 13 c1 3a 36 b9 be c3 33 19 c1
       -0.59184676 -9.228502 -0.36174184 -9.575137
0000b0 94 5b af bf 14 a9 da c0 4f 64 8b 3e be 2f c5 c0
       -1.3699822 -6.8331394 0.27224967 -6.162078
0000c0 f6 8f a0 be f2 02 d1 bc c0 f3 bc 3e 58 d1 6a c0
       -0.31359833 -0.0255141 0.36904716 -3.6690273
0000d0 d6 99 ef 3e 08 fe a3 41 f2 bd f2 3e 52 2b d5 be
       0.46797055 20.499039 0.47410542 -0.41634613
0000e0 84 78 21 bf 99 31 15 c1 e6 cc 9d bf f0 75 c5 c0
       -0.6307452 -9.324609 -1.2328155 -6.1706467
0000f0 10 d0 a3 3e fd 98 91 3e e4 6a 66 bf 7b 45 c7 c0
       0.31994677 0.28437033 -0.9000685 -6.2272315
000100 2c a5 c0 3e 02 5a c4 c0 b9 c6 2f bf 72 04 01 c1
       0.37626016 -6.1359873 -0.686626 -8.063585
000110 57 e0 95 3e c3 d3 6c c0 65 6e 37 bf 9b 50 1c c1
       0.2927272 -3.700425 -0.71652824 -9.769679
000120 e7 48 8e 3e c4 fb 15 3f c6 6d c9 3e 38 b8 26 c0
       0.27789995 0.5858729 0.39341563 -2.6049938
000130 b9 b5 08 bf b9 9b 18 c1 62 79 ef bc c6 39 ce c0
       -0.53402287 -9.538018 -0.029232685 -6.4445524
000140 77 8f bd bf f9 c5 8d c1 cb a3 09 3f 64 92 34 bf
       -1.4809407 -17.721666 0.53765553 -0.70535874
000150 ec 86 07 3e c6 f4 f3 bd 5c 4f ee bd c7 b9 a5 be
       0.13235062 -0.11911921 -0.1163623 -0.323683
000160 32 b8 2d bf 92 6c 12 c1 31 83 b4 3d a9 0b 88 c0
       -0.67859185 -9.151506 0.08814085 -4.2514234
000170 91 fc 41 bf 1f ba f4 c0 0c e4 8a bf d2 df f5 c0
       -0.7577601 -7.64772 -1.0850844 -7.683572
000180 4a af 82 3e 97 80 c6 c0 8c 6b 07 bf 49 a1 a8 c1
       0.2552436 -6.203197 -0.5289848 -21.078753
000190 d4 1d 0a 3f 45 b2 6f c0 a3 db 9d be 3f 3d 36 be
       0.53951764 -3.7452557 -0.30831632 -0.17796801
0001a0 aa 96 c7 3e 29 ce ab c1 af 84 5c bf c6 22 0e c1
       0.38982135 -21.475664 -0.8613996 -8.88349
0001b0 51 c4 e3 bd 8f 8d b5 c0 57 d6 4c bf 2e 0a c3 c0
       -0.11121429 -5.67353 -0.80014557 -6.0949926
0001c0 56 81 df be a4 1c 92 c0 e5 1a f8 3e 88 a6 18 bf
       -0.43653363 -4.565996 0.4845802 -0.59629107
0001d0 e4 4d 51 bf 30 cb f5 c0 8f 49 d3 3d 86 bb 2b 3e
       -0.81759477 -7.681053 0.103167646 0.16770753
0001e0 6b 5c 02 bf 1d 05 0e c1 af 1c 03 bf 3d b0 a3 c0
       -0.5092227 -8.876248 -0.5121564 -5.1152635
0001f0 11 3a 98 bf 85 4b be c0 64 e6 da be 4d 96 13 c1
       -1.189272 -5.9467187 -0.427539 -9.224195
000200 21 e0 23 bf 68 8c 0f c1 b0 05 1a be b5 c6 1a 3e
       -0.6401387 -8.971779 -0.15041232 0.15114863
000210 89 46 2a bf 5b 0d 11 c1 10 22 bb 3e e5 3a ce c0
       -0.6651388 -9.065761 0.36549425 -6.4446893
000220 5d fd a0 3c 86 dc 79 bd b2 a5 11 bc 14 77 94 c0
       0.019652063 -0.061001323 -0.0088896025 -4.639536
000230 73 13 13 40 e9 35 51 41 d2 d8 90 3f f4 83 12 40
       2.298062 13.075662 1.1316168 2.2893038
000240 5b 46 8b bf c9 7b e6 c0 97 83 f6 3e c2 33 96 bb
       -1.0880846 -7.2026105 0.4814727 -0.0045838067
000250 0c e2 5d bf e9 ca fe c0 64 bb 6e bf de 06 04 c1
       -0.86673045 -7.9622693 -0.93254685 -8.251677
000260 cb 29 33 bf 5b 91 ec c0 b7 36 37 bf 14 1b 18 c1
       -0.69985646 -7.3927436 -0.71567863 -9.506611
000270 18 ff d3 3e bf 30 e1 c0 db 7e 8a bf 91 07 fe c0
       0.4140556 -7.0372005 -1.0819963 -7.9384236
000280 e6 77 0b be d4 2a 0e be 67 93 a8 bf 13 18 cc c0
       -0.13619956 -0.13883525 -1.3169984 -6.3779387
000290 43 9b e2 bd 88 d2 15 3c 0f 77 a4 be 33 61 88 3e
       -0.1106477 0.009144433 -0.32122084 0.26636657
0002a0 02 24 ea be bf f3 99 c0 f2 51 06 3f e5 39 b0 c0
       -0.45730597 -4.811004 0.5246879 -5.507067
0002b0 64 6f 21 3f 42 68 7e 3e 68 08 3d c0 46 dc 0b c1
       0.63060594 0.24844459 -2.953638 -8.741278
0002c0 ea 1b a7 bd d5 9d a1 be 60 a5 59 bf b8 b4 02 c1
       -0.08159621 -0.3156573 -0.8501797 -8.169121
0002d0 e6 64 9b 3d 61 99 17 be a8 44 01 3f 4a 1f 4a 3e
       0.07587604 -0.14804603 0.50495386 0.19738498
0002e0 09 ef a6 be fa 9a 06 c1 4e 1f 2e be 04 47 18 be
       -0.32604244 -8.412836 -0.1700413 -0.1487084
0002f0 66 c0 0b bf e3 94 bf 3e bb 53 0a 3f 97 ee ec 3e
       -0.5459045 0.3741828 0.5403401 0.4627578
000300 70 b3 5e bf 9f ce dd c0 a2 36 ff be eb 4b c7 be
       -0.8699255 -6.9314723 -0.4984637 -0.38925108
000310 b2 1a 27 c0 84 c4 21 c1 86 cc 4f bf fa d6 d4 c0
       -2.6110044 -10.110477 -0.81171453 -6.6512423
000320 42 af f3 3c e3 60 e9 3e e7 99 61 bf 3a 06 04 c1
       0.029746655 0.4558173 -0.8812546 -8.25152
000330 79 ca 2b c0 0f 2f 0f c1 e6 23 82 be 11 b0 18 3f
       -2.684233 -8.948989 -0.25418013 0.59643656
000340 ec 28 a6 be d6 4f 0e c1 48 7b ac bb 01 23 0f be
       -0.32453096 -8.894491 -0.0052637197 -0.13978197
000350 d6 b1 b5 3d d6 56 25 be 4e 57 cb bd a2 dd b3 c0
       0.0887181 -0.16146407 -0.099287614 -5.620805
000360 ac dd 91 bf 18 c6 d5 c0 ba 85 0b 3f 6e 87 c7 c0
       -1.1395774 -6.6804314 0.54500926 -6.235282
000370 13 f9 4f bd 43 12 33 3f 23 c8 82 3e b4 01 a4 3c
       -0.050774645 0.6994974 0.25543317 0.020020343
000380 ca 33 94 be 6b fe 9b c0 de 18 7d bf 92 eb df c0
       -0.28945762 -4.874807 -0.9886607 -6.997506
000390 13 5b 9d be 58 e2 b6 c0 ff 71 fd 3b 5d 4e 15 3f
       -0.30733547 -5.71513 0.0077345367 0.583227
0003a0 0a bf 8f 3d 72 84 1d 3f 08 8f 4e bf 1d 2b 05 c1
       0.0701886 0.6153022 -0.80687 -8.323026
0003b0 36 60 a2 3e 78 ec ff be 95 18 96 be 1b 9c 54 3e
       0.31714028 -0.499851 -0.2931563 0.20762675
0003c0 00 ab 56 3e ff cb b5 c0 8c 17 69 be f2 5e 94 3a
       0.20963669 -5.681152 -0.22762889 0.00113198
0003d0 a6 c2 2c bf 8d cc 10 c1 9c df 02 3f 5f b0 15 bf
       -0.6748451 -9.049939 0.5112245 -0.58472246
0003e0 88 bc 17 bf 53 5f 15 c1 0d ad be be 73 67 bf 3d
       -0.5927205 -9.3357725 -0.37241402 0.09345903
0003f0 d8 84 b6 3e 62 c2 ce c0 b2 f0 d6 be 5d e5 85 be
       0.35648227 -6.4612284 -0.4198051 -0.26151553

linear.bias f4 [512]
000000 c8 ee 4a bd cf e3 21 3f ff be d0 be f1 8a bb 3e
       -0.049544126 0.63238233 -0.40770718 0.3662944
000010 e5 96 75 be 1e 59 36 3f 23 f9 22 3f 2f 86 c9 3e
       -0.23983343 0.7122973 0.636614 0.39360186
000020 b4 21 95 3e 67 36 a7 3e 8c 60 99 3e de 87 b5 3e
       0.29127276 0.32658693 0.29956472 0.3545522
000030 95 45 0a bf 46 f1 b6 3f 72 92 16 bf f1 03 24 3f
       -0.54012424 1.4292381 -0.5881721 0.64068514
000040 5b 2f 27 3f 52 0e 56 3f 44 dc af 3e 2b 67 cf be
       0.65306634 0.836156 0.34347737 -0.40508398
000050 9d 6c a3 3e e0 9e b1 3e 8d 67 17 3f 81 b7 09 3f
       0.31918803 0.34691525 0.5914238 0.5379563
000060 10 62 2e bf b7 1f 52 3f 5f 26 09 bf b8 02 a0 be
       -0.6811838 0.82079643 -0.53574175 -0.31252074
000070 82 41 a5 3e 00 65 13 3f 7b 1a 1f bf 51 99 d8 3e
       0.3227654 0.5757599 -0.6214978 0.4230447
000080 c3 77 3d 3f c9 bf a4 3e 31 90 69 3f cd 9b af 3e
       0.74010867 0.3217757 0.91235644 0.34298554
000090 44 b7 c7 be 8a 68 83 3f 8f 2b a5 3e b7 de 62 3f
       -0.39007008 1.0266278 0.32259795 0.88621086
0000a0 e8 3a 02 3f f9 73 e8 be 0e be a9 bd b5 71 2a bf
       0.50871134 -0.4540098 -0.08288203 -0.66579753
0000b0 25 1d a5 3e 0f d0 57 3f 0f 6a ae 3e 05 e0 f4 3e
       0.32248798 0.8430185 0.3406529 0.47827163
0000c0 2d a1 06 3f 9f cb 4c 3e af 70 86 3f d4 fe 33 bf
       0.52589685 0.1999955 1.0503138 -0.7031071
0000d0 3a 33 f1 3e 80 19 c8 3e 12 80 3d 3f 38 11 c2 3e
       0.47109395 0.39081955 0.74023545 0.37903762
0000e0 0a b8 19 3f 3c b0 04 bf ad b9 bc 3e 61 d2 a1 bd
       0.60046446 -0.5183141 0.3686041 -0.07901455
0000f0 bb 6c 96 3e 75 b1 35 3f 12 8e 14 3f 8d 0f a9 3e
       0.2937983 0.709739 0.5802928 0.33019677
000100 9d d3 a6 3e 41 10 e3 be 17 d0 a6 3e bf 09 20 3f
       0.32583323 -0.44348338 0.32580635 0.6251487
000110 1f 2d 91 be ec ab 39 3f e5 a1 cb 3f 75 48 ad 3f
       -0.28354737 0.72527957 1.5908781 1.3537737
000120 c0 44 f5 3e 7d 1d 26 bf c5 3e c8 3e e1 87 d6 3e
       0.47904015 -0.64888746 0.3911039 0.41900542
000130 e9 e3 a4 3e c6 63 ac 3e a6 fc 30 3f a3 5f f4 3e
       0.32205132 0.3366987 0.6913551 0.47729215
000140 d4 5f f5 be 96 13 14 3f 09 fd 0d bf 0a 1b 1a bf
       -0.47924674 0.57842386 -0.55464226 -0.6019751
000150 fd 00 2d 3f cd 22 21 3f c1 f3 ac be 32 7c 69 3f
       0.67579633 0.62943727 -0.3377972 0.9120513
000160 82 28 8c be 5b 09 c3 3e 40 8d 27 bf a2 da 2f bf
       -0.27374655 0.38093075 -0.65449905 -0.6869298
000170 c8 09 9a 3e 36 68 02 bf c7 ec 27 bf 35 49 96 be
       0.30085588 -0.50940263 -0.6559567 -0.29352728
000180 0d f6 c8 3e 43 7e 24 bf dc a6 4b 3f 83 ce c5 3e
       0.39250222 -0.6425516 0.7955148 0.38634118
000190 34 b2 2a bf 94 73 cb 3e 41 83 51 3f 8d fa fa be
       -0.66678166 0.39736617 0.818409 -0.4901928
0001a0 41 33 b1 3e 26 54 0b bf c2 2e 09 bf ce 75 1c 3f
       0.34609416 -0.54425275 -0.5358697 0.61117256
0001b0 74 85 00 3f 63 55 64 3f e8 8a 41 be c1 de ae be
       0.50203633 0.8919279 -0.18900645 -0.34154323
0001c0 fd 71 19 3f 69 e9 e2 3e 6b 52 35 3f 4a 4f 34 bf
       0.5993956 0.44318703 0.70828885 -0.70433486
0001d0 42 27 8c bd 89 f9 ba 3e 59 5e c7 be 30 4a bb be
       -0.06843425 0.36518505 -0.3893917 -0.36580038
0001e0 01 0b ee 3e 36 73 2d bf a7 4a a3 3e 89 24 0c bf
       0.4649277 -0.6775392 0.31892893 -0.5474325
0001f0 35 81 a2 3e 63 c7 1a bf 6a 2d 20 3f db 5b 2b bf
       0.31739202 -0.6046049 0.62569296 -0.66937035
000200 48 df 0e 3f ed 83 c5 3e 37 48 30 3f 2f 06 1b bf
       0.5580945 0.38577214 0.6886019 -0.6055631
000210 a9 7d a1 be 66 d2 5b 3f 67 3c a5 3f 32 be fd 3e
       -0.31541184 0.8586792 1.2909058 0.4955917
000220 18 b7 0c 3f 47 36 a9 3e d9 da b7 be 5e a5 55 3f
       0.5496688 0.33049223 -0.35909155 0.83455455
000230 37 a9 af 3e a1 2a 0d 3f d4 65 ab 3e c3 4d b2 3e
       0.34308788 0.5514317 0.33476126 0.34824952
000240 32 c0 94 be de 8e 48 3f dd 46 70 be bd ae 3a 3f
       -0.29052883 0.78343 -0.23464532 0.7292288
000250 9e c3 01 bf ab f2 00 bf 50 47 a7 3e f4 7c c1 3e
       -0.50689113 -0.5037028 0.32671595 0.37790644
000260 99 81 b1 3e b5 08 a8 3e d1 4d 2e be 0e 1d cc 3e
       0.34669188 0.32819143 -0.17021872 0.39865917
000270 50 ec 01 be 68 bd 91 be 9a ed 43 3f b9 34 30 bf
       -0.12687802 -0.28464818 0.76534426 -0.6883045
000280 fb ed e6 be b2 25 4f 3f 89 1f f4 3e 07 b7 55 3f
       -0.4510344 0.80916893 0.4768031 0.834824
000290 0d 6c 4e 3f 6c 5a ec 3f bb 52 72 3f af 2c 0c 3f
       0.8063362 1.8465095 0.94657487 0.5475568
0002a0 6c b1 10 3f 34 f3 7c 3f 21 d1 98 3e 4c 40 f3 be
       0.56520724 0.988086 0.29847053 -0.47509992
0002b0 72 60 13 3f f3 4b 78 be 84 c9 04 3f 6e d7 aa 3e
       0.5756904 -0.24247722 0.5186999 0.33367485
0002c0 0e e2 c6 3e 60 75 5e 3f 56 e4 53 3f 47 bd 24 bf
       0.3884434 0.8689785 0.8277029 -0.64351314
0002d0 ee 43 16 3f 3b 34 ec 3e 58 df e6 be 73 c8 4e 3f
       0.586974 0.461336 -0.45092273 0.8077461
0002e0 05 e9 c4 3e e2 56 2a 3f 5c 1e a8 3e 2b f0 f1 3e
       0.3845903 0.6653882 0.32835662 0.47253546
0002f0 17 30 1f 3f f2 e4 1d bf 72 c8 28 bf 1c 71 32 bf
       0.62182754 -0.6167747 -0.65930855 -0.6970384
000300 91 ad 13 3f ab 45 21 3f ca da e0 be 52 bb a2 3e
       0.57686716 0.6299693 -0.43916923 0.3178354
000310 0f e4 14 3f b4 62 0e 3f 21 40 09 3f d6 ec 0d 3f
       0.5816049 0.5561936 0.5361348 0.5543951
000320 af 6d a9 3e 2c 61 12 3f 0f d4 f5 be 9f 0a 74 3f
       0.33091494 0.5717952 -0.4801335 0.95328707
000330 91 e9 1a 3f 7a 9a 36 3f 11 3f 5d 3f 1b 63 56 3f
       0.60512644 0.7132946 0.86424357 0.8374497
000340 dd b9 8e be 5c cf 4a be e6 cb a4 3e 72 d0 0d bf
       -0.27876177 -0.19805664 0.32186812 -0.5539619
000350 30 e1 a8 3e 1d eb af 3e 3e 7d 08 3f 10 3c 1d bf
       0.32984304 0.34359065 0.53316104 -0.61419773
000360 5b 63 16 bf e7 5d 04 3f 4c 3a b3 3e 97 7c 28 bf
       -0.58745354 0.51705784 0.35005414 -0.6581511
000370 23 d6 ee 3e f9 a0 25 bf 15 4f 0c 3f bc 46 30 3f
       0.46647748 -0.6469875 0.5480817 0.6885793
000380 3c 4b 40 3f d6 e0 6d 3f ad 8e 50 3f 7b 71 55 3f
       0.751148 0.929212 0.81467706 0.8337628
000390 aa 95 b9 3e 8f 75 22 3f 13 e3 17 3f 27 06 b1 3e
       0.36246997 0.6346063 0.5933086 0.34575006
0003a0 82 3b 3a 3f 4c 90 32 bf 84 67 13 3f ef 60 64 3f
       0.7274705 -0.6975143 0.5757983 0.8921041
0003b0 fc 69 28 bf 1f e6 af 3e 02 47 3c 3f 26 a8 03 bf
       -0.6578672 0.34355256 0.7354585 -0.5142845
0003c0 96 66 ff 3e 04 a2 28 3f 06 df b2 3e bb 9a 89 3f
       0.49882954 0.65872216 0.34935778 1.0750345
0003d0 77 5e 49 3f 94 49 56 3f 88 47 a8 3e b9 0f 4f 3f
       0.78659767 0.8370602 0.32867074 0.80883366
0003e0 e6 f5 29 3f df 5d c3 be 55 40 ee 3e 93 17 57 be
       0.66390836 -0.38157555 0.46533456 -0.21005087
0003f0 91 68 59 3f 7a 35 07 3f d5 5e 2d 3f 49 00 31 3f
       0.8492518 0.52815974 0.6772283 0.6914106

linear2.weight f4 [3, 512]
000000 a7 c2 70 bc 5e da 1f 40 ae 24 a0 3c 5d cc 31 bf
       -0.014694846 2.497703 0.01954874 -0.6945246
000010 a4 7b 2c 3d c7 37 31 bf 91 89 0d bf c1 2b 22 bf
       0.0421101 -0.69225734 -0.55288035 -0.63348013
000020 24 e2 80 bf 48 3a 0c bf 35 29 3a bf ce 5d 3c bf
       -1.0069013 -0.5477643 -0.72719127 -0.73580635
000030 cf 9e c6 bc b3 e0 e9 bd fe ab 9c bc 08 c6 03 bf
       -0.024245648 -0.11419811 -0.019124981 -0.51474047
000040 99 82 00 40 91 41 1c bf 59 34 35 bf 99 fc 34 3c
       2.007971 -0.61037546 -0.70783 0.011046552
000050 23 f3 36 bf e0 df 82 bf b2 40 22 bf 04 2a bf bf
       -0.7146475 -1.0224571 -0.6337997 -1.4934697
000060 44 98 14 3c 1d 5c 35 bf ea a8 1b 41 6d 10 31 bd
       0.009069506 -0.7084368 9.728739 -0.043228555
000070 2a 2e 34 bf 61 c4 29 bf 21 c4 f1 bb 72 45 3e bf
       -0.7038294 -0.66315275 -0.0073781167 -0.74324715
000080 45 e2 80 bf 99 8b 2b bf 7a 1e 2d bf a9 21 16 bf
       -1.0069052 -0.67009884 -0.6762463 -0.5864511
000090 36 b7 07 3d cc 7e 1c bf ba 8b 48 bf b8 a6 49 bf
       0.033133708 -0.61130977 -0.78338206 -0.7877002
0000a0 73 5f 00 40 82 7c ed bc 25 33 91 3b 89 db 93 3c
       2.0058258 -0.028990034 0.0044311457 0.018049018
0000b0 03 ba 47 bf 40 68 20 bf c1 d9 83 bf 3d cb 19 bf
       -0.78018206 -0.6265907 -1.0300828 -0.6007574
0000c0 75 67 a2 bf 4b 51 37 40 7a 1a 37 bf 7e ce 90 3c
       -1.2687823 2.8643367 -0.71524775 0.017676588
0000d0 36 bb 8d 40 a9 69 31 bf 44 43 32 bf af bc 2d bf
       4.429103 -0.6930185 -0.6963389 -0.67866033
0000e0 9c 8c 0e bf 12 10 49 bb 31 64 20 bf 19 c7 5a 39
       -0.556833 -0.0030679745 -0.6265288 0.0002086427
0000f0 27 e4 5e bf e3 ee 10 bf 79 47 19 bf 61 48 55 bf
       -0.8706688 -0.5661451 -0.59874684 -0.83313566
000100 12 c1 3a bf ab 1e 15 3d 56 43 21 bf f4 c7 b2 bf
       -0.7295085 0.0364062 -0.6299337 -1.3967271
000110 27 f8 13 3b 74 9b 2b bf e7 a4 38 40 83 e5 b2 be
       0.002257833 -0.6703408 2.8850648 -0.3494073
000120 1f 5d 2a bf 23 27 06 3c 46 61 30 bf 30 37 24 bf
       -0.6654834 0.008188042 -0.6889843 -0.6414671
000130 a0 e6 44 bf 06 4c 71 bf a4 94 a0 bf cf 31 29 bf
       -0.76914406 -0.9425663 -1.2545362 -0.66091627
000140 b5 2f c4 3c 77 f0 1a bf a8 9d 0c bd 07 75 28 b9
       0.02394853 -0.6052317 -0.03433004 -0.00016065325
000150 f6 68 0c bf 2f a0 ca bf bb 08 00 bd 6d e4 e2 3f
       -0.5484766 -1.5830134 -0.031258326 1.772596
000160 a1 5e 07 3d 22 fc 88 bf 31 ce fa 3c 18 5f 8b 3c
       0.03304923 -1.0701945 0.030615898 0.017013118
000170 ca 61 41 bf 3b c9 ef 3c 67 26 29 bc a6 17 b8 bb
       -0.7553984 0.029270759 -0.010324097 -0.0056180535
000180 c9 a2 20 bf b6 82 85 b7 e2 4c c8 3f e7 73 3a bf
       -0.6274839 -1.5915703e-05 1.5648463 -0.728331
000190 b4 7a ca 3c 96 c0 22 bf 63 70 c9 3f 20 00 f1 3b
       0.024716713 -0.6357511 1.5737423 0.007354751
0001a0 83 52 6b bf 2b 33 26 bd ef 6a 02 bd cb bb 50 bf
       -0.9192278 -0.04057614 -0.03184026 -0.8153655
0001b0 c8 76 18 bf 43 73 77 bf be b4 a6 bc 29 02 75 3c
       -0.59556246 -0.9666025 -0.020349856 0.014954128
0001c0 3f 3f 22 bf 47 ff 31 bf e9 f0 25 bf e3 93 04 3c
       -0.63377756 -0.6953015 -0.64820725 0.0080919
0001d0 9c a1 01 bd b4 8d 81 bf bc bf a9 3c 95 a4 09 3d
       -0.031648263 -1.0121369 0.020721309 0.033604223
0001e0 e7 3a 8a bf ba d8 b5 bc e0 f5 66 bf ea 90 fc 3b
       -1.0799226 -0.02219807 -0.90218925 0.007707705
0001f0 31 aa 2a bf 09 9e ea bc f4 59 c3 bf 30 05 e0 3c
       -0.6666594 -0.02863981 -1.5261827 0.027346224
000200 c9 69 3f 40 42 1c 2a bf 80 56 02 bf 36 39 2d 3d
       2.9908316 -0.6644937 -0.5091324 0.04229089
000210 f8 fb 00 3d 15 c4 09 bf e4 53 76 bf 00 b6 1d bf
       0.031490296 -0.5381482 -0.96221757 -0.61605835
000220 4e 16 8b 40 55 ae 29 bf 32 15 41 3c 7d 6b 1d bf
       4.3464727 -0.66281635 0.0117848385 -0.6149214
000230 fa e7 2b bf cf 25 18 40 7c db 89 bf 09 5d 3f bf
       -0.67150843 2.3773077 -1.0770106 -0.74751335
000240 55 00 28 bd 27 f3 e6 40 c4 85 a2 bc 0a 70 45 bf
       -0.04101594 7.2171817 -0.019839175 -0.77124083
000250 30 8b 9c bb d9 f1 f3 bc 4b 0f 37 bf 05 b7 28 bf
       -0.0047773346 -0.029778408 -0.7150771 -0.65904266
000260 f6 d7 55 bf eb 1b 73 bf 9b 01 04 3d ff 4c 3a 40
       -0.83532655 -0.94964474 0.032228094 2.9109495
000270 28 c2 a0 3c 90 cc ca bc a8 49 06 bf 86 d9 2f 3d
       0.01962383 -0.024755746 -0.5245614 0.042932056
000280 3d 11 2c 3c b3 4a e1 3f c1 e9 9d bf 80 a9 50 bf
       0.010502157 1.7600921 -1.2336961 -0.81508636
000290 3a 78 6e bf d8 ed e7 40 b1 37 91 bf 2e 01 20 bf
       -0.931522 7.2477837 -1.1345121 -0.625018
0002a0 c5 b3 c5 bf f4 f3 26 bf 11 7c 47 bf ed b6 03 bd
       -1.5445486 -0.6521599 -0.77923685 -0.032156873
0002b0 dc 01 fe be 35 d4 a0 3c 41 df 15 bf 57 59 3f bf
       -0.49610794 0.019632438 -0.58543783 -0.74745697
0002c0 95 1f 2f bf 00 8b 2b bf 84 df fd be f9 57 06 3c
       -0.68407565 -0.6700897 -0.4958459 0.008199685
0002d0 08 9b 30 40 1b c5 c5 3f 71 d3 11 3d 65 5c 9a bf
       2.7594624 1.5450777 0.035602037 -1.2059447
0002e0 90 02 23 bf 87 90 b0 40 6c e0 08 bf 9c 81 21 40
       -0.63675785 5.5176425 -0.5346744 2.5235357
0002f0 01 2f c9 bf 07 3a 0f 3c 46 4e 21 3d 10 50 d8 bc
       -1.571747 0.008741862 0.039381288 -0.026405364
000300 b4 3d 48 bf c2 69 73 bf f5 61 e3 3b ee e2 55 bf
       -0.7821915 -0.9508325 0.0069391676 -0.8354939
000310 77 85 15 bf 2e f2 00 bf f6 cd 9e bf 3e 9f 16 bf
       -0.58406776 -0.50369537 -1.2406604 -0.58836734
000320 09 ca 83 bf a9 bb 12 bf 41 a7 19 3d 95 fb 94 bf
       -1.0296031 -0.57317597 0.03751302 -1.1639277
000330 83 b3 27 bf cb 7c ea 3f 20 c6 71 bf 24 f0 0b bf
       -0.6550829 1.8319334 -0.9444294 -0.546633
000340 55 2b 46 bc 71 0a 3f bc 4f 16 28 bf 56 be b0 bc
       -0.012095292 -0.011660204 -0.6565904 -0.021575134
000350 ec c3 6e bf 9c cb 32 bf 0d 35 22 bf 1d b2 08 3d
       -0.93267703 -0.69841933 -0.633622 0.033372987
000360 f7 2a 05 3d c8 42 2d bf c1 0f 46 bf 09 fb 50 bc
       0.032511678 -0.67680025 -0.7736779 -0.012755164
000370 cc 57 11 40 7d a7 fe bb 28 e2 d3 3f 74 65 d4 3f
       2.2709837 -0.007771431 1.6553392 1.6593461
000380 b2 b5 5f bf 7a 3b 01 40 ec 60 9a bf 79 b0 eb be
       -0.8738662 2.0192552 -1.2060828 -0.46033075
000390 93 5d 2e bf 17 e3 05 40 1f 8d 17 bf 08 4e 36 bf
       -0.6811153 2.0919855 -0.5919971 -0.71212816
0003a0 e6 07 50 bf fb 46 b8 bc 58 3c 1e bf c0 e5 01 bf
       -0.8126205 -0.022494784 -0.6181083 -0.50741196
0003b0 87 be 62 bc 57 6c 66 bf 27 45 ed be 90 ab 18 3d
       -0.013839371 -0.90009063 -0.46341822 0.03727299
0003c0 b7 42 29 bf b1 4e 0a bf 5f 28 2f bf f3 be 0f bf
       -0.66117424 -0.54026324 -0.68420976 -0.5615074
0003d0 55 d0 37 bf 13 39 17 bf ad 9e 74 bf 52 a4 86 bf
       -0.71802264 -0.59071463 -0.9555462 -1.0518897
0003e0 9d ba f7 3f fa da d1 bc 92 a4 1f bf 9d 4b 17 bd
       1.9353825 -0.025617111 -0.6236049 -0.036937345
0003f0 ed 0c 8a bf fc 50 72 bf d9 7e 19 bf 6b 46 0d bf
       -1.0785195 -0.9465482 -0.5995918 -0.55185574

linear2.bias f4 [3]
000000 d6 9f c2 be 8d 4d b8 bd c2 fa 22 bd
       -0.3801257 -0.08999167 -0.039789923
