Reinforcement_Learning/exp2/pretrained_model/2_DDQN_DuelingDQN/320000.pth (torch, 16335 bytes, 5 tensors)

linear.weight f4 [512, 2]
-0.005293981 0.3793229 -0.5524779 -0.50091773 -0.27234524 0.18961589 -0.3354184 -2.7115698
-0.06275152 0.18710934 -0.4997331 -3.3349376 -0.83250374 -3.0844576 -0.5878957 -7.959067
-1.3034929 2.6468318 -0.5411704 -9.056957 0.32194406 11.261598 -0.5406697 -7.1336412
-0.11397384 0.07482187 0.8915806 11.001988 -0.44515052 -0.17901486 -0.59457767 -2.5542965
-1.4650347 -12.897805 -0.6605667 -3.358443 -0.57291853 -7.4309735 0.31552404 0.34271523
-0.19262642 -3.290117 -0.42491993 -8.509013 -0.78103644 -3.2462516 0.20145924 -2.2700589
-0.31359833 -0.0255141 0.26422074 -1.7569873 0.26594096 0.08748803 0.47410542 -0.41634613
-0.01739473 -3.2527452 -1.0915728 -7.099188 0.31994677 0.28437033 -0.63480765 -7.8945484
0.3847055 -2.4500425 -0.20810103 -3.0103052 0.39226484 -0.5213806 -0.68123025 -7.986652
0.27789995 0.5858729 0.40788633 -1.3296708 -0.09288262 -3.7455337 -0.11600706 -2.999959
-1.5357926 -7.7993693 0.53765553 -0.70535874 0.13235062 -0.11911921 -0.1163623 -0.323683
0.0654485 -3.3480632 0.25221017 -1.3012006 1.5594915 1.0213141 -0.84239894 -8.664169
0.18918705 -2.6282887 0.29973653 -14.225989 0.55840665 -1.6962042 -0.30831632 -0.17796801
-1.1847556 -16.14125 -0.52531105 -8.984942 -0.16866057 -2.4685209 -0.55795014 -7.506537
-1.1429982 -5.4649415 0.4845802 -0.59629107 -0.6419231 -7.747587 0.103167646 0.16770753
1.701298 1.1638258 -0.6574398 -2.7567813 -1.2278557 -7.1847906 -0.41849405 -8.710126
-0.51558757 -8.941076 -0.15041232 0.15114863 -0.5757151 -7.586121 0.89365125 -1.9792956
0.019652063 -0.061001323 -0.14297757 -2.4277904 0.6921957 4.162916 -0.04891686 3.5386016
-0.6339095 -8.853387 0.4814727 -0.0045838067 -0.52748626 -8.852848 -0.84168124 -8.6698675
-0.38825157 -7.859705 0.80633694 11.303676 0.28608072 -3.0644982 -0.3291516 -2.968023
-0.13619956 -0.13883525 -1.0674205 -7.851626 -0.1106477 0.009144433 -0.32122084 0.26636657
-1.1412609 -6.970716 0.41939905 -2.4030025 0.63058305 0.24819276 -1.1882395 -15.474806
-0.08159621 -0.3156573 0.31244582 -3.2047899 0.07587604 -0.14804603 0.50495386 0.19738498
-0.045794807 -2.980953 -0.1700413 -0.1487084 -1.2241757 -14.666893 0.53785855 0.44867256
-0.637816 -8.361233 -0.4984637 -0.38925108 -0.19610056 -16.724386 -0.49620372 -8.347149
0.029746655 0.4558173 -0.63514894 -9.087172 1.5291765 -7.740281 -0.25418013 0.59643656
0.050507948 -2.8882895 -0.0052637197 -0.13978197 0.0887181 -0.16146407 -0.31094822 -2.9490883
-0.9320792 -7.8318124 0.4935484 -2.9658508 -0.050774645 0.6994974 0.25543317 0.020020343
-0.9560538 -7.133865 -0.8189014 -7.8724585 -0.4191193 -2.8102853 0.0077345367 0.583227
-1.2173944 4.6449723 0.40221408 -2.751719 0.31714028 -0.499851 -0.29186285 0.2067357
0.22451437 -2.1132977 -0.22762889 0.00113198 0.13686505 -3.4894729 0.5112245 -0.58472246
-0.21831511 -2.926502 -0.37241402 0.09345903 1.4462494 -2.1146443 -0.4198051 -0.26151553
00000000: 2279 adbb 9c36 c23e 316f 0dbf 253c 00bf
00000010: d670 8bbe ab2a 423e f6bb abbe 5c8a 2dc0
00000020: de83 80bd 9799 3f3e 04dd ffbe 9e6f 55c0
00000030: f71e 55bf c167 45c0 5580 16bf adb0 fec0
00000040: dbd8 a6bf b165 2940 258a 0abf 4ce9 10c1
00000050: dad5 a43e 812f 3441 5469 0abf ca46 e4c0
00000060: 1e6b e9bd 353c 993d a03e 643f 2508 3041
00000070: c5ea e3be ac4f 37be 3e36 18bf 9879 23c0
00000080: 4286 bbbf 695d 4ec1 e61a 29bf bbf0 56c0
00000090: caaa 12bf 89ca edc0 5e8c a13e 5f78 af3e
000000a0: dc3f 45be 4791 52c0 1b8f d9be eb24 08c1
000000b0: 01f2 47bf 96c2 4fc0 554b 4e3e a548 11c0
000000c0: f68f a0be f202 d1bc f147 873e f6e4 e0bf
000000d0: 6a29 883e ed2c b33d f2bd f23e 522b d5be
000000e0: 657f 8ebc fa2c 50c0 a8b8 8bbf 8c2c e3c0
000000f0: 10d0 a33e fd98 913e c182 22bf 24a0 fcc0
00000100: 1ff8 c43e 7fcd 1cc0 7018 55be d7a8 40c0
00000110: f0d6 c83e 3379 05bf 1b65 2ebf a792 ffc0
00000120: e748 8e3e c4fb 153f 7ad6 d03e a732 aabf
00000130: 3e39 bebd d3b6 6fc0 1c95 edbd 54ff 3fc0
00000140: da94 c4bf 6f94 f9c0 cba3 093f 6492 34bf
00000150: ec86 073e c6f4 f3bd 5c4f eebd c7b9 a5be
00000160: dd09 863d ab46 56c0 b121 813e be8d a6bf
00000170: 6b9d c73f 6cba 823f 75a7 57bf 70a0 0ac1
00000180: 40ba 413e e235 28c0 1177 993e a79d 63c1
00000190: bdf3 0e3f 381d d9bf a3db 9dbe 3f3d 36be
000001a0: 12a6 97bf 4821 81c1 c97a 06bf 53c2 0fc1
000001b0: 5bb5 2cbe 3ffc 1dc0 d2d5 0ebf 8d35 f0c0
000001c0: c44d 92bf cde0 aec0 e51a f83e 88a6 18bf
000001d0: 1355 24bf 3cec f7c0 8f49 d33d 86bb 2b3e
000001e0: 22c4 d93f 3ef8 943f fa4d 28bf 1b6f 30c0
000001f0: 602a 9dbf cee9 e5c0 da44 d6be ad5c 0bc1
00000200: 8cfd 03bf a60e 0fc1 b005 1abe b5c6 1a3e
00000210: 1162 13bf 81c1 f2c0 54c6 643f 8f59 fdbf
00000220: 5dfd a03c 86dc 79bd b668 12be eb60 1bc0
00000230: bd33 313f 9c36 8540 0c5d 48bd 7378 6240
00000240: e547 22bf 79a7 0dc1 9783 f63e c233 96bb
00000250: 5709 07bf 44a5 0dc1 6c78 57bf c7b7 0ac1
00000260: e9c8 c6be b482 fbc0 196c 4e3f dbdb 3441
00000270: 2c79 923e bd20 44c0 8f86 a8be 17f4 3dc0
00000280: e677 0bbe d42a 0ebe 3ca1 88bf 8540 fbc0
00000290: 439b e2bd 88d2 153c 0f77 a4be 3361 883e
000002a0: d614 92bf 1b10 dfc0 79bb d63e cbca 19c0
000002b0: e46d 213f 3e26 7e3e 3b18 98bf ce98 77c1
000002c0: ea1b a7bd d59d a1be e6f8 9f3e 471b 4dc0
000002d0: e664 9b3d 6199 17be a844 013f 4a1f 4a3e
000002e0: 5693 3bbd efc7 3ec0 4e1f 2ebe 0447 18be
000002f0: cab1 9cbf 98ab 6ac1 19b1 093f 69b8 e53e
00000300: e947 23bf 9cc7 05c1 a236 ffbe eb4b c7be
00000310: 96ce 48be 8bcb 85c1 6a0e febe ec8d 05c1
00000320: 42af f33c e360 e93e 1f99 22bf 0e65 11c1
00000330: 0ebc c33f 62b0 f7c0 e623 82be 11b0 183f
00000340: 6ce1 4e3d bcd9 38c0 487b acbb 0123 0fbe
00000350: d6b1 b53d d656 25be 9b34 9fbe ddbd 3cc0
00000360: be9c 6ebf 359e fac0 60b2 fc3e 80d0 3dc0
00000370: 13f9 4fbd 4312 333f 23c8 823e b401 a43c
00000380: f1bf 74bf 9f48 e4c0 86a3 51bf 2eeb fbc0
00000390: ce96 d6be b7db 33c0 ff71 fd3b 5d4e 153f
000003a0: 94d3 9bbf 9da3 9440 01ef cd3e 2a1c 30c0
000003b0: 3660 a23e 78ec ffbe 0c6f 95be 86b2 533e
000003c0: 18e7 653e 4540 07c0 8c17 69be f25e 943a
000003d0: 5a26 0c3e 8653 5fc0 9cdf 023f 5fb0 15bf
000003e0: ff8d 5fbe cf4b 3bc0 0dad bebe 7367 bf3d
000003f0: b31e b93f 5556 07c0 b2f0 d6be 5de5 85be

linear.bias f4 [512]
-0.049544126 -0.69722337 -0.40770718 0.4057874 -0.23983343 0.5800155 0.72626436 0.28377566
-0.90402 0.28089708 -0.43222877 0.26013786 -0.54012424 -0.3201496 -0.5881721 0.5395459
0.47377744 0.7652403 0.27473533 -0.40508398 0.51295686 0.27549052 0.6438571 0.47459516
-0.6811838 0.5942378 -0.14843227 -0.31252074 0.6198426 0.47338724 -0.6214978 0.30028385
0.7149448 0.40847945 0.7833797 0.3221391 -0.39007008 0.8296693 0.43431842 0.8249732
0.027831566 -0.4540098 -0.08288203 -0.66579753 0.42674652 0.6370866 0.15639825 0.38544598
0.4850916 0.37816504 0.88240725 -0.7031071 0.43710157 0.27624077 0.71772164 0.26889518
0.5196282 -0.5183141 0.30235234 -0.07901455 0.17944425 0.612099 0.6181357 0.27300087
0.27238846 -0.44348338 0.27697188 0.79747206 -0.28354737 0.58058256 0.95569795 0.32991275
0.30754688 -0.64888746 0.2738607 0.386369 0.24280868 -0.2995008 0.7167705 0.6745287
-0.47924674 0.4696265 -0.55464226 -0.6019751 0.49792272 0.5688991 -0.33780858 0.42875174
-0.27374655 0.5167527 -0.65449905 -0.6869298 0.28175128 -0.50940263 0.43454957 -0.29529062
0.3063802 -0.6425516 0.08054051 0.2581813 -0.66678166 0.31008902 0.07012837 -0.4901928
0.39080328 -0.54425275 -0.5358697 0.537314 0.4178375 0.83384454 -0.18900645 -0.34154323
0.42346263 0.37328508 0.68041444 -0.70433486 -0.62638927 0.5681051 -0.3893917 -0.3671145
0.41188955 -0.6775392 0.41521922 -0.5474325 0.4695552 -0.6046049 0.50379527 -0.66937035
0.40383875 0.2700524 0.5881914 -0.6055631 -0.31541184 0.73096126 -0.38978413 0.3023587
-0.89047605 0.29184535 -0.35909155 0.7334946 0.4700168 0.5577388 0.22855186 0.2478331
-0.29052883 0.47025478 -0.23464532 0.59322494 -0.50689113 -0.5037028 0.2757161 0.2736958
0.33948433 0.25162974 -0.17021872 0.47847643 -0.12687802 -0.28464818 0.71068823 -0.6883045
-0.4510344 0.34476554 -0.86981016 0.6879875 0.7928668 0.3156815 0.7043084 0.5385247
0.7164562 0.77707964 0.26034755 -0.47509992 0.48703176 -0.24247722 0.42688552 0.2513112
0.41688207 0.7664716 0.7583271 -0.64351314 0.606647 0.40505424 -0.45092273 0.8526383
0.31493327 0.34264213 0.13165893 0.23039714 0.46448976 -0.6167747 -0.65930855 -0.6970384
0.4119196 0.49742717 -0.43916923 0.26275632 0.6882803 0.43064472 -0.28966486 0.3406882
-0.2079523 0.50074416 -0.4801335 0.8113502 0.5363924 0.360617 0.7925572 0.83120686
-0.27876177 -0.19805664 0.48557702 -0.5539619 0.44049668 0.27472115 0.55933505 -0.61419773
-0.58745354 0.4478306 0.43040386 -0.6581511 0.50889564 -0.6469875 0.5859273 0.26084164
0.6778132 -0.27084616 0.984618 0.76583856 0.42687503 0.42302388 0.5195311 0.4102243
0.68885547 -0.6975143 0.4660248 0.70229906 -0.6578672 0.33798823 0.5539959 -0.5142845
0.43269572 0.53693146 0.2530613 0.88485146 0.7079895 0.63165325 0.65250045 0.7703482
-0.9116394 -0.38157555 0.40072075 -0.21005087 0.87169874 0.47620845 0.5700697 0.5867679
00000000: c8ee 4abd 3b7d 32bf ffbe d0be 5ec3 cf3e
00000010: e596 75be e57b 143f 76ec 393f 0b4b 913e
00000020: db6d 67bf bed1 8f3e 174d ddbe ca30 853e
00000030: 9545 0abf a6ea a3be 7292 16bf ae1f 0a3f
00000040: f592 f23e cae6 433f 1caa 8c3e 2b67 cfbe
00000050: 2451 033f 180d 8d3e d2d3 243f 23fe f23e
00000060: 1062 2ebf f81f 183f a1fe 17be b802 a0be
00000070: 01ae 1e3f d05f f23e 7b1a 1fbf cebe 993e
00000080: 9f06 373f 3824 d13e 928b 483f 6bef a43e
00000090: 44b7 c7be 3565 543f fc5e de3e 7231 533f
000000a0: 06ff e33c f973 e8be 0ebe a9bd b571 2abf
000000b0: 857e da3e 1b18 233f dd26 203e 2d59 c53e
000000c0: ed5d f83e d99e c13e 71e5 613f d4fe 33bf
000000d0: c7cb df3e 6e6f 8d3e 9bbc 373f a1ac 893e
000000e0: 5b06 053f 3cb0 04bf edcd 9a3e 61d2 a1bd
000000f0: 3cc0 373e 85b2 1c3f 243e 1e3f c5c6 8b3e
00000100: 8076 8b3e 4110 e3be 42cf 8d3e 2127 4c3f
00000110: 1f2d 91be 0fa1 143f 9fa8 743f 53ea a83e
00000120: c976 9d3e 7d1d 26bf 7837 8c3e 28d2 c53e
00000130: d7a2 783e 2b58 99be 467e 373f eaad 2c3f
00000140: d45f f5be e272 f03e 09fd 0dbf 0a1b 1abf
00000150: baef fe3e 5fa3 113f 3ff5 acbe 5985 db3e
00000160: 8228 8cbe e849 043f 408d 27bf a2da 2fbf
00000170: b441 903e 3668 02bf 487d de3e 5530 97be
00000180: dedd 9c3e 437e 24bf 6cf2 a43d 5730 843e
00000190: 34b2 2abf fdc3 9e3e 769f 8f3d 8dfa fabe
000001a0: 5e17 c83e 2654 0bbf c22e 09bf 698d 093f
000001b0: ccee d53e d676 553f e88a 41be c1de aebe
000001c0: 18d0 d83e 391f bf3e a42f 2e3f 4a4f 34bf
000001d0: 0c5b 20bf 566f 113f 595e c7be 6ff6 bbbe
000001e0: 30e3 d23e 3673 2dbf 9d97 d43e 8924 0cbf
000001f0: 8a69 f03e 63c7 1abf baf8 003f db5b 2bbf
00000200: f4c3 ce3e 4f44 8a3e b693 163f 2f06 1bbf
00000210: a97d a1be 4720 3b3f c991 c7be c2ce 9a3e
00000220: 3df6 63bf c16c 953e d9da b7be 4dc6 3b3f
00000230: 0ba6 f03e f8c7 0e3f 8009 6a3e f6c7 7d3e
00000240: 32c0 94be 3cc5 f03e dd46 70be 97dd 173f
00000250: 9ec3 01bf abf2 00bf a92a 8d3e db21 8c3e
00000260: e4d0 ad3e 9dd5 803e d14d 2ebe ddfa f43e
00000270: 50ec 01be 68bd 91be aaef 353f b934 30bf
00000280: fbed e6be 1c85 b03e e1ab 5ebf f31f 303f
00000290: 52f9 4a3f 01a1 a13e 8e4d 343f c1dc 093f
000002a0: ac69 373f b1ee 463f 464c 853e 4c40 f3be
000002b0: 3a5c f93e f34b 78be bd90 da3e ddab 803e
000002c0: 9171 d53e 7c37 443f ba21 423f 47bd 24bf
000002d0: 384d 1b3f 4563 cf3e 58df e6be 8146 5a3f
000002e0: ef3e a13e ca6e af3e 99d1 063e 3aed 6b3e
000002f0: 9ad1 ed3e f2e4 1dbf 72c8 28bf 1c71 32bf
00000300: 20e7 d23e c6ae fe3e cada e0be ff87 863e
00000310: 2333 303f 777d dc3e f44e 94be af6e ae3e
00000320: 73f1 54be c530 003f 0fd4 f5be a6b4 4f3f
00000330: 0351 093f cba2 b83e 07e5 4a3f f9c9 543f
00000340: ddb9 8ebe 5ccf 4abe 8d9d f83e 72d0 0dbf
00000350: c888 e13e 40a8 8c3e 9530 0f3f 103c 1dbf
00000360: 5b63 16bf 0d4a e53e e55d dc3e 977c 28bf
00000370: fc46 023f f9a0 25bf 55ff 153f 098d 853e
00000380: 2a85 2d3f 59ac 8abe ed0f 7c3f ff0d 443f
00000390: 5d8f da3e 9696 d83e fdff 043f eb08 d23e
000003a0: d558 303f 4c90 32bf cd9a ee3e dfc9 333f
000003b0: fc69 28bf cb0c ad3e add2 0d3f 26a8 03bf
000003c0: 4b8a dd3e 5774 093f 4091 813e a085 623f
000003d0: cd3e 353f 07b4 213f 450a 273f 8a35 453f
000003e0: 3361 69bf df5d c3be 452b cd3e 9317 57be
000003f0: a627 5f3f 98d1 f33e 16f0 113f 6c36 163f

linear_action.weight f4 [3, 512]
-0.014694846 -0.010053617 0.01954874 -0.23827264 0.0421101 -0.21326186 -0.15490834 0.6328772
-0.75346446 0.7672994 9.703795 0.44310367 -0.024245648 -1.2312198 -0.019124981 -0.20574237
-0.9589959 -0.12741473 0.4820476 0.011046552 -0.19358784 0.75961745 -0.22185478 -0.13284208
0.009069506 -0.0106064025 -0.009083398 -0.043228555 -0.0747886 0.16724041 -0.0073781167 0.5310287
-0.009942016 -0.21428537 0.05774785 0.4298636 0.033133708 0.04859821 -0.23070857 -0.06959381
-1.3053756 -0.028990034 0.0044311457 0.018049018 -0.19793402 0.03478339 -0.62004954 0.56231445
-0.10080765 -3.493533 0.0510204 0.017676588 -0.87405896 0.73304844 -0.07382002 0.5801102
0.06476006 -0.0030679745 0.5018377 0.0002086427 -0.62544876 -0.19518687 0.11175539 0.8026375
0.86731195 0.0364062 0.5118018 0.22624777 0.002257833 -0.13264744 1.7427262 -0.81360394
0.6679946 0.008188042 0.7879893 0.54604304 0.65466726 -1.853504 -0.04627229 -0.112796396
0.02394853 0.42447603 -0.03433004 -0.00016065325 0.279926 0.20176163 -0.023408424 -0.82220596
0.03304923 -0.041842945 0.030615898 0.017013118 -0.39486814 0.029270759 -1.0584453 -0.0076643554
0.6583439 -1.5915703e-05 -3.2451143 0.6439384 0.024716713 0.76977587 1.5552887 0.007354751
-0.19065207 -0.04057614 -0.03184026 -0.21964431 0.520202 0.044425976 -0.020349856 0.014954128
0.36820695 0.46249142 -0.12739246 0.0080919 0.12898451 0.0061964695 0.020721309 0.033702485
-0.14196919 -0.02219807 -0.15491356 0.007707705 -0.22331204 -0.02863981 0.105291426 0.027346224
-0.9421107 0.8049378 -0.24948473 0.04229089 0.031490296 -0.12990503 5.6193113 0.59234995
2.1080582 0.79383534 0.0117848385 -0.13654949 -0.1522977 -0.21814233 0.7035229 0.80620825
-0.04101594 -0.18875705 -0.019839175 -0.18776673 -0.0047773346 -0.029778408 0.67138237 0.65279657
-0.32638216 0.61605746 0.032228094 -0.28528833 0.01962383 -0.024755746 -0.12918818 0.042932056
0.010502157 -1.5551249 0.55057955 0.02107039 -0.0030856228 -2.1261623 0.45890778 0.042057466
0.14837924 0.094228804 0.88882685 -0.032156873 -0.23776156 0.019632438 0.3441992 0.9612881
-0.25812584 -0.08298419 -0.118183896 0.008199685 1.0900881 -0.05310304 0.035602037 0.010414519
0.6581536 -1.0921026 -2.874664 -0.9574062 -0.18154916 0.008741862 0.039381288 -0.026405364
-0.17117205 -0.14126746 0.0069391676 0.644582 -0.13008036 0.372574 -1.8444242 0.4003887
-3.7334392 -0.0358069 0.03751302 0.369436 -0.24700874 -0.45055157 0.13688564 -0.16304366
-0.012095292 -0.011660204 -0.17998223 -0.021575134 -0.22288524 0.7529533 -0.2071245 0.033372987
0.032511678 0.30245122 -0.21166436 -0.012755164 -0.20088845 -0.007771431 -0.22953233 0.9303453
-0.10570993 -2.697754 0.43060526 -0.1952318 -0.18202665 -0.97771317 0.21783376 -0.18490832
-0.026487999 -0.022494784 0.28044042 -0.04358417 -0.013839371 -0.19090092 -0.22401701 0.03727299
0.390426 0.09573654 0.47969383 0.10892046 -0.048535854 -0.13294274 0.586051 0.05274024
-2.2805545 -0.025617111 0.30964443 -0.036937345 0.005920208 -0.14055346 -0.18944092 -0.13293476
00000000: a7c2 70bc edb7 24bc ae24 a03c befd 73be
00000010: a47b 2c3d 5161 5abe 4ba0 1ebe 3d04 223f
00000020: 0ce3 40bf bc6d 443f bf42 1b41 7cde e23e
00000030: cf9e c6bc 9c98 9dbf feab 9cbc 21ae 52be
00000040: c180 75bf 0279 02be f1ce f63e 99fc 343c
00000050: e43b 46be 4a76 423f e62d 63be c107 08be
00000060: 4498 143c 7ac6 2dbc 88d2 14bc 6d10 31bd
00000070: c42a 99bd 1241 2b3e 21c4 f1bb 7ff1 073f
00000080: d6e3 22bc a06d 5bbe 0289 6c3d 1517 dc3e
00000090: 36b7 073d eb0e 473d de3e 6cbe 3387 8ebd
000000a0: 8c16 a7bf 827c edbc 2533 913b 89db 933c
000000b0: 37af 4abe 0779 0e3d 91bb 1ebf d7f3 0f3f
000000c0: 3e74 cebd 0b96 5fc0 c4fa 503d 7ece 903c
000000d0: 54c2 5fbf 10a9 3b3f f32e 97bd 1a82 143f
000000e0: eca0 843d 1210 49bb 6f78 003f 19c7 5a39
000000f0: 691d 20bf 11df 47be 03e0 e43d a779 4d3f
00000100: 2808 5e3f ab1e 153d 7105 033f 7fad 673e
00000110: 27f8 133b bbd4 07be a711 df3f 5948 50bf
00000120: b201 2b3f 2327 063c abb9 493f 7ac9 0b3f
00000130: 4698 273f 9e3f edbf 0388 3dbd cc01 e7bd
00000140: b52f c43c ec54 d93e a89d 0cbd 0775 28b9
00000150: 7652 8f3e 9a9a 4e3e 06c3 bfbc 177c 52bf
00000160: a15e 073d 8263 2bbd 31ce fa3c 185f 8b3c
00000170: 282c cabe 3bc9 ef3c 237b 87bf 4625 fbbb
00000180: 3a89 283f b682 85b7 f4af 4fc0 26d9 243f
00000190: b47a ca3c 0810 453f b313 c73f 2000 f13b
000001a0: 4c3a 43be 2b33 26bd ef6a 02bd 70ea 60be
000001b0: f52b 053f 03f8 353d beb4 a6bc 2902 753c
000001c0: 9f85 bc3e adcb ec3e 2b73 02be e393 043c
000001d0: 8414 043e c10b cb3b bcbf a93c 9e0b 0a3d
000001e0: 5f60 11be bad8 b5bc a9a1 1ebe ea90 fc3b
000001f0: e9ab 64be 099e eabc 08a3 d73d 3005 e03c
00000200: 2b2e 71bf 6710 4e3f ed78 7fbe 3639 2d3d
00000210: f8fb 003d d305 05be 66d1 b340 3fa4 173f
00000220: 6dea 0640 cb38 4b3f 3215 413c a1d3 0bbe
00000230: eef3 1bbe b460 5fbe 141a 343f aa63 4e3f
00000240: 5500 28bd 8749 41be c485 a2bc ec45 40be
00000250: 308b 9cbb d9f1 f3bc b7df 2b3f ad1d 273f
00000260: 901b a7be f1b5 1d3f 9b01 043d 5011 92be
00000270: 28c2 a03c 90cc cabc e849 04be 86d9 2f3d
00000280: 3d11 2c3c 550e c7bf c8f2 0c3f cf9b ac3c
00000290: 2938 4abb 0b13 08c0 f6f5 ea3e 7344 2c3d
000002a0: baf0 173e 08fb c03d 288a 633f edb6 03bd
000002b0: c477 73be 35d4 a03c e13a b03e fa16 763f
000002c0: 1229 84be 9df3 a9bd 660a f2bd f957 063c
000002d0: 0288 8b3f 9382 59bd 71d3 113d a9a1 2a3c
000002e0: c17c 283f 05ca 8bbf 7ffa 37c0 9318 75bf
000002f0: 06e8 39be 073a 0f3c 464e 213d 1050 d8bc
00000300: ba47 2fbe 6ba8 10be f561 e33b 5303 253f
00000310: c933 05be 05c2 be3e 1816 ecbf bfff cc3e
00000320: abf0 6ec0 42aa 12bd 41a7 193d b726 bd3e
00000330: dcef 7cbe b2ae e6be c02b 0c3e ebf4 26be
00000340: 552b 46bc 710a 3fbc 434d 38be 56be b0bc
00000350: 073c 64be 8cc1 403f 7218 54be 1db2 083d
00000360: f72a 053d e3da 9a3e 8bbe 58be 09fb 50bc
00000370: b4b5 4dbe 7da7 febb 860a 6bbe 1c2b 6e3f
00000380: 737e d8bd 00a8 2cc0 4b78 dc3e d8ea 47be
00000390: 3265 3abe 694b 7abf d00f 5f3e 9b58 3dbe
000003a0: 5cfd d8bc fb46 b8bc e395 8f3e 5185 32bd
000003b0: 87be 62bc 887b 43be b764 65be 90ab 183d
000003c0: ebe5 c73e 8511 c43d 6e9a f53e b111 df3d
000003d0: 88cd 46bd 2422 08be 7007 163f 2606 583d
000003e0: 9bf4 11c0 fada d1bc b789 9e3e 9d4b 17bd
000003f0: 4efe c13b 3fed 0fbe cdfc 41be 0d20 08be

linear_action.bias f4 [3]
0.12016426 0.075400695 -0.24382576
00000000: ae18 f63d ae6b 9a3d 76ad 79be

linear_value.weight f4 [1, 512]
-0.017325321 0.010632174 -0.025229188 -0.15348276 -0.01894622 -0.16543862 -0.17427301 -1.5429441
6.85404 -1.8246145 -14.4588175 -1.4376765 -0.013927879 6.3685994 0.040432334 -0.14810812
3.560983 -0.16409695 -1.513877 -0.036504753 -0.2690505 -2.170658 -0.17375778 -0.3346331
0.034062777 -0.28592625 -0.024412496 0.0069693555 -0.28814724 -1.0131363 -0.013963783 -1.5436349
-0.250683 -0.22102956 -0.17961164 -1.5311222 -0.025957247 -0.24004154 -0.32294664 -0.1949199
0.85053337 -0.0041609267 -0.0076382365 0.040324382 -0.39661738 -0.17200871 -1.0045946 -1.4304538
-0.36448112 7.2235117 -0.27854162 0.018293433 5.7678976 -1.786734 -0.19653147 -1.5715168
-0.9743869 0.005373096 -1.4387792 0.0088693565 -0.8981539 -0.12919475 -1.10479 -2.2062585
-2.102132 -0.01968919 -1.5394212 -0.6088302 0.020646049 -0.20214736 -0.62012064 1.1912125
-1.558943 -0.040564884 -1.8759776 -1.4317634 -2.0370233 6.672937 -0.34379303 -0.21789947
-0.014824232 -1.1686991 0.01268863 -0.03836154 -1.1372436 -0.8437497 -0.015747255 5.1193595
0.013920319 -0.5735262 0.02113575 0.011207205 -0.4678129 -0.035421163 3.6517487 -0.028660182
-1.572179 0.0060425936 8.073217 -1.6572956 -0.031085635 -1.7016797 6.179017 0.016215326
-0.37636456 0.002552898 0.021544926 -0.21898921 -1.2860544 -0.30783203 0.037492123 -0.009357975
-1.1988682 -1.3784955 -0.20934324 0.012651778 9.381828 -0.49329785 0.03178008 0.018428368
-0.2645415 -0.013757053 -0.5829289 0.0022483657 -0.27093208 -0.016990257 -0.7374041 -0.01092716
2.5586135 -1.8851869 -0.11318276 -0.006722954 -0.040117096 -0.14326473 7.0508747 -1.4683156
4.095127 -2.0352407 -0.014163443 -0.17870636 -0.28337193 1.8422624 -2.0243638 -2.0119696
0.023315858 1.1396751 0.030338502 -0.14952642 0.005848439 -0.038449995 -1.8118904 -1.6042852
-0.36342406 -2.1010714 0.022492751 1.711919 -0.0015073293 0.030134674 -0.19387579 0.017994428
-0.021049121 6.3671227 8.6385765 -0.22844937 -0.2733042 8.119576 -0.9938437 -0.93604136
-0.8656812 -0.22185753 -2.139424 -0.031636547 -0.6789178 -0.0063279173 -1.0331676 -2.1634963
-0.2032016 -0.21612282 -0.18614751 0.016905095 8.930332 -1.1468105 -0.042904817 -0.33977818
-1.5424949 4.491075 1.1538581 1.1892322 -1.0362276 0.03954183 0.016003717 -0.03588199
-0.24651845 -0.2996211 0.006394098 -1.952282 -0.20678344 -1.102594 8.169505 -1.3197988
4.3035855 -1.0210935 0.0068737296 -0.7325604 -0.13875595 1.4222931 -0.26822287 -0.17684077
0.041521914 -0.033927273 -0.32381412 0.014371664 -0.45591667 -1.9290682 -0.18980525 0.034801353
0.042792864 -1.1634644 -0.33819494 0.041203123 1.2311652 -0.038580984 1.5257951 -2.069163
-0.20591398 9.832524 -0.8333912 -0.1417619 -0.2451819 5.8596935 -1.067126 -0.38927138
-0.22017355 0.04000486 -1.019896 -0.16707663 0.041421495 -0.63431174 -0.6683151 0.0013112254
-1.2821381 -1.0251037 -1.4577113 -0.20678622 -0.2736042 -0.11626972 -0.7713154 -0.28644827
-3.53647 0.010890951 -1.2195083 0.024333552 -0.29883945 -0.26980594 -0.19960612 -0.13425325
00000000: d5ed 8dbc 9232 2e3c 71ad cebc 962a 1dbe
00000010: 1a35 9bbc be68 29be a074 32be 317f c5bf
00000020: 4c54 db40 f88c e9bf 5157 67c1 c905 b8bf
00000030: c231 64bc 91cb cb40 609c 253d a8a9 17be
00000040: 25e7 6340 0809 28be b9c6 c1bf 0286 15bd
00000050: fdc0 89be 10ec 0ac0 8fed 31be 0855 abbe
00000060: 6985 0b3d ed64 92be b7fc c7bc 315f e43b
00000070: 0988 93be 73ae 81bf 5ac8 64bc d495 c5bf
00000080: 8659 80be 9355 62be 1dec 37be d0fb c3bf
00000090: 4ba4 d4bc 73cd 75be 4359 a5be 1599 47be
000000a0: 8ebc 593f 6258 88bb 2c4a fabb 2e2b 253d
000000b0: 6f11 cbbe 0d23 30be 8e96 80bf 1c19 b7bf
000000c0: 459d babe 0227 e740 029d 8ebe 1cdc 953c
000000d0: 9e92 b840 b3b3 e4bf 8c3f 49be 7627 c9bf
000000e0: 6b71 79bf cc10 b03b eb29 b8bf c750 113c
000000f0: 6aed 65bf a14b 04be c269 8dbf 5733 0dc0
00000100: 5589 06c0 394b a1bc c10b c5bf 4cdc 1bbf
00000110: e721 a93c b8ff 4ebe 3ac0 1ebf a779 983f
00000120: 728b c7bf 5d27 26bd 0920 f0bf 0644 b7bf
00000130: 975e 02c0 b388 d540 a405 b0be 0a21 5fbe
00000140: 56e1 72bc ef97 95bf f9e3 4f3c fd20 1dbd
00000150: 3391 91bf fbff 57bf 6300 81bc cbd1 a340
00000160: 0d12 643c 9dd2 12bf e124 ad3c 6d9e 373c
00000170: 2c85 efbe c815 11bd 40b6 6940 c2c8 eabc
00000180: 293d c9bf f300 c63b e62b 0141 4322 d4bf
00000190: 4da7 febc a4d0 d9bf 82ba c540 01d6 843c
000001a0: dbb2 c0be 854e 273b fc7e b03c b53e 60be
000001b0: 6e9d a4bf 299c 9dbe 5791 193d 3152 19bc
000001c0: 8374 99bf 8a72 b0bf 135e 56be 6749 4f3c
000001d0: f81b 1641 8991 fcbe d42b 023d 17f7 963c
000001e0: fc71 87be 4365 61bc d43a 15bf 5159 133b
000001f0: 9cb7 8abe 272f 8bbc 84c6 3cbf d507 33bc
00000200: 53c0 2340 ce4d f1bf 5dcc e7bd 3a4c dcbb
00000210: d351 24bd fdb3 12be c4a0 e140 c4f1 bbbf
00000220: 480b 8340 6241 02c0 c90d 68bc cdfe 36be
00000230: 2016 91be 41cf eb3f 2d8f 01c0 1cc4 00c0
00000240: e600 bf3c e0e0 913f 7388 f83c 741d 19be
00000250: 43a4 bf3b be7d 1dbd 06ec e7bf 3859 cdbf
00000260: b812 babe f477 06c0 b842 b83c 2920 db3f
00000270: 9491 c5ba fedc f63c 6087 46be 0d69 933c
00000280: 356f acbc 78bf cb40 9c37 0a41 a2ee 69be
00000290: 87ee 8bbe c9e9 0141 8a6c 7ebf 68a0 6fbf
000002a0: 489d 5dbf 9f2e 63be 53ec 08c0 5395 01bd
000002b0: 8fcd 2dbf 6b5a cfbb d63e 84bf b976 0ac0
000002c0: 1514 50be 4d4f 5dbe 749d 3ebe 8e7c 8a3c
000002d0: a4e2 0e41 b0ca 92bf f6bc 2fbd 68f7 adbe
000002e0: 7970 c5bf e3b6 8f40 9fb1 933f c338 983f
000002f0: 1ba3 84bf 9df6 213d 3a1a 833c fef8 12bd
00000300: 556f 7cbe f067 99be 9585 d13b 60e4 f9bf
00000310: 0abf 53be cd21 8dbf 4bb6 0241 2bef a8bf
00000320: f9b6 8940 31b3 82bf 063d e13b 1489 3bbf
00000330: 0a16 0ebe b30d b63f 8254 89be bf15 35be
00000340: e212 2a3d 53f7 0abd f7ca a5be 2177 6b3c
00000350: e96d e9be b5eb f6bf 4f5c 42be dd8b 0e3d
00000360: 9247 2f3d 67ec 94bf e327 adbe 9bc4 283d
00000370: d296 9d3f 1807 1ebd 414d c33f 2b6d 04c0
00000380: 1ddb 52be 0552 1d41 2059 55bf 082a 11be
00000390: f710 7bbe 9c82 bb40 9697 88bf 944e c7be
000003a0: 2d75 61be 23dc 233d f48b 82bf 2316 2bbe
000003b0: 96a9 293d 4162 22bf b316 2bbf 6cdd ab3a
000003c0: 1a1d a4bf 9936 83bf 4996 babf c4bf 53be
000003d0: da15 8cbe d21e eebd ed74 45bf 59a9 92be
000003e0: 8655 62c0 f66f 323c d918 9cbf 2857 c73c
000003f0: 7c01 99be 0124 8abe 8c65 4cbe af79 09be
