Reinforcement_Learning/exp2/pretrained_model/1_DQN_DuelingDQN/1336000.pth (torch, 18391 bytes, 5 tensors)

linear.weight f4 [512, 4]
0.11735747 0.033607844 -4.7493806 -0.667988 0.13292074 -0.35121164 -0.6673861 -0.5133222
0.14993693 1.2225541 2.3215508 0.9327287 -0.7608047 -0.7573373 -1.2334597 -0.43987516
-0.17024432 -0.40373337 -1.25517 -0.42116424 -0.27090704 -0.09446643 3.4326618 0.49872148
-0.397194 -0.50330305 -3.4258294 -0.58767146 0.26818016 0.29280055 0.011368296 0.8700976
-0.3547217 -0.6846499 -0.82759607 -0.41602477 -0.35875687 0.14563456 -0.3934313 -0.09138554
0.0084083835 0.59469146 2.7811658 0.7313656 -1.1841894 -0.20970257 1.2798771 0.06249175
-1.464291 0.3008786 2.9863665 0.4194195 -0.22206353 -0.44152457 -0.5670642 -0.3668435
0.7120651 0.6990463 1.452641 0.4676514 -0.6283295 1.5153059 4.4723654 1.3947055
0.014786063 -0.7030255 -1.848368 -0.65432173 -0.17945378 0.30829164 1.5116465 0.5200816
-1.1399446 -0.17308353 3.2852461 0.07731417 0.4827405 0.2206293 -2.3003345 0.08926312
0.82681316 -0.31087497 -3.193827 -0.46553624 1.0283608 -0.41328588 -3.5524154 -0.47519395
0.72993815 0.8728155 1.5641854 0.5727672 -0.1586844 -0.46855682 -1.5665892 -0.6210589
-0.06593234 0.4294635 1.1378684 0.6775617 -0.053533822 1.9399713 4.0467176 1.3190767
-0.38038003 -0.30727068 -1.2402878 -0.42180276 0.93948025 0.107682444 -2.32447 -0.23324259
-0.6719824 -1.0077565 -1.0137502 -0.6592091 -0.39547274 -0.019301042 0.060883258 -0.033206888
-0.1250819 -0.008928131 -0.29073906 0.089446455 -0.33396336 1.5532364 3.4831173 1.0358715
0.09649912 -0.30204856 -2.4767337 -1.0002164 -0.18132804 -0.3647314 -3.9370706 -0.60588306
0.27324635 -0.026349701 -1.1280832 -0.11990159 1.4862155 0.2119727 -2.0659468 -0.03959215
0.44783017 0.034533784 0.05335038 -0.00085840625 0.5880113 -0.5047187 -2.161295 -0.7555167
-0.45479694 -0.9302509 -2.8162465 -0.9221611 -0.13022386 0.23992658 1.7977192 0.5409227
-0.41789052 -1.4332011 -3.4911873 -1.190261 -0.72491986 -0.91869646 -2.9216423 -0.63633406
0.58374184 -0.58418727 -1.7867626 -0.33626777 -1.4817325 0.7050209 3.4417849 0.6682414
-0.3109963 -0.6785908 -1.2682989 -0.43212718 0.89101917 0.14451058 -1.7823706 -0.073284104
2.3940437 0.6502914 0.7547214 0.18080412 -0.4131788 -0.1718219 1.0463036 -0.06999976
0.10081428 -0.9469669 -2.3183928 -0.70988905 -0.68429065 -0.5943988 -2.5079257 -0.59021974
-0.08622907 -0.27176535 -2.4520447 -0.33714965 -0.18099533 0.11427481 0.60596925 0.39994514
-0.24702357 0.93908995 4.897322 0.75962335 -0.34495625 -0.5149654 -1.6569225 -0.40786475
1.1665766 1.3299875 -0.18593054 0.7777427 -0.06417959 0.47493324 3.1741896 0.9146979
-1.0988473 -0.86977524 0.02087675 -0.5731473 -0.20787871 -0.10815805 -0.10917742 0.24140441
-0.33346993 -0.18451421 -0.78276885 -0.07735863 0.48589954 -0.79773825 -2.867826 -0.614845
-0.32611603 -0.3407431 -1.3324884 -0.2840047 1.3784394 0.896098 -0.048996486 0.37929142
-0.010587977 -0.32847244 -1.7212706 -0.49547085 -0.2284644 1.7877432 4.2875905 1.3204362
00000000: 1d59 f03d 61a8 093d edfa 97c0 4301 2bbf
00000010: 601c 083e 03d2 b3be d1d9 2abf 1569 03bf
00000020: 1189 193e a77c 9c3f 4a94 1440 4fc7 6e3f
00000030: 19c4 42bf dbe0 41bf 02e2 9dbf 5137 e1be
00000040: 8754 2ebe 24b6 cebe 69a9 a0bf d7a2 d7be
00000050: 54b4 8abe 9e77 c1bd bbb0 5b40 6c58 ff3e
00000060: 035d cbbe 78d8 00bf ca40 5bc0 a371 16bf
00000070: e94e 893e f4e9 953e 1742 3a3c b7be 5e3f
00000080: 159e b5be 3745 2fbf 56dd 53bf 3301 d5be
00000090: fbae b7be 3a21 153e d46f c9be 5828 bbbd
000000a0: 51c3 093c b33d 183f 9ffe 3140 c73a 3b3f
000000b0: 8593 97bf 45bc 56be 03d3 a33f 59f7 7f3d
000000c0: e36d bbbf c30c 9a3e a120 3f40 27be d63e
000000d0: 9f64 63be 820f e2be 1f2b 11bf e9d2 bbbe
000000e0: e649 363f b3f4 323f 24f0 b93f 0170 ef3e
000000f0: 34da 20bf 8bf5 c13f 9e1d 8f40 b685 b23f
00000100: 3e41 723c 7bf9 33bf 5397 ecbf a181 27bf
00000110: bbc2 37be 67d8 9d3e a27d c13f 1124 053f
00000120: b4e9 91bf cf3c 31be 7941 5240 e456 9e3d
00000130: c329 f73e a6ec 613e ae38 13c0 95cf b63d
00000140: 07aa 533f 012b 9fbe a967 4cc0 c45a eebe
00000150: 54a1 833f 359a d3be c65a 63c0 9f4c f3be
00000160: 3add 3a3f d670 5f3f 3a37 c83f dfa0 123f
00000170: 2a7e 22be aee6 efbe ff85 c8bf b7fd 1ebf
00000180: 8907 87bd a4e2 db3e aca5 913f af74 2d3f
00000190: 4846 5bbd fb50 f83f b67e 8140 81d7 a83f
000001a0: 2cc1 c2be 9552 9dbe c0c1 9ebf 88f6 d7be
000001b0: c781 703f 9d88 dc3d 1ec4 14c0 25d7 6ebe
000001c0: 0a07 2cbf 2afe 80bf 91c2 81bf edc1 28bf
000001d0: 677b cabe 381d 9ebc b960 793d f203 08bd
000001e0: 7815 00be 4c47 12bc c0db 94be b42f b73d
000001f0: 3ffd aabe 73d0 c63f 65eb 5e40 7097 843f
00000200: 55a1 c53d 1ca6 9abe ce82 1ec0 1707 80bf
00000210: 0fae 39be 13be babe f7f8 7bc0 271b 1bbf
00000220: f2e6 8b3e 54db d7bc 0865 90bf f78e f5bd
00000230: 4f3c be3f 5f0f 593e 7938 04c0 612b 22bd
00000240: ff49 e53e 4c73 0d3d ee85 5a3d ab06 61ba
00000250: e987 163f 3f35 01bf a852 0ac0 8b69 41bf
00000260: 25db e8be ec24 6ebf 623d 34c0 c012 6cbf
00000270: 6759 05be 50af 753e aa1b e63f e979 0a3f
00000280: bff5 d5be 2273 b7bf 9d6f 5fc0 795a 98bf
00000290: 5994 39bf b12f 6bbf 30fc 3ac0 cae6 22bf
000002a0: 1b70 153f 4c8d 15bf a3b4 e4bf 4a2b acbe
000002b0: 69a9 bdbf 407c 343f 3446 5c40 de11 2b3f
000002c0: e83a 9fbe 20b8 2dbf 9e57 a2bf c63f ddbe
000002d0: d519 643f 95fa 133e b824 e4bf fa15 96bd
000002e0: 0338 1940 7f79 263f 6c35 413f b724 393e
000002f0: 2c8c d3be 15f2 2fbe 47ed 853f 095c 8fbd
00000300: b877 ce3d 6c6c 72bf 8c60 14c0 4abb 35bf
00000310: ac2d 2fbf 852a 18bf db81 20c0 a418 17bf
00000320: de98 b0bd d424 8bbe 4dee 1cc0 e19e acbe
00000330: d756 39be e908 ea3d cd20 1b3f 9cc5 cc3e
00000340: bff3 7cbe 3368 703f ddb6 9c40 ad76 423f
00000350: 1b9e b0be c6d4 03bf 0916 d4bf a6d3 d0be
00000360: 6252 953f 083d aa3f 9364 3ebe 251a 473f
00000370: 9770 83bd 732a f33e ec25 4b40 a429 6a3f
00000380: 07a7 8cbf 97a9 5ebf b805 ab3c c8b9 12bf
00000390: 28de 54be f881 ddbd 6998 dfbd b832 773e
000003a0: 92bc aabe 4bf1 3cbe 8a63 48bf 346e 9ebd
000003b0: d3c7 f83e 9338 4cbf 768a 37c0 7b66 1dbf
000003c0: aef8 a6be e175 aebe fb8e aabf 1069 91be
000003d0: b470 b03f ae66 653f 8ab0 48bd 7c32 c23e
000003e0: 3279 2dbc 8a2d a8be 9852 dcbf 5bae fdbe
000003f0: 92f2 69be c5d4 e43f f133 8940 0e04 a93f

linear.bias f4 [512]
0.53062415 -1.0195804 0.38042316 0.42466575 1.0158997 0.5842613 1.1915443 0.2468696
1.4056388 1.2019805 -0.67482686 0.40281436 -0.22533022 1.042017 -1.725945 0.24216402
0.22272877 1.2384094 -0.48793513 1.4503587 -0.21037595 0.29197347 0.2269423 1.13249
-1.4657968 0.68765366 1.2561009 0.16980812 0.50730467 -1.0411832 0.8379297 -0.5086575
0.9960043 1.1323354 -0.7682569 1.0131537 0.9458659 -0.07965312 1.0924758 1.3453918
1.0869131 -1.576474 -0.52058834 -0.1451829 1.2350321 0.35994637 0.35289624 0.85240465
-0.036753286 0.71156573 0.81894636 0.9842845 1.383836 0.7038067 0.64681107 -1.4103376
1.901335e-05 1.220163 0.88879555 0.6566521 1.0981938 0.16436593 0.6830815 -0.5316376
-0.043678395 -0.17658348 0.13562344 1.1588947 1.080701 -0.94026333 1.1791517 -1.4795951
-0.042672914 0.5499999 0.258384 0.69612235 0.8025148 0.8816039 1.1038818 0.70402855
1.0641961 1.6094813 -1.3773907 1.5130442 0.9773632 0.9046031 -1.9169848 0.9655928
1.032275 0.1608852 1.0956764 1.2166977 0.7340572 1.3518397 1.4492543 0.954283
-1.3546255 0.61338395 0.6604617 -0.42415863 -0.8765328 -0.09851812 0.80131817 1.0855128
1.0456283 -0.72237504 0.5768066 0.36458653 0.70100045 0.95495677 -1.2346988 0.4679816
0.7343064 0.578802 -1.500724 1.1632019 0.62275887 -0.9906812 0.06957023 -0.47954243
-0.25580138 1.0723901 0.7148681 0.551838 1.3476145 0.21220154 0.8280693 -0.250688
0.3130127 0.31004858 0.4071174 1.1647503 1.3486825 -1.6054087 0.20823175 -0.7794508
0.7003815 1.3786411 -1.027057 1.2351463 -0.1804343 -0.49491206 -1.1101924 0.82434577
-0.1185931 -0.6355083 0.6348743 1.1571002 0.76327556 1.4525199 0.5655083 1.0680839
0.62442917 1.0605762 1.0888939 0.54593104 -1.0824012 0.28832105 0.07089889 1.1435553
0.2582112 0.51065683 0.618359 -2.1387296 -0.42941082 -1.2227952 1.180351 1.136165
1.1418899 0.8803744 1.0357796 -1.1389408 1.1226846 0.64528966 0.67329484 -0.18133107
0.9637418 1.3044757 0.34037414 -0.07626368 1.4674149 0.6907956 1.0057482 -0.16634277
0.89187914 0.54539394 -0.20422311 0.36771968 1.6316701 0.5023971 1.1078198 0.37298834
-0.18677117 -1.5564187 -1.0284603 -1.1783661 -0.72725856 0.9776913 1.4209874 -0.54234505
1.2737637 -0.6355089 -0.2660971 1.1859225 1.1041912 1.3875114 1.2935127 0.37440142
0.95795006 0.63303995 -0.9337764 1.2155094 -0.8680623 -0.8855278 -0.37021327 0.64460194
0.43866843 0.5146241 1.1861138 1.1210669 0.583491 -0.9119165 1.1625351 0.68785304
0.41363817 1.1823967 1.1403967 0.49515408 0.8307688 -0.9468297 0.19549687 0.16454048
1.0813537 0.54482937 1.6407601 -0.21930233 0.36074474 -0.12643111 -0.30485263 -0.41123766
0.65572923 0.3344358 0.9528331 2.0563328 0.21825038 0.4429592 1.103268 -0.99821436
0.4808676 0.387989 0.31004554 -1.7743934 0.21457034 0.38908955 -1.4141614 0.79883426
00000000: fcd6 073f 9c81 82bf d3c6 c23e ca6d d93e
00000010: 0009 823f 2692 153f 8684 983f 62cb 7c3e
00000020: f9eb b33f 7fda 993f 74c1 2cbf af3d ce3e
00000030: f7bc 66be d060 853f c4eb dcbf d8f9 773e
00000040: 0313 643e 3384 9e3f a2d2 f9be 5ba5 b93f
00000050: cb6c 57be 8c7d 953e 9063 683e 6ff5 903f
00000060: 3b9f bbbf 120a 303f eac7 a03f 2ee2 2d3e
00000070: b8de 013f 7e45 85bf 9082 563f 6137 02bf
00000080: 23fa 7e3f 5ef0 903f 7cac 44bf 05af 813f
00000090: 4524 723f 2d21 a3bd 3fd6 8b3f cc35 ac3f
000000a0: f81f 8b3f e6c9 c9bf 4745 05bf d3aa 14be
000000b0: 8815 9e3f e44a b83e d1ae b43e 3137 5a3f
000000c0: 9d8a 16bd 2c29 363f 78a6 513f 12fa 7b3f
000000d0: 8a21 b13f ad2c 343f 6995 253f f185 b4bf
000000e0: dc7e 9f37 4d2e 9c3f 1b88 633f 5a1a 283f
000000f0: 9d91 8c3f 8b4f 283e 6ede 2e3f 6719 08bf
00000100: 1ee8 32bd 4dd2 34be dfe0 0a3e a956 943f
00000110: 6954 8a3f 19b5 70bf 71ee 963f 5f63 bdbf
00000120: cbc9 2ebd cbcc 0c3f e84a 843e 1335 323f
00000130: 9c71 4d3f cbb0 613f 004c 8d3f 373b 343f
00000140: 9437 883f 7c03 ce3f 574e b0bf 6fab c13f
00000150: 7a34 7a3f 1294 673f c25f f5bf 1731 773f
00000160: 9621 843f 17bf 243e 203f 8c3f c0bc 9b3f
00000170: 2ceb 3b3f 1509 ad3f 2a81 b93f e44b 743f
00000180: 5e64 adbf bb06 1d3f 0514 293f 522b d9be
00000190: 7464 60bf dec3 c9bd 3023 4d3f 15f2 8a3f
000001a0: 26d7 853f 92ed 38bf 99a9 133f 16ab ba3e
000001b0: c474 333f 0c78 743f 9c0a 9ebf 499b ef3e
000001c0: 81fb 3b3f 5e2c 143f b917 c0bf cde3 943f
000001d0: 206d 1f3f 489d 7dbf d67a 8e3d 9686 f5be
000001e0: 66f8 82be 1444 893f 9901 373f 4145 0d3f
000001f0: a27e ac3f 5c4b 593e 5afc 533f 2d5a 80be
00000200: 3343 a03e b0be 9e3e b171 d03e 8a16 953f
00000210: a1a1 ac3f 087e cdbf b43a 553e 168a 47bf
00000220: 344c 333f 5077 b03f 9b76 83bf 4619 9e3f
00000230: c5c3 38be 1d65 fdbe c91a 8ebf 5308 533f
00000240: f0e0 f2bd acb0 22bf 1f87 223f dc1b 943f
00000250: 0766 433f 2cec b93f 27c5 103f f9b6 883f
00000260: 97da 1f3f f6c0 873f e060 8b3f 23c2 0b3f
00000270: 1f8c 8abf d19e 933e 7033 913d 0560 923f
00000280: 4234 843e 68ba 023f c74c 1e3f f2e0 08c0
00000290: bcdb dbbe 8e84 9cbf be15 973f db6d 913f
000002a0: 7329 923f 3760 613f 6d94 843f d0c8 91bf
000002b0: 21b4 8f3f b431 253f 0d5d 2c3f daae 39be
000002c0: c8b7 763f 0ff9 a63f 8545 ae3e 2230 9cbd
000002d0: 40d4 bb3f fbd7 303f 5bbc 803f c255 2abe
000002e0: 3152 643f f09e 0b3f dd1f 51be c145 bc3e
000002f0: 91da d03f 199d 003f 0acd 8d3f 54f8 be3e
00000300: f140 3fbe ba38 c7bf 96a4 83bf b3d4 96bf
00000310: 9e2d 3abf fa49 7a3f eae2 b53f 20d7 0abf
00000320: b00a a33f b6b0 22bf e13d 88be 4fcc 973f
00000330: 2356 8d3f f999 b13f d391 a53f 8bb1 bf3e
00000340: 373c 753f e80e 223f f80b 6fbf d095 9b3f
00000350: 5539 5ebf f3b1 62bf 988c bdbe a204 253f
00000360: 2699 e03e 68be 033f 94d2 973f 1f7f 8f3f
00000370: ab5f 153f 5c73 69bf f3cd 943f 2317 303f
00000380: 62c8 d33e c658 973f 85f8 913f d684 fd3e
00000390: 44ad 543f 6e63 72bf 5530 483e 4d7d 283e
000003a0: cc69 8a3f f079 0b3f 6d04 d23f ca90 60be
000003b0: 89b3 b83e 2877 01be a515 9cbe be8d d2be
000003c0: dfdd 273f 2b3b ab3e dfec 733f f59a 0340
000003d0: 077d 5f3e 8ccb e23e e337 8d3f fa8a 7fbf
000003e0: 4734 f63e 7fa6 c63e 4abe 9e3e 531f e3bf
000003f0: 54b8 5b3e bf36 c73e 3e03 b5bf 6780 4c3f

linear_action.weight f4 [2, 512]
-1.3916256 0.24295525 0.010982912 0.0706144 0.21885842 0.9766995 -0.34999928 -0.0028745034
0.062106077 0.11966956 -1.355943 -0.34713703 -0.04052283 0.1974797 -0.27606145 0.026529474
-0.13787512 -0.39004773 -0.36978328 -0.07674273 0.13924615 -0.07391333 -1.1971792 0.25705576
-0.23910852 0.07623003 0.17011116 0.095804505 0.26477093 -0.06351867 -0.015395011 -0.10147239
0.061912224 -0.2458764 0.51501375 0.1277349 0.3298649 -0.21022692 -0.64817685 -0.17220306
-0.1401026 1.1204417 0.36794162 -0.21025854 0.03428909 -0.090297915 0.70536536 -0.24529627
-0.24641462 -0.05871934 -1.0089476 -0.013314701 0.23160681 0.101909705 0.21522947 -0.23068099
-0.20894662 -0.023903258 0.33874264 -0.40754902 0.091795616 0.22936125 -0.23907052 0.033581886
0.5099492 -0.10472021 -0.15128416 0.51881313 0.6727146 -0.5344371 0.0070044436 0.19423679
-0.22995812 0.046403214 0.17723843 -0.0009783385 -0.12394545 0.33672395 -0.090390846 0.0052721053
0.12460598 0.54977614 -0.1112765 -0.19421919 -0.61958325 -0.019328075 0.023020845 0.0016500136
0.097561836 0.3178749 -0.010063959 0.2109237 0.33981007 -0.011107455 0.2152481 -0.057479557
0.2932465 -1.5893667 -0.16307902 0.2782389 0.754045 -0.1548022 0.07523259 0.20669892
-0.050856657 0.39142734 -0.0056741936 0.17624393 0.36032966 -0.71251893 0.42368886 -0.26951155
-0.67035913 1.3369278 -0.09132387 -0.02110031 0.28423756 0.585686 -0.06516211 0.3171281
-0.33404338 0.09734813 0.10408387 -0.098001026 -0.03905679 -0.19005881 -0.7908779 0.0046157017
-0.03851013 -0.68762296 0.4426754 -0.0093040345 0.41571173 -0.25682357 -0.36954564 -0.19120397
0.16148736 0.19395405 -0.43884373 -0.41847712 -0.26245552 -0.62890637 -0.072345376 -0.41923395
-0.42438865 0.4500375 0.014266556 0.2766364 -0.1910398 -0.5261586 -0.20041285 -0.15217392
0.055605434 0.016506791 0.0035526927 0.12734076 0.56048745 0.014106704 0.09534013 0.18729125
0.6017133 1.3002404 0.053430114 -0.91378987 0.07836508 -0.53931653 0.11423549 0.106218554
-0.11796671 0.99144685 0.18020415 0.06897579 0.24872869 -0.3259519 -0.4098686 -0.5812747
-0.08859507 0.022105685 0.11637419 0.008755599 -0.29209226 0.21740974 -0.25328732 -0.8690762
-0.09300842 0.5722148 -0.27346104 0.043453716 -0.22974195 0.5345875 0.12171477 0.11438996
0.8425062 -1.3860357 0.02859148 -0.074463926 0.77333367 0.09426434 0.32345268 -0.29860017
-0.08929888 0.3069075 0.24954724 0.027345669 0.13972855 -0.32755047 0.23955722 -0.38457978
0.04070035 0.22599456 -0.60817003 -0.12483692 2.2687685 -0.015023732 -0.050929762 0.20216326
-0.0585527 0.9255405 -0.06967961 0.014655168 0.70140165 -0.25700307 0.11155813 0.18241742
-0.21244879 -0.2948726 -0.0055361977 0.015829554 -0.19507366 0.92806363 0.01874925 0.076177344
0.1399864 -0.04024077 0.2835484 0.32561076 0.05560779 -0.19076578 0.14216733 -0.08719195
-0.41696677 -0.34314197 0.053336836 0.05085371 0.15037715 -0.14358675 0.22010118 -0.053367604
-1.1080519 -0.2932279 0.42188087 0.21483812 -0.043947235 -0.49905276 2.2560241 0.085959695
00000000: ca20 b2bf 43c9 783e acf1 333c 489e 903d
00000010: 6c1c 603e fa08 7a3f 1b33 b3be 2a62 3cbb
00000020: f162 7e3d 5015 f53d 8a8f adbf f2bb b1be
00000030: 44fb 25bd 1e38 4a3e ed57 8dbe 5754 d93c
00000040: 232f 0dbe 56b4 c7be 3c54 bdbe 4b2b 9dbd
00000050: 8b96 0e3e df5f 97bd 2b3d 99bf d09c 833e
00000060: ddd8 74be 7d1e 9c3d 9f31 2e3e 2735 c43d
00000070: 0e90 873e 1416 82bd 5b3b 7cbc c2d0 cfbd
00000080: ac97 7d3d 06c7 7bbe f1d7 033f f0cc 023e
00000090: 0de4 a83e ba45 57be ebee 25bf 0056 30be
000000a0: 0e77 0fbe a26a 8f3f d862 bc3e 044e 57be
000000b0: b872 0c3d 1dee b8bd d392 343f f22e 7bbe
000000c0: 1d54 7cbe b183 70bd 3225 81bf e725 5abc
000000d0: 562a 6d3e 09b6 d03d 1d65 5c3e a337 6cbe
000000e0: 1af6 55be c4d0 c3bc ad6f ad3e 44aa d0be
000000f0: 57ff bb3d addd 6a3e e7ce 74be 298d 093d
00000100: 088c 023f 8d77 d6bd 3cea 1abe f0d0 043f
00000110: 0637 2c3f dfd0 08bf 8885 e53b 02e6 463e
00000120: 247a 6bbe 4c11 3e3d fe7d 353e 983b 80ba
00000130: 1dd7 fdbd 1567 ac3e d61e b9bd a0c1 ac3b
00000140: 6c31 ff3d 21be 0c3f efe4 e3bd 65e1 46be
00000150: 029d 1ebf e955 9ebc 3696 bc3c 4545 d83a
00000160: 80ce c73d 80c0 a23e 4ee3 24bc 62fc 573e
00000170: 96fb ad3e 0bfc 35bc ff69 5c3e af6f 6bbd
00000180: 6824 963e 5e70 cbbf 30fe 26be 5475 8e3e
00000190: 1809 413f 7884 1ebe 8b13 9a3d e2a8 533e
000001a0: 124f 50bd 2a69 c83e 96ee b9bb 4a79 343e
000001b0: 217d b83e a467 36bf bfed d83e 6bfd 89be
000001c0: a89c 2bbf 7320 ab3f 0208 bbbd 8fda acbc
000001d0: 9687 913e 85ef 153f b673 85bd 9d5e a23e
000001e0: bc07 abbe 755e c73d ed29 d53d c3b4 c8bd
000001f0: 03fa 1fbd c79e 42be f976 4abf 503f 973b
00000200: ccbc 1dbd 0f08 30bf 5aa6 e23e f36f 18bc
00000210: 2bd8 d43e 617e 83be 1635 bdbe f9ca 43be
00000220: f15c 253e e49b 463e 20b0 e0be a242 d6be
00000230: 9260 86be 0200 21bf d029 94bd d5a5 d6be
00000240: 7849 d9be 516b e63e 46be 693c 49a3 8d3e
00000250: f09f 43be 54b2 06bf 0739 4dbe 7bd3 1bbe
00000260: 86c2 633d 4039 873c 4bd4 683b 9e65 023e
00000270: 1b7c 0f3f ce1f 673c b041 c33d 47c9 3f3e
00000280: e209 1a3f 476e a63f 89d9 5a3d 22ee 69bf
00000290: df7d a03d a610 0abf 4cf4 e93d 1d89 d93d
000002a0: 8898 f1bd 76cf 7d3f 7087 383e 2e43 8d3d
000002b0: bcb2 7e3e 2be3 a6be 4cda d1be 6bce 14bf
000002c0: 5571 b5bd fb16 b53c 9755 ee3d a573 0f3c
000002d0: 1e8d 95be a9a0 5e3e e0ae 81be c77b 5ebf
000002e0: 337b bebd ab7c 123f 1603 8cbe 86fc 313d
000002f0: 7941 6bbe bada 083f 9845 f93d 4945 ea3d
00000300: 7cae 573f 9e69 b1bf ae38 ea3c 8b80 98bd
00000310: 32f9 453f aa0d c13d 979b a53e 1fe2 98be
00000320: 55e2 b6bd fb22 9d3e 5089 7f3e 0604 e03c
00000330: 0015 0f3e b2b4 a7be 7d4e 753e a4e7 c4be
00000340: 69b5 263d 1e6b 673e 08b1 1bbf 80aa ffbd
00000350: 8133 1140 1926 76bc ba9b 50bd e303 4f3e
00000360: f5d4 6fbd 39f0 6c3f 2fb4 8ebd 3b1c 703c
00000370: 0f8f 333f e895 83be 9778 e43d a2cb 3a3e
00000380: 2d8c 59be 8bf9 96be fe68 b5bb fbac 813c
00000390: 64c1 47be 9495 6d3f 0798 993c de02 9c3d
000003a0: 9858 0f3e 81d3 24bd 422d 913e 74b6 a63e
000003b0: fec4 633d 1b58 43be 5094 113e b191 b2bd
000003c0: ab7c d5be 4eb0 afbe ba77 5a3d fb4b 503d
000003d0: 78fc 193e 6808 13be 3462 613e fd97 5abd
000003e0: a5d4 8dbf f821 96be c500 d83e 86fe 5b3e
000003f0: 0402 34bd d883 ffbe b362 1040 a30b b03d

linear_action.bias f4 [2]
0.094443016 -0.16629934
00000000: 576b c13d 604a 2abe

linear_value.weight f4 [1, 512]
-1.4300754 -2.634415 -5.069862 0.06960355 1.1665642 -1.66016 -1.665136 -0.24151629
0.95422596 0.63813794 -3.4178123 0.046163265 -3.5739532 1.0983711 -8.270683 2.0717413
0.6729122 1.4192934 1.9883641 -2.178226 -3.8083596 3.341665 -2.0628486 1.1398158
-3.2394576 1.9376326 0.8148022 -5.7396574 0.22877006 -2.9082105 0.73415583 2.7926106
-0.97739166 2.3384423 -3.5910747 1.072205 -1.2679039 0.79313475 -1.4020684 2.0974174
-1.9759244 -8.552862 -1.7939093 -2.3635492 1.0639201 -2.9533877 -0.7960117 -1.4275372
0.17614484 0.89953727 0.13126242 0.5773799 2.565259 1.0283362 -2.372394 -0.8585973
0.5311714 0.6075813 0.60834986 -1.8289286 0.88469696 1.4265226 0.90548223 1.9432765
0.007185682 0.46791288 0.88662046 1.0360322 -2.8233447 -3.2342417 0.7228089 -1.4501098
0.36608604 1.2565093 -1.7207617 0.66884273 -2.730548 1.077885 0.7630297 0.38269094
0.96803623 1.5563588 1.2868885 1.7049745 0.18666598 0.5812448 -6.8524094 0.52847797
0.6822667 1.9949343 0.5795686 0.99905443 -1.10625 0.9567542 1.2925762 -2.349121
-2.916838 -1.2068572 0.43577582 -2.3870585 -2.8972478 -0.58435 0.61387694 1.1396868
0.6399838 -0.6147143 1.1841123 -2.0011678 1.0005698 1.456687 -5.149644 -0.19230194
-0.51002574 -1.0390973 -5.4998183 0.9402423 -1.9403783 -1.6340759 1.2786841 -3.627758
0.3118542 0.74396664 -2.592754 -1.5448666 0.49610832 0.7932061 -0.66553557 0.5588209
0.27867272 0.1996641 1.0660318 -1.3332742 1.9259878 -5.2094545 0.45351562 1.1027671
-1.0561533 0.8785961 -1.3962386 -3.6548064 0.35982418 0.70058894 -2.977848 0.7921018
-0.45981413 -1.9506834 -0.24849308 1.0567212 -0.5266811 -1.5393554 -0.42973152 -2.927275
0.9097001 -1.181817 0.90558344 0.4528149 -2.919778 0.14658801 2.4278984 -1.018994
0.27909246 -0.48265052 0.7417095 -8.298658 -1.274975 -4.1819015 0.6336429 0.9790088
0.80614966 -1.7969048 -1.2950128 -1.4715248 1.0721556 -2.1373658 2.8928936 0.4289761
0.56150514 -4.606196 0.13978748 -3.8389325 2.2105854 -3.80819 -1.2394146 0.5421939
1.0108488 -1.3322687 -1.3714105 0.50830495 1.4633381 0.3267705 0.5671563 2.7241335
3.383504 -4.4043603 -2.019075 -1.72601 -4.0043836 0.79353416 0.70631844 -2.7438781
2.6462584 -1.9832226 0.9550973 0.78820974 0.76171905 1.5969344 -1.8036802 1.290308
0.68244654 -1.2495912 -2.3884442 0.9887651 -4.5455813 -3.6569903 0.8116934 1.9499497
0.95766455 -0.1657791 -1.0695122 1.2955194 0.30087617 -1.0027174 0.60489756 1.5680957
0.6412005 1.5480281 1.5988346 0.6864447 -1.5724418 -3.3566413 1.1905731 1.3980392
1.2469802 -1.0425835 -2.35439 1.5081222 0.5414517 1.3694451 -3.5567584 1.6034306
-1.7146922 0.20463417 0.9500252 1.7798992 -0.38875374 1.397592 1.4297367 -1.7305158
-2.8549223 1.2754961 0.70512575 -4.2904367 -4.285977 -1.9065387 -1.5632915 0.7234598
00000000: b60c b7bf 419a 28c0 4f3c a2c0 4e8c 8e3d
00000010: fa51 953f 1f80 d4bf 2d23 d5bf 0c50 77be
00000020: 2748 743f 025d 233f 70bd 5ac0 b115 3d3d
00000030: a6bb 64c0 6d97 8c3f b854 04c1 6997 0440
00000040: f943 2c3f 68ab b53f b782 fe3f 0e68 0bc0
00000050: 2abc 73c0 d7dd 5540 b605 04c0 7ce5 913f
00000060: 4653 4fc0 5804 f83f e196 503f 46ab b7c0
00000070: b342 6a3e 1f20 3ac0 a3f1 3b3f 22ba 3240
00000080: 5736 7abf 0aa9 1540 2bd4 65c0 033e 893f
00000090: ad4a a2bf e10a 4b3f fa76 b3bf 163c 0640
000000a0: 17eb fcbf 86d8 08c1 d29e e5bf 6444 17c0
000000b0: 892e 883f 4e04 3dc0 6cc7 4bbf 8ab9 b6bf
000000c0: 505f 343e 1348 663f a869 063e 2bcf 133f
000000d0: 342d 2440 85a0 833f 4ed5 17c0 08cd 5bbf
000000e0: d9fa 073f 738a 1b3f d1bc 1b3f 551a eabf
000000f0: 807b 623f 4b98 b63f afcd 673f 49bd f83f
00000100: df75 eb3b 4792 ef3e 8ff9 623f b49c 843f
00000110: aeb1 34c0 d1fd 4ec0 010a 393f 339d b9bf
00000120: a16f bb3e 4cd5 a03f eb41 dcbf 4739 2b3f
00000130: 4cc1 2ec0 23f8 893f ea55 433f 11f0 c33e
00000140: 39d1 773f c436 c73f c3b8 a43f 9b3c da3f
00000150: 5e25 3f3e 76cc 143f f046 dbc0 554a 073f
00000160: 08a9 2e3f 025a ff3f 9c5e 143f 08c2 7f3f
00000170: 9a99 8dbf d8ed 743f 2373 a53f 0058 16c0
00000180: 79ad 3ac0 4c7a 9abf 021e df3e 91c5 18c0
00000190: 826c 39c0 f697 15bf 0a27 1d3f 42e1 913f
000001a0: fad5 233f eb5d 1dbf fe90 973f 2213 00c0
000001b0: ac12 803f b874 ba3f e2c9 a4c0 cdea 44be
000001c0: 0c91 02bf 2401 85bf 83fe afc0 b8b3 703f
000001d0: 515e f8bf 6629 d1bf ecab a33f 302d 68c0
000001e0: 5bab 9f3e 9974 3e3f aeef 25c0 30be c5bf
000001f0: e901 fe3e 8e0f 4b3f 8a60 2abf e30e 0f3f
00000200: 31ae 8e3e bf74 4c3e bb73 883f bba8 aabf
00000210: c586 f63f dab3 a6c0 3333 e83e 7927 8d3f
00000220: 0830 87bf adeb 603f f2b7 b2bf 59e8 69c0
00000230: e03a b83e cc59 333f 1095 3ec0 2fc7 4a3f
00000240: c26c ebbe feaf f9bf f874 7ebe a442 873f
00000250: 93d4 06bf 9909 c5bf c505 dcbe 7958 3bc0
00000260: 1be2 683f c845 97bf 51d4 673f 5bd7 e73e
00000270: a5dd 3ac0 2b1b 163e b062 1b40 656e 82bf
00000280: 35e5 8e3e f81d f7be ace0 3d3f 4ec7 04c1
00000290: 6132 a3bf 23d2 85c0 6c36 223f 52a0 7a3f
000002a0: d35f 4e3f fa00 e6bf fbc2 a5bf ed5a bcbf
000002b0: 653c 893f 9aca 08c0 2b25 3940 c1a2 db3e
000002c0: cdbe 0f3f f565 93c0 7324 0f3e 12b1 75c0
000002d0: 3b7a 0d40 63b9 73c0 23a5 9ebf 38cd 0a3f
000002e0: 7e63 813f c887 aabf 618a afbf 4620 023f
000002f0: aa4e bb3f 774e a73e 2831 113f 3458 2e40
00000300: 548b 5840 85f0 8cc0 8638 01c0 e5ed dcbf
00000310: e923 80c0 0e25 4b3f 49d1 343f b39b 2fc0
00000320: 4c5c 2940 3dda fdbf 4281 743f 1dc8 493f
00000330: 0500 433f 5968 cc3f fede e6bf d028 a53f
00000340: d1b4 2e3f 9bf2 9fbf 45dc 18c0 b61f 7d3f
00000350: 6775 91c0 210c 6ac0 23cb 4f3f f497 f93f
00000360: 8129 753f ffc1 29be c7e5 88bf 94d3 a53f
00000370: 710c 9a3e 0b59 80bf 91da 1a3f 5cb7 c83f
00000380: b725 243f c925 c63f 9da6 cc3f d7ba 2f3f
00000390: c645 c9bf 36d3 56c0 b364 983f f3f2 b23f
000003a0: 0c9d 9f3f 6073 85bf 53ae 16c0 260a c13f
000003b0: 949c 0a3f fa49 af3f eea1 63c0 373d cd3f
000003c0: 097b dbbf 9f8b 513e da34 733f bdd3 e33f
000003d0: bb0a c7be 4be4 b23f 9d01 b73f 8b81 ddbf
000003e0: 0cb7 36c0 7543 a33f 1f83 343f 424b 89c0
000003f0: b926 89c0 7609 f4bf f019 c8bf a934 393f
