Reinforcement_Learning/exp2/pretrained_model/1_DQN_DuelingDQN/1503000.pth (torch, 15839 bytes, 4 tensors)

linear.weight f4 [512, 4]
0	0x3f4aaaec	0.79167056
1	0x3f58b730	0.8465452
2	0xbfcfe9cf	-1.6243228
3	0x3e40cae3	0.18827395
4	0xbef60413	-0.48049983
5	0xbef25163	-0.47327718
6	0xbf183cf8	-0.5946803
7	0xbef39fc4	-0.4758283
8	0xbe6927c4	-0.22769076
9	0x3e99629d	0.29958048
10	0xc036cd8e	-2.856296
11	0xbec0c130	-0.3764739
12	0xbf1854b7	-0.59504265
13	0xbf156da2	-0.5837041
14	0xbf1a6b74	-0.6032021
15	0xbefc3ead	-0.49266568
16	0xbe133ca5	-0.14378603
17	0x3e1ee066	0.15515289
18	0xbee32483	-0.44363794
19	0x3d383979	0.044976685
20	0xbee94f10	-0.45568132
21	0xbf57bc92	-0.8427211
22	0xc0233527	-2.5501192
23	0xbf25f380	-0.64824677
24	0xbc588847	-0.013216085
25	0x3e9e3fe3	0.30908117
26	0xbfbd6a80	-1.4798126
27	0xbf3bf4d6	-0.73420465
28	0x3e2a70ff	0.16644667
29	0xbf920d67	-1.141034
30	0xbfa47fb9	-1.2851478
31	0xbf2391cb	-0.6389434
32	0xbe779e5e	-0.24181506
33	0xbf3b92d8	-0.7327094
34	0xbf7df948	-0.992085
35	0xbeebe823	-0.46075544
36	0xbeee3da1	-0.46531394
37	0x3f4f4541	0.8096505
38	0x3ef6baa5	0.48189273
39	0x3e0f6f6a	0.14007345
40	0x3f77e941	0.9684029
41	0x3ed8bf08	0.42333245
42	0x3e83367b	0.25627503
43	0x3e427d44	0.18993098
44	0xbe5b0609	-0.21389021
45	0xbe371cb7	-0.17882048
46	0x3e5cfcc7	0.21580802
47	0x3e52f40f	0.20600913
48	0xbe9515c0	-0.29118156
49	0x3e9104c1	0.2832394
50	0x3ee7cd6c	0.45273912
51	0x3efeb887	0.49750158
52	0xbdbee8f8	-0.09321779
53	0x3dc54294	0.096318394
54	0x3e5ab0f1	0.2135656
55	0xbdfc40e2	-0.12317063
56	0x3f8fb05b	1.1225694
57	0x3dcf124d	0.101109125
58	0xbef97a7c	-0.4872626
59	0xbde45419	-0.11148853
60	0x400915d2	2.1419568
61	0x3f4f0489	0.80866295
62	0xbe4b3f8f	-0.19848464
63	0x3f0b3413	0.54376334
64	0xbe3cb2df	-0.18427609
65	0x3e124584	0.1428433
66	0x3e337c46	0.17527875
67	0x3e3cc79f	0.18435524
68	0xbe67551b	-0.22591059
69	0x3ee6a270	0.45045805
70	0xbf0ac142	-0.5420114
71	0x3d17538d	0.036944915
72	0xbdcada43	-0.09904911
73	0x3e3e0204	0.18555456
74	0x4044ac75	3.073026
75	0x3f36adbf	0.71358865
76	0x3f3a4cd1	0.7277346
77	0x3f02e600	0.511322
78	0xbe15284d	-0.14566155
79	0x3e948e15	0.2901465
80	0xbf24cb95	-0.6437314
81	0x3f8f271b	1.1183809
82	0x3fbf8048	1.4961023
83	0x3f5f1a67	0.8714966
84	0x3dbafee4	0.09130648
85	0x3e6b68c5	0.22989185
86	0xbff91eef	-1.9462565
87	0xbf5cc427	-0.86236805
88	0xbda8c057	-0.08239811
89	0xbccb77c1	-0.024837377
90	0x3f0f3594	0.5594113
91	0x3e93709f	0.2879686
92	0xbd08416e	-0.033265524
93	0x3de24ea8	0.11050159
94	0xbf3687c4	-0.7130091
95	0xbd93021b	-0.07178136
96	0x3f8333e4	1.0250211
97	0x3f779b24	0.967211
98	0x3f279d89	0.65474755
99	0x3f2996fc	0.6624601
100	0xbe60fc67	-0.21971284
101	0x3f6f2061	0.9340878
102	0x40ad514f	5.4161754
103	0x3f72d774	0.94860005
104	0xbf4a14ee	-0.78938186
105	0xbf7cd44e	-0.9876145
106	0xbf5d50a7	-0.8645119
107	0xbe992c68	-0.29916692
108	0x3e4223f1	0.18959023
109	0x3eed7b17	0.46382973
110	0x402b3b7b	2.6755054
111	0x3f2e2f31	0.6804076
112	0xbec57a42	-0.38569838
113	0xbbb473fd	-0.005506991
114	0x3f083afb	0.53215
115	0x3c88680e	0.01665118
116	0xbf39ea97	-0.7262358
117	0x3e961d78	0.29319358
118	0x3f2eb883	0.6825029
119	0x3ebd2dbd	0.36948958
120	0xbe3943bf	-0.1809225
121	0x3e40325a	0.18769208
122	0xbe79e42a	-0.24403444
123	0x3ea9c29e	0.33156294
124	0xbefb554e	-0.4908852
125	0xbf8513e4	-1.0396695
126	0xc04a4887	-3.1606767
127	0xbf5ec048	-0.8701215
128	0xbef806c2	-0.48442656
129	0xbfa2bca9	-1.2713825
130	0xc0388bb7	-2.8835275
131	0xbf6aab2d	-0.91667444
132	0xbe4b302e	-0.19842598
133	0xbed795ec	-0.4210657
134	0xc03cc84f	-2.9497259
135	0xbf2c60a2	-0.6733495
136	0xbe2a1bf1	-0.16612221
137	0xbf1eeed5	-0.6208318
138	0x4035eacd	2.842456
139	0xbeb5659c	-0.35429084
140	0xbe2bfeab	-0.16796367
141	0x3f4c4df5	0.79806453
142	0x3faa593c	1.3308482
143	0x3e8dafac	0.2767309
144	0xbf129af5	-0.57267696
145	0x3f8d9eba	1.1064065
146	0xbfac3a53	-1.3455299
147	0xbf39b077	-0.7253489
148	0xbe0b5bc5	-0.13609226
149	0xbf0b3626	-0.543795
150	0xbf9bdcee	-1.2176797
151	0xbea816ed	-0.3282999
152	0xbf07a5dd	-0.5298746
153	0x3f2a5893	0.66541404
154	0xc0334795	-2.801244
155	0xbf409568	-0.75227976
156	0x3e11d450	0.14241147
157	0xbe7de7fe	-0.24795529
158	0xbd3657d2	-0.044517346
159	0xbdc15743	-0.09440472
160	0xbe044741	-0.12917806
161	0x3d11dfc0	0.035613775
162	0xc0e23ec2	-7.070161
163	0xbf4ba284	-0.79544854
164	0xbe333779	-0.1750163
165	0xbeaf85e5	-0.3428184
166	0xbfc18bcc	-1.5120788
167	0xbf0dff72	-0.55467904
168	0xbf31bc83	-0.6942827
169	0xbf7ad205	-0.97976714
170	0xbfe6d447	-1.8033532
171	0xbf5cc5e7	-0.86239475
172	0xbec10b17	-0.37703773
173	0x3ec13010	0.3773198
174	0x40501593	3.2513168
175	0x3ed00469	0.40628365
176	0xbe7c9f57	-0.24670158
177	0xbe105610	-0.1409533
178	0x3eec9b8b	0.4621242
179	0xbe5f672f	-0.21816705
180	0xbf48cf33	-0.7844116
181	0xbf04e3c6	-0.51910055
182	0xc02facd9	-2.7449248
183	0xbe47fbca	-0.19529644
184	0x3ee43515	0.44571748
185	0x3f26b001	0.6511231
186	0x4046d57e	3.1067805
187	0x3f137e52	0.57614625
188	0xbed1e5cb	-0.4099563
189	0x3df2a210	0.11847317
190	0x3f045188	0.51686907
191	0x3c06df08	0.008231886
192	0xbf074b4e	-0.5284928
193	0xbf73d9b0	-0.9525404
194	0xbfadd61f	-1.358097
195	0xbd094de0	-0.033521533
196	0xbea26b5e	-0.3172254
197	0x3ec7fae5	0.39058605
198	0xbec0064b	-0.375048
199	0x3e058719	0.13039817
200	0xbf8580bc	-1.0429912
201	0x3f13692e	0.57582366
202	0x3f798d8e	0.9748162
203	0x3ed977ac	0.42474115
204	0xbef0a8a7	-0.47003672
205	0x3f0a00e0	0.53907585
206	0x3c18c573	0.009324419
207	0x3f2037d0	0.62585163
208	0xbfb4e9a9	-1.4133807
209	0xbb4c08c0	-0.0031133145
210	0xbef0a771	-0.47002748
211	0x3d45420d	0.048158694
212	0xbdf93e19	-0.12170047
213	0x3ce7db26	0.02830274
214	0x3ddd1f9e	0.10797046
215	0x3e68aa14	0.2272113
216	0xbe6fee40	-0.23430729
217	0xbfe4e6e4	-1.7882962
218	0xc096657a	-4.6998873
219	0xbf91a7ae	-1.1379297
220	0xbf36bbd0	-0.7138033
221	0x3f9fa2f4	1.2471604
222	0x40467161	3.10067
223	0x3f906752	1.1281531
224	0xbee3f95e	-0.4452619
225	0x3f0e47b1	0.5557814
226	0x3e641dd8	0.2227701
227	0x3e2bbce6	0.16771278
228	0xbeae7833	-0.3407608
229	0x3e92d681	0.28679278
230	0x3e449ac9	0.19199671
231	0x3ed10ca3	0.40829954
232	0xbe8fb8bc	-0.2807063
233	0x3e94a01a	0.29028398
234	0x3f2afd8a	0.6679312
235	0x3dc5327b	0.09628769
236	0xbf255d7c	-0.6459577
237	0x3f5ba949	0.85805184
238	0x3f8dc31a	1.1075165
239	0x3f545750	0.8294573
240	0xbeaadd0f	-0.3337178
241	0x3f092daa	0.535853
242	0xbe9eb889	-0.31000164
243	0x3d84d41b	0.064857684
244	0x3ddede3a	0.1088223
245	0xbedd514a	-0.4322608
246	0x3ec2781c	0.3798226
247	0xbe96ac23	-0.29428205
248	0xbe1d2a71	-0.15348221
249	0x3d93121b	0.07181188
250	0xbe3ac995	-0.1824096
251	0x3e758984	0.2397824
252	0x3f79eb75	0.97624904
253	0x3e00a952	0.1256459
254	0x3f9d2aa4	1.2278638
255	0x3dc2c7b5	0.09510747

linear.bias f4 [512]
0	0x3d6764e1	0.05649269
1	0x3f8ab2ce	1.0835817
2	0x3f431cb9	0.762157
3	0x3f06a314	0.5259259
4	0x3f8376b4	1.02706
5	0x3e0700e1	0.13183929
6	0x3f58bbdb	0.84661645
7	0x3f504693	0.8135769
8	0x3f83d215	1.0298487
9	0x3f93f301	1.1558534
10	0xbfeccc09	-1.8499767
11	0x3f811a86	1.0086219
12	0x3f7c869e	0.9864291
13	0x3f87fc19	1.0623809
14	0xbddb7e3c	-0.10717437
15	0x3e9eba75	0.3100163
16	0x3f4585bb	0.7715718
17	0x3fb2bcea	1.3963902
18	0x3f344efb	0.70433015
19	0xbfca7443	-1.581673
20	0xbe9aefc9	-0.30261067
21	0x3f400e78	0.7502208
22	0x3f5c95b3	0.8616592
23	0x3f9aa4c4	1.2081532
24	0xbdbab698	-0.09116858
25	0xbe2d659c	-0.16933292
26	0x3e8bca58	0.27302814
27	0x3ed12840	0.4085102
28	0x3f8dcd50	1.1078281
29	0xbea8adca	-0.3294509
30	0x3f6277cb	0.8846404
31	0x3fa1f96f	1.2654246
32	0xbe8b1ad7	-0.27168915
33	0x3f2949eb	0.66128415
34	0xbf779e4d	-0.9672592
35	0x3f74d182	0.95632184
36	0x3dc02db7	0.093837194
37	0x3f177aaa	0.59171546
38	0x3f31e9f2	0.694976
39	0x3f92e0bf	1.1474837
40	0x3fa7027e	1.3047636
41	0xbf9d687d	-1.2297512
42	0xbe5cae8d	-0.21550961
43	0xbeaf6e24	-0.34263718
44	0x3f9d648d	1.2296311
45	0x3e775d11	0.24156596
46	0xbf82b28c	-1.0210738
47	0xbf8d6001	-1.1044923
48	0xbe9f7922	-0.31147105
49	0x3f768d64	0.96309495
50	0xbe6db72d	-0.23214407
51	0x3f96b8a4	1.1775098
52	0xbe4c6484	-0.19960219
53	0x3f4feaab	0.8121745
54	0x3f0cb259	0.54959637
55	0xbf1d0c26	-0.6134666
56	0x3f979021	1.184086
57	0x3f84db37	1.0379399
58	0x3f841068	1.0317507
59	0xbf66e52f	-0.90193456
60	0x3f976e2f	1.18305
61	0x3f89498b	1.0725569
62	0x3f561c1a	0.8363663
63	0xbfe03c87	-1.7518471
64	0x3f815e5a	1.0106919
65	0x3f8d93e4	1.1060758
66	0x3f44be73	0.768531
67	0xbd7cf455	-0.06175645
68	0xbfc41b13	-1.5320762
69	0x3ce2368e	0.027613904
70	0x3f8c08d3	1.0940193
71	0xbe55632f	-0.20838617
72	0x3e8daecb	0.2767242
73	0x3f84f4c4	1.0387197
74	0x3f6c5719	0.923204
75	0x3f4546c3	0.770611
76	0x3e1f657a	0.15566054
77	0x3f863c9c	1.0487247
78	0x3f97cc8e	1.18593
79	0x3f8a642d	1.0811821
80	0x3f9743c1	1.1817552
81	0x3f1fa065	0.6235412
82	0x3fd8d9ea	1.6941502
83	0x3f9524de	1.1651876
84	0x3f32bc80	0.6981888
85	0x3f60e4d5	0.8784917
86	0x3d1a7699	0.03771076
87	0x3f7e8cd4	0.99433637
88	0x3f952d1d	1.1654392
89	0xbee99d21	-0.45627692
90	0x3f6f721c	0.9353349
91	0x3f955c92	1.1668875
92	0xbed1bdd6	-0.40965146
93	0x3f818e32	1.012152
94	0x3efc577f	0.49285504
95	0x3f09c6c0	0.53818893
96	0xbedbfb0d	-0.42964974
97	0x3f699868	0.9124818
98	0xbdfaa8e9	-0.12239248
99	0xbf466f03	-0.7751314
100	0xbe279c7f	-0.16368292
101	0x3f006f00	0.5016937
102	0x3f923ce8	1.1424837
103	0x3f9eccc1	1.2406236
104	0x3f852999	1.040332
105	0x3f2f913b	0.6858098
106	0x3f823920	1.0173683
107	0x3f471b5c	0.7777612
108	0x3f883d4a	1.0643704
109	0x3fa63c18	1.2987089
110	0xbede8276	-0.4345891
111	0x3ea9c936	0.33161324
112	0x3f8e9d37	1.1141728
113	0x3e5473d2	0.20747307
114	0x3f88cc6d	1.0687386
115	0x3e8b1277	0.27162525
116	0xbf858dbb	-1.0433878
117	0xbf8942dc	-1.0723529
118	0x3f835a86	1.0262
119	0xbe771aaf	-0.24131273
120	0x3f077839	0.5291782
121	0x3f8eae44	1.1146932
122	0xbf8c2634	-1.0949159
123	0xbe2fdb78	-0.17173564
124	0x3f80335f	1.0015677
125	0x3f6854a1	0.90754133
126	0xbeb2b764	-0.3490554
127	0x3f8576cc	1.0426879
128	0x3f8556fa	1.0417168
129	0xbf6a1cc7	-0.9145016
130	0x3f892df6	1.0717151
131	0xbecbd2d6	-0.39809293
132	0x3f3a116f	0.7268285
133	0x3f24a260	0.64310265
134	0x3f5b0f41	0.8557015
135	0xbf91378b	-1.1345075
136	0x3e46e9bd	0.19425102
137	0x3faac1fc	1.3340449
138	0x3f3c81ce	0.73635566
139	0x3f37648b	0.7163779
140	0x3d6fb09a	0.05851803
141	0xbe09f016	-0.13470492
142	0x3f0905e8	0.5352464
143	0x3efcde7e	0.49388498
144	0x3c89a1b7	0.016800744
145	0x3f68a12f	0.90870947
146	0x3f194afc	0.5988004
147	0x3f8f7a3f	1.1209182
148	0x3f7cf212	0.9880687
149	0xbfcda132	-1.6064818
150	0xbfc4e5a8	-1.5382586
151	0xbf6b2bcc	-0.91863704
152	0x3f8b6db3	1.0892853
153	0xbeb3091c	-0.34967887
154	0x3f8cd9d8	1.1003981
155	0x3f9ead06	1.2396553
156	0xbf9cd53c	-1.2252574
157	0x3f8a1c97	1.0789975
158	0x3f376414	0.7163708
159	0x3e30140f	0.17195152
160	0xbfa83179	-1.3140098
161	0xbd99fe14	-0.07519165
162	0x3f14385d	0.57898504
163	0x3d1cc012	0.03826911
164	0x3f93831e	1.1524389
165	0x3f65e424	0.8980124
166	0x3f9d476f	1.2287425
167	0x3f941bad	1.1570946
168	0x3f89d46d	1.0767952
169	0xbebfbbe6	-0.37448043
170	0x3f24cfbc	0.6437948
171	0xbfb7be78	-1.4355001
172	0x3fa08bfe	1.2542722
173	0x3f0290fa	0.51002467
174	0xb8c0b03f	-9.188102e-05
175	0xbd6e79d9	-0.05822167
176	0xbfbf4931	-1.4944211
177	0xbfa4e6e4	-1.2882962
178	0x3f3fa3f4	0.7485955
179	0xbf69ea80	-0.91373444
180	0x3fa97bf4	1.3240952
181	0x3f69c172	0.913108
182	0xbeb07cf3	-0.3447033
183	0xbfb3c059	-1.4043075
184	0x3f50938a	0.81475127
185	0x3d47e480	0.0488019
186	0x3da073dd	0.07834599
187	0x3f8fdefb	1.1239923
188	0x3f97684e	1.1828706
189	0x3f93a409	1.1534435
190	0x3fa50ae8	1.2893953
191	0x3f5ef116	0.8708662
192	0xbf9a8721	-1.2072488
193	0xbff35d87	-1.9012917
194	0xbfad09a3	-1.3518566
195	0x3f49fc8b	0.78900975
196	0x3fb38a6e	1.402662
197	0x3f88c3a2	1.0684702
198	0x3fb664bd	1.4249493
199	0x3f1cebbc	0.612972
200	0x3fa547c0	1.2912521
201	0xbea7c4e9	-0.32767418
202	0x3f5d06cc	0.86338496
203	0x3f8b33b8	1.0875158
204	0x3f9a18e1	1.2038842
205	0x3f9fcc4d	1.2484223
206	0x3f6d2752	0.92638123
207	0x3f53de3d	0.82760984
208	0x3f8424b6	1.0323703
209	0x3f0346bf	0.51279825
210	0x3f2c237f	0.6724166
211	0x3f996bab	1.1985983
212	0xbf2dc2ff	-0.67875665
213	0x3fa12cc3	1.2591785
214	0x3f8b37b3	1.0876373
215	0x3d574dd7	0.05256447
216	0x3f8acdf0	1.0844097
217	0xbe00f6ac	-0.12594098
218	0xbe62b96e	-0.22141048
219	0x3f92bd32	1.1463988
220	0xbf7c40f6	-0.9853662
221	0xbde00ad3	-0.109395646
222	0x3f9b81c2	1.2148974
223	0x3f5ed842	0.87048733
224	0x3f18b9cd	0.5965851
225	0xbd5f9d07	-0.054593112
226	0x3f59eea9	0.8512979
227	0x3f7d1431	0.98858935
228	0x3f842560	1.0323906
229	0xbebadda9	-0.36497238
230	0x3e9314e7	0.28726885
231	0x3f7f30e2	0.99683964
232	0x3f939cad	1.1532189
233	0x3c19edbd	0.00939506
234	0xbfa42a08	-1.2825327
235	0x3ecb6b07	0.39730093
236	0x3f63bce1	0.8896008
237	0x3f2126d4	0.6294987
238	0xbf9ce409	-1.2257091
239	0x3f6f4b20	0.93474007
240	0xbf2f2f8e	-0.6843194
241	0x3f2e4137	0.6806826
242	0xbe114d00	-0.1418953
243	0x3f65d3ba	0.89776194
244	0x3f995ec5	1.1982046
245	0x3ecc1d2a	0.39866
246	0x3f2a70b1	0.66578203
247	0xbdcc5b99	-0.09978408
248	0x3f5decf5	0.8668969
249	0x3f725fb1	0.94677263
250	0x3f8976b6	1.0739353
251	0xbfa794de	-1.3092306
252	0xbd2380f5	-0.039917905
253	0xbf9615cc	-1.1725402
254	0xbe9dff68	-0.30858922
255	0x3f88cb72	1.0687087

linear2.weight f4 [2, 512]
0	0xbffd266e	-1.9777353
1	0xbfc25a23	-1.5183758
2	0xbf43c8c0	-0.76478195
3	0x3ed78e68	0.42100835
4	0x3f3fac5a	0.7487236
5	0xc041a5f2	-3.0257535
6	0xbe78e407	-0.24305736
7	0x3f27f0f4	0.6560204
8	0x3f1e587e	0.6185378
9	0x3eee949f	0.46597764
10	0xc031f729	-2.7807105
11	0x3efc9268	0.4933045
12	0x3efa2e35	0.48863378
13	0x3f32b0da	0.69801104
14	0xbfc73d00	-1.5565491
15	0x3f462868	0.77405405
16	0x3ef4585e	0.4772367
17	0x3f2b31e7	0.6687302
18	0xbf82f6c2	-1.0231555
19	0xc039e597	-2.904638
20	0xc0188247	-2.3829515
21	0xbf02a8a5	-0.5103858
22	0x3ee4edae	0.44712585
23	0x3f27fa96	0.6561674
24	0xbf3ef93f	-0.7459907
25	0x3f90f640	1.132515
26	0x3efb928a	0.49135238
27	0xbf07bd1a	-0.5302292
28	0x3f3eeaaa	0.7457682
29	0xbf70aab5	-0.9401048
30	0x3f07ee58	0.5309806
31	0xbfac8408	-1.3477793
32	0x3fd074fe	1.6285703
33	0xbfc57459	-1.5426131
34	0xc0bdf209	-5.9357953
35	0x3f24b697	0.6434111
36	0xbf0a4586	-0.54012334
37	0x3f212530	0.6294737
38	0xbf847e53	-1.0351051
39	0x3eddbfc3	0.43310365
40	0xbf85d289	-1.0454875
41	0xc02c743e	-2.6945949
42	0x3f1559fe	0.5834044
43	0xbfde0d8b	-1.7347883
44	0x3f0f96d8	0.56089544
45	0x3f893385	1.0718848
46	0xc0105824	-2.2553797
47	0xbf8b5685	-1.0885779
48	0x3f01fd9d	0.5077761
49	0x3f0f4715	0.5596784
50	0xbfd39caf	-1.6532191
51	0x3f0567da	0.5211159
52	0xbfc2d9f4	-1.5222764
53	0x3f0b72c6	0.54472005
54	0xbfaba55e	-1.3409841
55	0xc007c8ee	-2.1216388
56	0x3f133cd4	0.5751469
57	0x3edd230f	0.4319081
58	0x3f45aade	0.7721385
59	0x3f7e5455	0.9934743
60	0x3f1b2ba6	0.6061348
61	0x3eddf690	0.43352175
62	0x3f0b3c91	0.5438929
63	0xc082f01b	-4.0918097
64	0x3f4349b1	0.7628432
65	0x3ed4a0c8	0.41528916
66	0x3f015054	0.50513196
67	0xbf54e8b3	-0.8316757
68	0xc02d68cc	-2.7095213
69	0xbf10e521	-0.5659962
70	0x3edd7e52	0.43260437
71	0xbed03cd2	-0.40671402
72	0xbfd4516f	-1.6587352
73	0x3f25520a	0.64578307
74	0xc00b7442	-2.1789708
75	0x3f0709ab	0.5274913
76	0xc02af5f8	-2.6712627
77	0x3f1b724b	0.6072127
78	0x3eecec44	0.46274006
79	0x3f009508	0.50227404
80	0x3f092efc	0.5358732
81	0xbf8f5d19	-1.1200286
82	0xc0011d87	-2.0174272
83	0x3efde711	0.49590352
84	0xbf81e1fb	-1.0147089
85	0x3f017037	0.5056185
86	0xbfd1c1c4	-1.6387258
87	0x3f00352d	0.5008114
88	0x3f104ca2	0.5636693
89	0x3b883b72	0.004157477
90	0x3efab2f1	0.48964646
91	0x3f40c3ea	0.7529894
92	0xbf5d7bcc	-0.86517024
93	0x3f0c651a	0.5484177
94	0x3fbe0a30	1.4846859
95	0xbfacecba	-1.3509743
96	0xc088b64d	-4.2722535
97	0xbfd4d27e	-1.6626737
98	0x3f97fae1	1.1873437
99	0xbd49fa05	-0.049310703
100	0xbf472c49	-0.7780195
101	0x4027fc87	2.624788
102	0x3f142ee7	0.5788407
103	0x3f15eabe	0.58561313
104	0x3ef560b5	0.47925344
105	0x3ecca7a7	0.3997166
106	0x3eed3dfc	0.46336353
107	0x404aa2d1	3.1661875
108	0x3f1b6b3e	0.60710514
109	0x4001f147	2.0303514
110	0xbe397510	-0.18111062
111	0xbfa42892	-1.2824881
112	0x3ef19068	0.47180486
113	0x3de6685f	0.11250376
114	0xbfa7becf	-1.3105105
115	0x3f7d9ba8	0.9906564
116	0xbfe9c78f	-1.8264025
117	0xc022750c	-2.538394
118	0x3f17e6c5	0.593365
119	0x3f8029f5	1.0012804
120	0x3f16332f	0.5867185
121	0x3ef86e52	0.48521668
122	0xc00fb36d	-2.2453263
123	0xbf5c3067	-0.86011356
124	0x3e943fa7	0.28954813
125	0x3f590516	0.84773386
126	0x40477c2d	3.116954
127	0x3f04f53c	0.519367
128	0x3f100f59	0.5627342
129	0x3f7dfc41	0.99213034
130	0xbf0ed2ee	-0.55790603
131	0xbe3d49f8	-0.18485248
132	0xbfbda2bd	-1.4815289
133	0x4019fa7d	2.4059136
134	0x3f213fa9	0.6298776
135	0xc034f4ea	-2.8274484
136	0xbfc56fda	-1.5424759
137	0x3f27e2c5	0.655804
138	0xbdb06356	-0.08612697
139	0x3f23fed3	0.64060706
140	0x4013877c	2.3051443
141	0x3f9d8799	1.2307006
142	0xbf116fb7	-0.5681109
143	0xbc6efafa	-0.014586205
144	0xbf90522b	-1.1275076
145	0xbfb3852f	-1.402502
146	0x3f022d0b	0.5084998
147	0x3f404fed	0.7512196
148	0x3f9998f0	1.1999798
149	0xc0965e8f	-4.699043
150	0xc05bae99	-3.4325316
151	0xc0267f18	-2.6015072
152	0x3f202b1a	0.6256577
153	0xc021e975	-2.529874
154	0x3f010117	0.5039229
155	0x3f2b8c29	0.6701074
156	0xbffb1e27	-1.9618577
157	0x3ed728f1	0.42023423
158	0xbf559a57	-0.8343863
159	0xbf773009	-0.9655767
160	0xbfc1492c	-1.5100455
161	0x3f472569	0.7779146
162	0x3f35bda2	0.7099248
163	0xbf22dcd4	-0.63618207
164	0x3f082d4e	0.5319413
165	0xbfc9a9f3	-1.5754989
166	0x3ef5b9c1	0.4799328
167	0x3f245d18	0.6420455
168	0x3eff5da2	0.49876124
169	0x3fcb3543	1.5875629
170	0xc063050a	-3.5471826
171	0xc0064bd4	-2.0983782
172	0x3f2c383d	0.6727331
173	0x3fef2cf3	1.8685592
174	0xbf4ad800	-0.7923584
175	0x3efaa4b0	0.48953772
176	0xc02e3b1c	-2.7223577
177	0xc06b6af6	-3.6784034
178	0x3eb7185c	0.35760772
179	0xbfe7528c	-1.8072066
180	0x3ee45821	0.44598487
181	0xbffc1d03	-1.9696354
182	0x40027b9a	2.038794
183	0xc08a5b20	-4.3236237
184	0x3f3b2e48	0.73117495
185	0x3f88172b	1.063207
186	0x3f167a88	0.5878072
187	0x3f003fdf	0.5009746
188	0x3ed4b5de	0.41545004
189	0x3f38dc5a	0.7221123
190	0x3f047beb	0.51751584
191	0x3ecb491e	0.3970422
192	0xbf56c70a	-0.8389746
193	0xc0797c1e	-3.8982005
194	0xbfc40452	-1.5313818
195	0xbf3b24bd	-0.73102933
196	0xbf9ddc1f	-1.2332801
197	0x3f1077c7	0.56432766
198	0xbf94e1fd	-1.1631466
199	0x4008268f	2.1273534
200	0x3fb198d2	1.3874762
201	0xbe1cf9f1	-0.1532972
202	0x3f407de2	0.7519208
203	0x3ee79347	0.4522955
204	0x3f03ae52	0.51437867
205	0x3ef5beb4	0.47997057
206	0xbf8db4a8	-1.1070757
207	0x3f41cdda	0.7570473
208	0x3f0435dd	0.5164469
209	0x3f3b9a41	0.7328225
210	0xbf4b57e0	-0.7943096
211	0x3ef1c2f0	0.47219038
212	0xbfe98916	-1.824496
213	0xbfab79e7	-1.3396577
214	0x3f235be9	0.6381212
215	0x3f86d1e6	1.0532806
216	0x3f0ce45b	0.5503594
217	0xbfc64c8c	-1.549211
218	0x3f5feb46	0.87468374
219	0x3f8eba2f	1.1150569
220	0xbfeb0bf5	-1.8363024
221	0x3fcce8ff	1.6008605
222	0x3ef694d8	0.48160434
223	0x3f448b8e	0.76775444
224	0x3ee9279c	0.45538032
225	0x3f6bc969	0.921042
226	0x3f1f20ee	0.6215962
227	0x3f0dafbd	0.5534628
228	0xc01be053	-2.4355667
229	0xbf26cb4f	-0.65153974
230	0x3fd8180a	1.6882336
231	0x3f440d34	0.76582646
232	0x3f3824dc	0.7193124
233	0xbf876511	-1.0577718
234	0xbe92eacd	-0.28694764
235	0x3f1ec2c4	0.6201594
236	0x3f3a8f28	0.7287469
237	0x3f10ced5	0.565656
238	0xbfca8151	-1.5820714
239	0x3f00eaa5	0.5035804
240	0xc046d6f9	-3.106871
241	0xbfe4cd67	-1.7875184
242	0x401e89bc	2.4771566
243	0x401781f6	2.3673072
244	0x3f339441	0.7014809
245	0x402def09	2.7177145
246	0x3f2bcbf9	0.6710811
247	0xc05b6efc	-3.428649
248	0x3f0bd683	0.54624194
249	0x3f01fec5	0.5077937
250	0x3f3990c4	0.7248652
251	0xc02390c9	-2.555712
252	0xbfe65aa8	-1.7996416
253	0x3fd0b276	1.6304462
254	0x405be733	3.4359863
255	0x3ecd7269	0.4012635

linear2.bias f4 [2]
0	0x3edd8e73	0.43272743
1	0x3ef02f36	0.4691102
