Reinforcement_Learning/exp2/pretrained_model/1_DDQN_DQN/2176000.pth (torch, 15839 bytes, 4 tensors)

linear.weight f4 [512, 4]
000000 93 52 88 3f f7 a3 a6 3f c1 59 77 40 f1 12 7a 3f
       1.06502 1.3018788 3.8648531 0.9768515
000010 f9 97 35 bf 32 a1 cd bd f6 57 4a be d0 70 4b bd
       -0.70935017 -0.10040511 -0.19760117 -0.049668133
000020 bf 86 11 3f 52 be b8 be 0d de e7 bf 4d 92 c5 be
       0.5684623 -0.36082703 -1.811464 -0.3858818
000030 1a 01 f1 3d 95 3e 44 be 44 f0 98 be 63 ed 1a bf
       0.11767788 -0.19164498 -0.29870808 -0.60518473
000040 18 88 4b 3f 4e 30 8c 3f 76 92 e3 3f c8 e9 f7 3e
       0.7950454 1.0952241 1.7779071 0.48420548
000050 3c 1e 83 bf b4 11 8d 3f 2e 14 87 40 5a 2f c0 3f
       -1.0243602 1.1021028 4.2212133 1.501445
000060 41 90 1b 3f 3e 7d 52 bf 94 3f 17 c0 f7 8f c6 be
       0.6076699 -0.82222354 -2.3632555 -0.3878171
000070 5e 10 72 3f 22 e8 22 3f 7a 08 1a c0 40 99 38 bf
       0.94556224 0.63635457 -2.4067674 -0.7210884
000080 8c a4 c7 bd b3 6b 0f bf 4e c0 62 bf 20 0a a9 be
       -0.09748182 -0.5602371 -0.88574684 -0.33015537
000090 4e 33 00 bf d9 24 05 3f fd bf 1b 3f ac 14 c7 3e
       -0.50078285 0.5200935 0.60839826 0.3888296
0000a0 81 4a 95 3e b3 fc 08 bf 9d 93 c7 bf e3 75 d3 be
       0.29158404 -0.5351059 -1.5591923 -0.41300878
0000b0 02 02 a9 3d bd 3f 38 be ad ce 2d 3f 61 0c 48 3e
       0.08252336 -0.17993064 0.6789349 0.19535972
0000c0 7d 7a 61 be 68 44 be be 4c 56 4a be d4 1f 36 bf
       -0.22019382 -0.37161565 -0.19759482 -0.71142316
0000d0 3f 69 8e bd f3 c3 22 be 71 22 cc 3c ab cb 6f be
       -0.06953668 -0.15895061 0.024918767 -0.23417537
0000e0 75 f6 8f 3f d6 32 34 3f be 07 c3 3f cc e7 03 3f
       1.1247088 0.7039007 1.5236738 0.5152557
0000f0 04 86 8f 3f a8 57 50 3f a9 6b 4d 3f 00 6d 7f 3e
       1.1212773 0.8138375 0.802424 0.24943924
000100 88 a6 22 be 6d ef 88 3e 6d ce b5 bf b3 08 bf 3c
       -0.15883839 0.26745167 -1.4203621 0.023319578
000110 ba 81 14 be 43 2f 4c 3e 67 c1 3c bf 92 5c 95 bd
       -0.14502612 0.19939904 -0.7373261 -0.07293047
000120 19 24 67 be 60 50 09 3f b7 63 85 40 18 a7 9b 3f
       -0.22572364 0.5363827 4.168422 1.2160368
000130 39 91 80 3f d5 83 c3 3e 38 06 42 3f de 9f 90 3e
       1.0044318 0.38186517 0.7579074 0.2824697
000140 ea 42 cb bc c7 a2 5c be f8 13 1a c0 52 68 f2 be
       -0.02481218 -0.2154647 -2.4074688 -0.47345215
000150 90 44 ab 3d 08 71 95 be ec af 8c c0 5c 01 72 bf
       0.08362687 -0.29187799 -4.396475 -0.94533324
000160 0d 27 bc 3d 52 1c 8a be de 8d 0e 3f a6 d1 c0 bd
       0.09187136 -0.26974732 0.5568522 -0.09414987
000170 34 33 44 3d 20 b8 be bd cf 27 59 bf 2a cf 11 be
       0.047900394 -0.09312463 -0.8482637 -0.14239183
000180 d6 84 c2 3f 92 3f b2 3f c8 a8 6a 40 83 c9 7e 3f
       1.5196788 1.392565 3.6665516 0.9952623
000190 24 dd ae bc 2c bd 82 3e 1a 75 49 3f cb 0f 49 3e
       -0.021345682 0.25534952 0.7869431 0.19634931
0001a0 66 b1 c0 be 5c 1e 33 3e 16 d5 eb be db 90 e0 bd
       -0.37635344 0.1749205 -0.4606101 -0.10965129
0001b0 f9 a2 39 3d 21 59 a9 3e 9b 72 6a 40 6b 1c 37 3f
       0.04532144 0.33075812 3.663245 0.7152774
0001c0 3b 53 17 bf 10 29 2f bd 51 e3 d8 3f 17 57 0d 3e
       -0.59111375 -0.04276377 1.6944371 0.13802753
0001d0 71 92 32 be 70 9d 3d be 1f 6b 69 bf dc 47 07 bf
       -0.17438675 -0.18517089 -0.9117908 -0.52844024
0001e0 d7 bb eb 3f 33 56 86 3f 69 27 ec 3d 08 2c d3 3e
       1.8416699 1.0495056 0.115309544 0.4124453
0001f0 24 6a db be 8d db 86 3d 31 e0 5d bf c7 ce 3f 3e
       -0.42854416 0.06584845 -0.86670214 0.18731223
000200 e5 5a 80 bf c8 ce 68 bf 99 5e 0e c0 ec e4 1b bf
       -1.0027739 -0.90940523 -2.2245238 -0.6089618
000210 d2 8e 26 bf 5c 72 88 bf 3b 2c d5 bf 42 f8 e3 be
       -0.65061677 -1.06599 -1.6654123 -0.44525343
000220 e3 b0 80 bf 2e f2 dd be 3a 95 ab bf 50 77 ec be
       -1.0053982 -0.4334883 -1.3404915 -0.46184778
000230 7e 1d d0 bd 5a 7c 1d bc 79 33 67 bf 1b 19 82 3d
       -0.10161875 -0.009612167 -0.90312916 0.06352445
000240 58 32 28 bf 8e 43 f8 bd 21 c6 d7 bf 16 2b bd be
       -0.6570182 -0.1212226 -1.6857339 -0.36946934
000250 95 2d 1d 3d c0 63 b2 bf d0 8b 5a c0 81 b8 2c bf
       0.03837355 -1.3936691 -3.4147835 -0.6746903
000260 b2 6d 8f 3e e0 9e bb be 99 2b 5a c0 7a 7a 10 be
       0.28013378 -0.3664465 -3.408911 -0.14109221
000270 53 fa f5 3d 9f 62 ef be 29 35 97 be 96 8e 6c be
       0.12010636 -0.4675493 -0.29532745 -0.23101267
000280 36 6d cc 3d 44 69 89 3f c8 b9 d6 3f 13 95 86 3f
       0.09981768 1.073525 1.6775446 1.0514244
000290 e9 bb 51 bf 43 a1 3c be 66 4c 00 be 91 b9 1b be
       -0.81927353 -0.18420891 -0.12529144 -0.15207507
0002a0 40 c7 6f bf 1f 22 0d bf d5 89 43 bf f2 2e e9 be
       -0.93663406 -0.5513019 -0.7638219 -0.4554363
0002b0 e4 8f ab 3e df ac 85 bd 24 b7 21 40 61 53 02 3f
       0.33508217 -0.06527113 2.526803 0.50908476
0002c0 18 18 78 be e1 95 bf be 16 67 46 3e ff 53 f1 be
       -0.24227941 -0.37419036 0.19375262 -0.47134396
0002d0 3b e8 d0 3f 44 0f 34 3f bc 11 ae bf 3b 0d c2 be
       1.6320871 0.70335793 -1.3599162 -0.3790072
0002e0 ef c0 65 3f 81 23 90 3f 40 67 4d 3f 67 a2 bd 3e
       0.8974752 1.1260835 0.8023567 0.37037966
0002f0 f7 e6 c3 bf 16 a7 26 bf 01 8c f3 bf 53 8b e2 be
       -1.530486 -0.650987 -1.9027101 -0.4424692
000300 63 7c 9c be aa a3 1d 3e 7d 2a e0 be 67 54 ee bc
       -0.3056365 0.15394464 -0.43782416 -0.02909298
000310 55 81 9a bf 10 f6 af 3e 6b c2 0c be 4c b9 b7 3e
       -1.2070719 0.34367418 -0.1374604 0.35883558
000320 d4 29 84 3e f1 a5 49 3e e8 b6 67 c0 f9 2e 3f be
       0.25813162 0.19692208 -3.6205387 -0.18670262
000330 45 fd a8 be 78 52 00 3f 65 97 3b 3e 6a ec f3 3e
       -0.3300573 0.5012584 0.18319471 0.47641307
000340 23 88 64 bf 10 29 45 bf 77 92 be bd fb b7 fe be
       -0.8927023 -0.7701578 -0.0930528 -0.4974974
000350 5e 0d 26 be 81 cb b0 3e ee 62 35 c0 69 70 da 3c
       -0.16216037 0.3453026 -2.8341632 0.02666493
000360 ba b9 17 bf 47 c8 91 bf 90 b4 40 c0 1e ec 6a bf
       -0.5926777 -1.1389245 -3.0110207 -0.91766536
000370 7b a8 04 40 43 b0 3b 3f 52 af 42 40 98 7b 4d 3f
       2.0727832 0.7331583 3.0419507 0.80266714
000380 a3 49 c7 be 19 36 cc 3e 00 5c b6 be fe 18 4d 3e
       -0.38923368 0.39885023 -0.35617065 0.20029065
000390 c7 46 22 bf a4 28 6f bf 31 11 cb 3d 82 49 97 be
       -0.6338925 -0.9342139 0.099153884 -0.2954827
0003a0 4b e9 e4 3e 00 19 be 3d 14 9a 04 c0 fe 37 a7 bd
       0.44709238 0.09282112 -2.0719042 -0.081649765
0003b0 72 15 e5 3e 82 fd 77 3f 98 76 68 bf 3a 5f a4 be
       0.44742924 0.968712 -0.9080596 -0.32103902
0003c0 86 1a 1e 3e 73 37 e8 3f ef c4 54 bf 53 15 12 3f
       0.15439805 1.8141922 -0.83112997 0.5706379
0003d0 e0 e7 35 ba 97 b7 15 bf 32 ad 6d bd 72 2e eb be
       -0.0006939154 -0.5848326 -0.0580265 -0.45933872
0003e0 2a 04 ae 3d 87 8d 9d be 8a 1d c5 be 65 ed 90 bb
       0.08496888 -0.3077204 -0.384991 -0.004422831
0003f0 d2 95 ae bc 29 b2 2f 3e e5 93 8d 3e 64 6a d8 3e
       -0.021311674 0.17157806 0.27651897 0.4226867

linear.bias f4 [512]
000000 f5 9c c0 3e 34 42 c6 3e a6 4a 8d 3f 77 c6 35 3f
       0.3761975 0.38722384 1.1038406 0.7100596
000010 c5 83 81 3f 9a 43 d8 bd 5a 40 7c 3f c3 8c 38 bf
       1.0118338 -0.10559769 0.9853569 -0.72089785
000020 ad 77 a8 3f 7c 20 97 3f 35 af ba bf 92 12 7b 3f
       1.3161522 1.1806788 -1.4584719 0.9807521
000030 73 04 81 3f b4 5b 50 3f a8 d4 1a 3f dc 60 fe be
       1.0079483 0.8138993 0.6048074 -0.49683273
000040 02 03 76 3f 2f c6 8e 3f ed a2 88 3f 7c 5b 02 c0
       0.9609834 1.1154231 1.0674721 -2.0368338
000050 b8 96 ba bf 02 ef 31 3f f7 16 52 3f fe 20 92 3f
       -1.4577246 0.6950532 0.8206629 1.1416318
000060 e9 cc 09 3f 04 9a 85 3f fc 70 b0 3f e4 c4 7c 3f
       0.53828293 1.0437627 1.378448 0.9873793
000070 a4 b6 2c 3f 44 b8 ac bf 96 1a 1e bf 44 6b 4f 3f
       0.6746619 -1.3493733 -0.61759317 0.8102305
000080 4e cd 41 bf b5 48 c0 3e 07 84 17 3f 33 cb 74 3f
       -0.75703895 0.3755547 0.5918583 0.9562256
000090 0e 2c 61 3f 9a 4a 23 3e 09 41 5a 3f 4b b7 96 3f
       0.8795785 0.15946427 0.85255486 1.1774687
0000a0 47 ff 8f bf fd b9 9c 3e fc 30 8c 3e f0 4b 84 3f
       -1.124978 0.30610648 0.27381122 1.0335674
0000b0 24 0f a9 3f 0a 0d 42 3e 76 d4 11 be 15 8a 34 3f
       1.3207746 0.18950287 -0.14241204 0.70523196
0000c0 1f fa 93 3f a3 51 85 3e b4 df 0d 3f 5a 43 a9 3f
       1.1560706 0.26038846 0.5541947 1.3223679
0000d0 cf 71 a1 be c7 81 75 3f 9e 24 b1 3f d8 5f 38 bf
       -0.31532142 0.9590115 1.38393 -0.72021246
0000e0 30 74 ac 3f cb b5 83 3e 7b a2 73 3f 41 54 2a bf
       1.3472958 0.25724635 0.951698 -0.6653481
0000f0 a1 89 86 3e d4 a0 98 3f c4 70 78 3f 16 13 88 3f
       0.26276878 1.1924081 0.97047067 1.0630825
000100 8a 61 9e 3f 82 26 9f 3f c9 33 b9 be 96 e1 70 3f
       1.2373517 1.2433627 -0.3617232 0.94094217
000110 f0 1e 94 3f 20 97 1f be ad d0 97 3f 8b 93 c3 3f
       1.1571941 -0.15584993 1.1860558 1.5279402
000120 9f 2c 2d 3f 96 1a 8f 3f 23 b2 c1 bd 95 cb 25 3f
       0.6764621 1.1179988 -0.09457805 0.64763767
000130 5f b2 b4 bd 04 32 81 3f 1c 77 9d 3f d9 87 94 3f
       -0.08823084 1.0093389 1.2301974 1.1603957
000140 73 54 93 3f d9 28 ac bf 8c eb 9c 3f 3b 47 9d 3f
       1.1510147 -1.3449966 1.2259383 1.2287363
000150 92 db 07 3f 41 d3 73 3f a5 78 86 3f 5e 81 8c 3f
       0.5306941 0.9524422 1.0505568 1.097698
000160 69 51 99 3f 1f 3c e1 bc 49 5a a8 3f 35 11 87 3f
       1.197797 -0.027494488 1.3152553 1.0552126
000170 7c eb ab bf 85 c9 a7 3f 31 9f bb bf 91 47 3c 3f
       -1.3431239 1.3108374 -1.4657956 0.735467
000180 e2 b6 a1 3f b6 5c 58 3f 27 35 61 be a2 91 5a 3f
       1.2633936 0.84516466 -0.21992932 0.8537847
000190 9c 6b 99 bf 06 79 89 bf 5c 2f 9e 3f 49 2d 89 bd
       -1.1985965 -1.0740058 1.2358203 -0.066980906
0001a0 a8 19 8e 3f 00 90 1a be c6 31 91 3f f6 c9 03 3f
       1.110158 -0.15093994 1.1343315 0.5148004
0001b0 43 6e 8a 3f 07 42 f5 be 18 04 94 3f bb 89 97 3f
       1.0814899 -0.47901937 1.1563749 1.1838907
0001c0 a2 4c 9f 3f 51 99 b5 bd c1 85 42 3f be fe d2 be
       1.2445261 -0.088671334 0.7598534 -0.41209978
0001d0 42 8f bc bf 4a c9 87 bf 4f 32 8a 3f 7f 34 28 3f
       -1.4731219 -1.0608304 1.0796603 0.657051
0001e0 a9 b2 18 3f 88 2c 8e 3f 93 11 1c bf e2 ef 24 3f
       0.59647614 1.110734 -0.60964316 0.6442853
0001f0 03 26 e1 bb a4 43 29 3f f5 bd 81 bf b8 99 90 3f
       -0.0068709864 0.66118836 -1.0136095 1.1296911
000200 03 0f 98 3f 9d e8 45 3f 09 bc 84 bf 28 03 36 bf
       1.1879581 0.77308065 -1.0369884 -0.71098566
000210 d2 61 1a bf 8c b1 1e bf 8f ba 8f 3f 94 85 5b 3f
       -0.6030551 -0.61989665 1.1228808 0.857507
000220 aa 46 41 bf fb 70 b7 3f 73 d0 34 3e 78 a6 79 3f
       -0.7549845 1.4331354 0.17657642 0.97519636
000230 0b fc 05 3f e8 bd 87 3e ec 28 5f 3f ac e9 20 bf
       0.5233771 0.26512074 0.87171817 -0.62856555
000240 88 0f 74 bf ee 2b ad 3f 38 52 67 3f b6 6a 02 3f
       -0.953362 1.3529031 0.9035983 0.5094408
000250 fa 93 6a 3f 70 bb af bf 88 d6 aa 3f 6e c9 a3 3e
       0.91632044 -1.3729076 1.334672 0.31989616
000260 7c 4b a3 3f 5a 10 87 3f 8b d9 59 3f 0b 86 99 3f
       1.2757411 1.0551865 0.8509757 1.1994032
000270 c8 42 a3 3d 77 5e 51 3f 01 43 4b bf 7a 4a a2 3e
       0.07971722 0.81784767 -0.79399115 0.31697446
000280 04 27 49 bf 9c bc b7 3e d8 47 93 3f ad ab 2c 3f
       -0.7857516 0.35886085 1.15063 0.67449456
000290 27 6f 7e 3f 69 0c c7 3e 32 76 97 3f 8b 1e 8b 3f
       0.99388355 0.38876656 1.1832945 1.0868696
0002a0 b9 d6 99 3f 21 98 3f 3f ed 8e bf bc 34 2c 03 c0
       1.2018653 0.74841505 -0.023383582 -2.049573
0002b0 16 7f 97 3f 72 52 2a 3f 7f fb 05 3f 20 cc fc 3e
       1.1835659 0.6653205 0.5233688 0.49374485
0002c0 80 20 c7 3e d8 f0 3b 3e 23 42 a2 3f 0f 12 58 3f
       0.38891983 0.18353593 1.2676433 0.84402555
0002d0 f2 03 9c 3f 87 48 4c 3f c7 f4 44 3f a9 47 1e 3f
       1.2188704 0.7979817 0.76936 0.61828095
0002e0 90 d3 8b 3f 57 f9 3f 3f d4 e5 16 bf 92 26 74 3f
       1.0923939 0.7498984 -0.5894444 0.95371354
0002f0 e8 eb 89 3f 38 9b 93 3f 19 e8 99 3f 97 d5 80 3f
       1.0775118 1.1531744 1.2023956 1.0065182
000300 f7 b6 1c 3f 8d 2e e5 be 40 62 ba 3f 58 1e 55 bf
       0.6121668 -0.44762078 1.4561234 -0.83249426
000310 2a 10 0b 3f 7c 4c 82 3f 2b 76 3e bf 54 7d 81 3f
       0.5432154 1.0179591 -0.7439906 1.0116372
000320 ef 76 7a 3f fe b9 ab 3f ee 5a 0a bf e4 64 98 3f
       0.9783773 1.3416135 -0.54045 1.1905789
000330 1f ad 97 3f da 71 7d 3f f0 8f 3d 3f eb 3e 65 3f
       1.1849707 0.9900185 0.74047756 0.8954913
000340 b3 ba 8c 3f 19 5c 51 3d bd f6 aa 3f 48 44 a0 3f
       1.0994476 0.05111322 1.3356549 1.2520838
000350 41 a9 99 3f 3b 78 bb 3f f9 b7 af 3f d9 c1 fe 3e
       1.2004777 1.4646066 1.3728019 0.4975727
000360 44 d6 ab 3e 0c 13 1e bf a9 eb 98 3e 38 9f 77 3f
       0.3356191 -0.61747813 0.29867294 0.96727324
000370 f4 cd c0 bf f3 81 c6 bf 5e 42 97 3f cd e6 a4 3e
       -1.5062852 -1.5508407 1.1817129 0.32207337
000380 05 fe d5 3d 96 c4 8d 3f 1f 2c 0c bf 83 52 98 3f
       0.10448841 1.1075618 -0.54754823 1.190018
000390 d8 a2 8c 3d da be d3 3f f4 16 a9 3f 1f 8b 8e 3f
       0.068669975 1.6542618 1.321013 1.1136206
0003a0 13 9d 92 3f 51 7e b9 3f c5 af c3 3f 0d e5 e2 be
       1.1454185 1.4491674 1.5288016 -0.44315377
0003b0 bb 0c 98 3f b6 ba 88 3f 69 ee cb bf a7 59 8d 3f
       1.1878885 1.068198 -1.5932132 1.1042985
0003c0 12 3a b6 bf 4c be 15 3f 64 f8 73 3f 48 c0 03 bd
       -1.4236472 0.58493495 0.9530089 -0.032165796
0003d0 02 68 67 3f 3f 4e 91 3f e2 b9 87 3f 1d 93 76 3f
       0.9039308 1.1352004 1.0603602 0.9631823
0003e0 ee 74 69 3f 20 d7 8b 3f 89 0e b1 3f bc 92 fd be
       0.91194046 1.0925026 1.3832561 -0.49526012
0003f0 15 1f ec 3b 11 b2 2f bf b6 62 4c 3f ec ba 94 3f
       0.0072058537 -0.6863108 0.7983812 1.1619544

linear2.weight f4 [2, 512]
000000 b4 e8 70 bf f9 f4 71 bf 4e fa 37 3e d9 a8 91 3e
       -0.94105077 -0.94514424 0.17966577 0.28449133
000010 39 59 69 3f a4 cb f7 3f 26 1d 4e bf 4c e4 06 40
       0.9115177 1.9359021 -0.80513227 2.1076841
000020 f6 f6 76 3f 20 13 54 3f be 2c 9c bf c9 a1 07 3f
       0.9647058 0.8284168 -1.2201154 0.5298124
000030 4f a0 6d 3f 42 74 34 3f d4 b4 2b c0 c0 46 2e 3f
       0.92822737 0.70489895 -2.6829119 0.68076706
000040 20 19 b8 3c 0f 45 0a 3f da b0 4e 3f 2f ed b8 c0
       0.022472918 0.54011625 0.80738604 -5.778953
000050 84 34 12 c0 f5 b0 87 bf 83 b4 07 3f 64 2b 0f 3f
       -2.2844553 -1.0600878 0.53009814 0.55925584
000060 00 07 a5 bf 7f 71 d2 3e 98 29 5e 3f 33 d9 57 3f
       -1.2892761 0.41102216 0.8678222 0.84315795
000070 c4 8f 62 3f 87 5f 93 c0 e9 4c 34 3f 9e 7d 82 bf
       0.8850062 -4.605411 0.70429856 -1.0194585
000080 50 7c bc 3f 78 cc ae 3f ed 89 61 c0 cf 49 a4 3e
       1.4725437 1.3656149 -3.5240433 0.3208756
000090 db d7 96 be 2c 6f e3 3f ee 65 5f bf 64 43 0c 3f
       -0.2946156 1.7768302 -0.8726491 0.5479033
0000a0 2e 97 c1 c0 6d 1e 36 c0 89 f9 b8 3f b4 28 00 c0
       -6.0497046 -2.845607 1.4451152 -2.0024843
0000b0 32 ee 63 3f 34 ea 45 c0 19 1c 30 c0 f5 5a ef bf
       0.8903533 -3.0924196 -2.751715 -1.8699633
0000c0 8a dd 57 3f c1 5a 40 3f fb c6 5c bf 74 7e 3c 3f
       0.84322417 0.7513848 -0.8624112 0.7363045
0000d0 a5 26 e1 3f 56 b5 54 be 35 0d 03 c0 0b 9e 36 3f
       1.7589918 -0.20772299 -2.047681 0.71334904
0000e0 36 89 54 3f ea 78 38 3f b6 fc 88 be 36 da 53 40
       0.8302187 0.720595 -0.26755303 3.3101935
0000f0 cc 78 ee 3b 05 d1 25 3f 1d 03 4c 3f 63 27 b1 bf
       0.0072775837 0.64772063 0.7969225 -1.3840145
000100 f2 a2 81 3f b8 bf 42 3f 6c 81 15 40 c4 99 45 bf
       1.0127852 0.7607379 2.3360243 -0.7718775
000110 c5 e4 24 c0 61 65 86 3f b5 68 2e 3f ee c1 0b bc
       -2.576463 1.0499688 0.6812852 -0.008530123
000120 b6 ea 29 c0 b6 0b a0 3f 18 0a 81 3f 38 19 1a 3f
       -2.6549506 1.2503574 1.0081205 0.6019473
000130 f0 d5 4b c0 6b 95 0e 3f ea b1 2a 3f 9a ca 4b 3f
       -3.1849327 0.55696744 0.66677725 0.7960602
000140 61 55 16 3f 60 d1 6b c0 13 1c bd bf b0 41 90 3f
       0.5872403 -3.6846542 -1.4774193 1.1270046
000150 df 62 05 c0 3a 6c 45 3f 38 1e 35 bf cf 34 52 3f
       -2.0841596 0.77118266 -0.70749235 0.8211183
000160 ee 18 50 3f de e9 b4 bf 1e 1b 14 3f b1 cf 5b 3f
       0.8128804 -1.4133871 0.5785388 0.85863787
000170 8f 26 ed bf b2 84 3c 3f de 67 11 c0 b9 4d 29 bf
       -1.8527392 0.73639977 -2.2719646 -0.6613422
000180 d9 96 06 c0 ec 59 13 c0 25 b3 5f 3f 6b f8 aa bf
       -2.102957 -2.3023634 0.8738273 -1.3357061
000190 6f fb 05 40 b8 2b 7b c0 95 3e 65 3f 9b 07 fd 3f
       2.0934713 -3.9245434 0.8954862 1.9767946
0001a0 b4 ac 2d 3f 59 c6 97 3f 6a 60 34 3f 65 9a bd bf
       0.6784165 1.1857406 0.70459616 -1.4812742
0001b0 8e b6 d5 3f 19 d9 47 c0 61 d6 9b bf cb 35 8e bf
       1.6696336 -3.1226256 -1.2174798 -1.1110166
0001c0 3d 7f 18 3f f7 88 26 40 2f 1e e7 bf ae d3 b7 3f
       0.5956915 2.6021097 -1.8056086 1.4361475
0001d0 7c 4c f4 bf 75 2d 94 c0 01 61 3c 3f 1f b9 45 3f
       -1.9085841 -4.630549 0.73585516 0.772356
0001e0 59 41 c4 3f 68 e9 4a 3f ae 52 31 c0 7c f6 e5 bf
       1.5332443 0.792624 -2.7706714 -1.7965846
0001f0 4b f7 e4 3e 93 85 29 3f b2 61 f0 3e c7 94 40 3f
       0.4471992 0.66219443 0.46949536 0.75227016
000200 d8 cc 3c 3f e4 94 26 bf b2 ab 25 40 85 ff ba 3d
       0.73750067 -0.6507094 2.5886045 0.09130768
000210 55 f3 1a 3f 1d 13 cc 3f 49 44 21 3f 1b c1 cc bf
       0.60527545 1.5943333 0.6299482 -1.5996431
000220 c4 e8 b8 3f 0f f9 61 3f dd 8a d0 3f 9b 7c 6b 3f
       1.4446034 0.8827066 1.6292378 0.9198701
000230 f3 2e 31 3f 15 80 1d 3f 3a 16 05 c0 53 8e 07 40
       0.69212264 0.6152356 -2.0794816 2.1180618
000240 e1 05 5e c0 35 c0 11 c0 cf b8 a2 3f a2 91 b7 3f
       -3.4691088 -2.2773564 1.2712649 1.4341319
000250 02 a0 7e 3f ab 20 62 c0 87 9e 89 3f 5c f0 5e bf
       0.994629 -3.533244 1.0751504 -0.8708551
000260 36 23 6a 3f 0a a1 c4 bf 48 aa e3 3e f6 b3 53 3f
       0.9145998 -1.5361645 0.44465852 0.82696474
000270 81 28 9c bf 8b 67 65 3f df 7b 13 40 41 8f 8b 3f
       -1.2199861 0.8961112 2.3044355 1.0903093
000280 f7 b6 3e 40 b2 7b e8 3f fd e2 9a 3f 5e cf 84 bf
       2.9799173 1.8162749 1.2100521 -1.0375783
000290 92 97 3a 3f ae 4c ae bf ca 34 32 3f cb 4c 52 3f
       0.7288753 -1.3617151 0.696118 0.82148427
0002a0 6d fc 37 3f 02 83 21 bf a9 37 be 3f d1 e1 18 c0
       0.71869546 -0.6309053 1.4860736 -2.3887827
0002b0 12 54 30 3f ca f8 94 3f 09 c9 59 c0 73 30 d1 3e
       0.6887828 1.1638424 -3.4028952 0.40857276
0002c0 df 70 c9 bf 1c 66 f9 bf 63 4a 48 3f fe 4c 30 c0
       -1.573757 -1.9484286 0.78238505 -2.7546992
0002d0 5b 90 d0 3e 5a ef c9 bf 39 ae b1 3f ab ca 25 c0
       0.40735134 -1.5776169 1.3881294 -2.5904949
0002e0 dd 20 15 3f 65 79 36 bf 87 73 73 3f 52 8d 73 3f
       0.5825327 -0.71278983 0.95098156 0.9513751
0002f0 90 b0 8c 3e 94 e5 7b 3f a7 b1 17 3f f2 c9 df 3e
       0.27478456 0.98397183 0.5925545 0.4370876
000300 e2 cb fe bf 5a b1 cf bd 2e 00 f2 bf 12 60 1a c0
       -1.990597 -0.10141249 -1.8906305 -2.4121137
000310 3f 39 a3 bf c9 45 3d 3f b0 d4 4a bf 96 b1 65 3f
       -1.2751845 0.7393461 -0.79230785 0.897241
000320 9c 55 72 3f e3 50 ca 3f a4 8d ce 3f 2f 9e 2f 3f
       0.9466188 1.5805935 1.6136975 0.68600744
000330 f7 c7 3a 3f 0e ce 38 3d 3f ae 9d bf 2a e1 be 3f
       0.7296137 0.045118384 -1.2318801 1.4912465
000340 7a b9 44 3f 8a 94 91 3f c9 9f ad bf 2e 29 25 3f
       0.76845515 1.1373456 -1.3564388 0.6451596
000350 24 1c f1 bf 87 2a bd bf 54 ad 75 3f 1b 3a 2a 40
       -1.8836713 -1.4778603 0.959676 2.6597965
000360 c9 ed e5 3f eb 9f 58 3f 6c dd 6f 3f 09 c6 a4 3e
       1.7963191 0.84619015 0.9369724 0.3218234
000370 cf 9c 67 c0 9c da 8d bf 9c 42 2e 3f c5 89 40 3f
       -3.6189458 -1.1082339 0.6807039 0.7521022
000380 49 90 6d 3f 79 ef 6b 3f f3 1d f7 3f 14 34 39 3f
       0.92798287 0.9216228 1.9306015 0.7234509
000390 1e 96 42 40 aa 0e 14 bf f7 24 47 3f 15 44 25 3f
       3.0404124 -0.57834876 0.7779078 0.6455701
0003a0 32 7c 46 3f e9 c9 94 bf f8 33 9a bf 7b fa 65 40
       0.77533257 -1.1624118 -1.204711 3.593413
0003b0 46 cd 64 3f 32 c3 6b 3f d4 68 85 c0 be af 21 3f
       0.8937572 0.9209472 -4.1690464 0.63158786
0003c0 66 d5 76 c0 df 8c 47 c0 9a 90 59 3f 82 b2 c8 3f
       -3.8567748 -3.117973 0.8498627 1.5679476
0003d0 5b bd b3 3e 52 a7 b6 3f 64 2a 1a 3f a9 3d e7 bf
       0.35105404 1.4269812 0.6022093 -1.8065692
0003e0 f7 71 58 3f e2 15 9d 3f 5d 33 80 3f f7 82 87 c0
       0.84548897 1.2272303 1.0015675 -4.234737
0003f0 78 a1 39 c0 6a f7 c2 c0 cb 4d a6 3f 9c 58 39 3f
       -2.9004803 -6.092702 1.299249 0.7240083

linear2.bias f4 [2]
000000 18 5f f0 3e f8 f3 ed 3e
       0.4694755 0.46475196
