Reinforcement_Learning/exp2/pretrained_model/1_DDQN_DuelingDQN/1503000.pth (torch, 18391 bytes, 5 tensors)

linear.weight f4 [512, 4]
000000 3a 3c d1 3e 5e bb 80 3d ab 83 73 c0 8c 8d 33 bf
       0.40866262 0.062857375 -3.8049114 -0.7013786
000010 d4 b8 24 3f e7 41 02 bf b7 df 12 40 99 b1 b5 be
       0.64344525 -0.5088181 2.2949045 -0.3548706
000020 ad 07 33 3f 4b 40 4b 3f 26 b3 00 3f 14 a2 90 3e
       0.6993359 0.7939498 0.5027336 0.28248656
000030 5a ff 66 bd 33 61 84 3e 69 c6 e3 be dd fe b7 3b
       -0.056395866 0.25855407 -0.44487312 0.005615099
000040 0e 0e 8b 3e 3c fa 3e 3e b4 03 1a bf d2 06 90 bd
       0.2715916 0.18650144 -0.601619 -0.07032551
000050 78 0f 83 bf 4f e1 80 be 53 41 6c 3f 44 fd 75 3d
       -1.0239096 -0.25171897 0.92287177 0.060055986
000060 ad bc fe 3d 20 6e 10 be 08 5e e2 bf e3 29 37 bf
       0.12438331 -0.1410451 -1.7684946 -0.7154829
000070 14 cc 46 3e 0b 49 96 be e3 04 57 c0 ec 12 a9 be
       0.19413787 -0.29352602 -3.3596733 -0.3302225
000080 84 0c 9a be 9e 08 34 bf cb 44 91 c0 1f f2 3d bf
       -0.30087674 -0.7032565 -4.5396476 -0.7419757
000090 da be 9c be 1d 9f a6 3f 96 69 be 3f e6 0c 68 3f
       -0.30614358 1.3017308 1.4875972 0.9064468
0000a0 b0 c0 14 3f 2e f6 7d 3f 5e 28 b1 3f de e1 0d 3f
       0.5810652 0.99203765 1.3840444 0.5542277
0000b0 6e ee e5 ba c2 b3 85 3e 7f 25 87 bd f4 3d 47 3e
       -0.0017542371 0.26113707 -0.06598949 0.19457227
0000c0 37 60 52 bf 3e a0 c7 bd ad ed 9b 3f 90 f3 b0 3c
       -0.8217806 -0.09747361 1.2181908 0.021600515
0000d0 fc e3 9b 3e 66 55 a7 3e 82 f7 27 3f c5 70 a3 bd
       0.30447376 0.3268234 0.6561204 -0.079804935
0000e0 a7 cf 9b 3e dd 3e 93 3e ae 18 3e bf 58 66 d6 3d
       0.30431864 0.28758898 -0.7425641 0.10468739
0000f0 ff 43 3f 3f 62 6c 74 3f 4f 98 8e 3f 4f 5c bd 3e
       0.7471313 0.9547788 1.1140231 0.36984488
000100 87 b1 34 3e 69 98 f8 3d f3 1a 16 be 40 71 e4 bc
       0.17645846 0.12138445 -0.14658718 -0.027886033
000110 23 0e 7d 3f 82 3f 64 3f 9f 6d 0a be 74 9c 6f 3f
       0.98849696 0.89159405 -0.1351838 0.93598104
000120 36 23 0a bf 7e 74 d0 be 76 19 b3 3f a9 09 49 be
       -0.5395998 -0.40713876 1.3992145 -0.19632591
000130 35 e0 09 3f e8 1b 21 be 8a 3b 91 c0 11 42 6c bf
       0.5385774 -0.15733302 -4.538518 -0.9228831
000140 4e 70 5f bf b3 07 6e 3f 0c f7 a6 3f f1 e0 12 3f
       -0.8728074 0.929805 1.3044143 0.57374483
000150 dd 7e 8f 3f 2a 4a 7a 3e d5 29 00 3e 95 47 4b be
       1.1210591 0.24442354 0.12515958 -0.19851525
000160 94 3e a4 3e 44 ce 52 3f 50 3e fa 3f cb 2b 00 3f
       0.32078993 0.82345986 1.9550266 0.5006682
000170 ea 25 bb 3e f6 5c c0 3e eb dc 39 be 8e 0d 8c bd
       0.36552364 0.37570924 -0.1815068 -0.06838523
000180 f5 1e 4c 3f 82 3a 2a 3f 9e 6b 03 3f 33 fe df 3e
       0.79734737 0.66495526 0.51336086 0.43748626
000190 06 4d 89 3f b6 13 20 3f e4 07 94 3f 02 1c 11 3f
       1.0726631 0.62530077 1.1564908 0.5668336
0001a0 37 8d 47 be f1 2e e6 3e 50 4f 08 bf 55 7f cf bd
       -0.19487463 0.44957688 -0.5324602 -0.101317085
0001b0 7e 4f 65 bd b0 e4 b3 3c 4b 56 40 40 38 4c 25 3f
       -0.055984013 0.021959633 3.005267 0.64569426
0001c0 af 8d 08 3d fd 03 14 3f 13 26 55 be 6b dc 23 3e
       0.033338245 0.57818586 -0.20815305 0.16002052
0001d0 e8 0c 81 3e ed a1 3e 3f f3 f8 b9 3f 5f da ee 3e
       0.2520516 0.7446583 1.4529098 0.4665098
0001e0 e3 84 55 3e be 2b fb 3e ea 25 63 3e 22 b1 cd 3e
       0.20851474 0.4905681 0.22182432 0.40174204
0001f0 c8 0a 8c 3f 40 6a ba 3e b9 18 a0 bf 6a 72 5f 3d
       1.094079 0.36409187 -1.2507545 0.054552473
000200 e9 78 9f 3d c8 dd 9c bd c7 e5 8d 3f 68 a2 d3 be
       0.07786734 -0.07659489 1.1085747 -0.41334844
000210 9e c2 b6 be 75 49 53 3e 9f 42 d8 3e 0b ba 1a be
       -0.35695356 0.2063349 0.42238328 -0.15110032
000220 0c 53 a9 3e 24 a0 58 3f eb f9 bc 3f ce bc 19 3f
       0.33071172 0.84619355 1.4763769 0.6005372
000230 fe 19 10 3f 6f e6 48 3f d9 13 a6 3f aa 44 e2 3e
       0.5628966 0.78476614 1.2974807 0.44193012
000240 d0 42 3e bf 5b 80 27 bf 0c 50 44 bf 99 42 c0 be
       -0.743207 -0.6543023 -0.7668464 -0.3755081
000250 47 65 c1 bb 36 68 2c bf cb 1e c4 bf 83 f9 2b bf
       -0.005901966 -0.67346513 -1.5321897 -0.671776
000260 bb e2 4d 3e 30 e2 d7 bd 2a 43 08 c0 be ec 00 bf
       0.20106022 -0.10541189 -2.1290994 -0.5036124
000270 13 8b 3b 3f 5b dc 88 be 1d 4f 4d bf 90 72 0d bf
       0.73259085 -0.26730618 -0.8019884 -0.55252934
000280 e6 47 08 3d 18 91 15 3e 91 76 df bf fd 4b f9 be
       0.033271693 0.1460613 -1.7458059 -0.48690787
000290 83 45 2f be fa cf 79 3e d6 31 14 40 05 bd 3c 3f
       -0.1711636 0.24395743 2.3155417 0.7372592
0002a0 bc 1b 2e bf 2c 08 2c bf 44 4c a8 bf 64 60 0a bf
       -0.6801107 -0.6719997 -1.3148274 -0.5405333
0002b0 b1 93 bb 3e 7e 70 71 3f bf 0c 21 40 4b 27 1d 3f
       0.36636117 0.94312274 2.516403 0.6138808
0002c0 ad ef 92 3d 52 f2 6e 3d 7d c0 ad 3e 83 3b c6 be
       0.07174621 0.058336563 0.3393592 -0.3871728
0002d0 18 5a af 3e de 11 44 3f e3 26 d6 3f a2 0d 1d 3f
       0.34248424 0.76589763 1.6730617 0.6134893
0002e0 b6 62 cc 3e 73 a7 8b 3e 09 2a bd 3e 47 86 c4 be
       0.3991906 0.2727619 0.36946133 -0.38383695
0002f0 b6 0b 82 be 3c f2 9c be 1f a0 87 bf 6a 20 ae be
       -0.2539956 -0.3065356 -1.059574 -0.34009105
000300 6a 4d 1a bd d2 82 74 3e 08 c0 0e bf ff 6c 13 be
       -0.037671484 0.23878029 -0.55761766 -0.14397047
000310 a0 20 6d bd 2f 07 4f 3f 14 9d 75 3e 9a dd 30 3f
       -0.05789244 0.80870336 0.23985702 0.6908814
000320 6d 3b cc 3e a9 71 52 3f aa 7a e4 3f 6f e8 26 3f
       0.39889088 0.8220468 1.7849934 0.65198416
000330 76 be f8 be dd 01 c7 be ec c4 94 3f 67 a6 45 be
       -0.4858281 -0.3886861 1.1622596 -0.19301759
000340 8a 2a 15 3f f3 b1 1f 3f 50 a3 06 40 8d 44 9b 3e
       0.58268034 0.62380904 2.1037178 0.30325738
000350 80 8e f9 3d ef 15 ef 3d 34 d0 5f be 42 f1 19 bd
       0.12185383 0.116741054 -0.21856767 -0.037583597
000360 55 10 32 be e4 0b c0 3e f3 44 d4 bd 75 c4 25 3f
       -0.17389043 0.37509072 -0.103647135 0.64752895
000370 b4 90 88 3f 5f b7 d6 3f bc e4 8a 40 bd e5 c4 3f
       1.066916 1.677471 4.3404217 1.538261
000380 e4 d2 f9 bd 8f fc 14 3f c8 3e 9d be 79 44 38 3e
       -0.12198427 0.58197874 -0.3071196 0.1799487
000390 5f cc 12 3d 2c d2 9f 3e d7 f5 4f be fa 1d e5 3e
       0.035839435 0.31215036 -0.20308624 0.44749433
0003a0 f3 81 ef 3e 78 be 18 3f a5 94 94 3f 10 f2 b7 3e
       0.4677883 0.5966563 1.1607863 0.35926867
0003b0 22 73 93 bf 4a f4 05 be 95 7f 56 bf d4 12 5c bd
       -1.1519511 -0.1308147 -0.83788425 -0.053728893
0003c0 46 6a a4 3e 20 8c c3 3f ec c8 b9 3d f0 1a 63 3e
       0.3211233 1.5277138 0.09071526 0.22178245
0003d0 f0 82 a8 3e d8 17 46 bf 0c b7 3d bf ac 1b 38 bf
       0.32912397 -0.7738013 -0.7410743 -0.71917224
0003e0 2b 6d c9 3d 31 3a 24 3e 31 47 ff be 0d ee 55 3b
       0.09835275 0.16037823 -0.49859002 0.003264311
0003f0 03 bc 3f 3f ec 21 e1 bd e1 a1 13 3e e2 2a 34 bd
       0.7489626 -0.10992798 0.1441722 -0.04398621

linear.bias f4 [512]
000000 cd 5b 2f 3f c0 51 10 3f 90 99 5c be 34 d8 58 3f
       0.6849945 0.5637474 -0.21542954 0.847049
000010 c3 98 70 3f ff c5 56 3e 7e 19 34 3f 5c 18 5f bf
       0.93983096 0.20973967 0.703514 -0.87146544
000020 d3 a6 c1 3f d7 da 5f 3f ce ad bb 3e 00 14 70 3f
       1.5129036 0.874433 0.3665604 0.9378052
000030 8a 1f a1 be 17 1c 65 3f 88 eb 26 3f 61 a8 43 3e
       -0.31469375 0.89495987 0.6520314 0.191072
000040 01 f8 42 3f b0 5d 08 3f 0a 50 84 be 3e f3 99 3f
       0.76159674 0.53267956 -0.25842315 1.2027357
000050 13 54 da bd 9a d6 0a bf 3b 5b ee be 07 e1 86 3f
       -0.10660567 -0.54233706 -0.46553978 1.0537423
000060 e3 dd ce bf de 77 41 3d 48 af 85 3f e1 ef 25 3f
       -1.6161464 0.047233455 1.0444117 0.6481915
000070 8d 5b 59 3f 18 e3 be 3e 7f 7d 32 3f c6 4b 44 3e
       0.8490532 0.37282634 0.6972274 0.1916953
000080 42 e5 63 3f 62 65 86 bf c7 02 50 be 9a 9f 55 3f
       0.89021695 -1.049969 -0.2031356 0.8344666
000090 94 35 8b bf 34 36 60 3f 81 8c 55 bf cc 97 0b 3f
       -1.0875726 0.8758271 -0.83417517 0.545285
0000a0 f9 c1 c5 be 55 46 30 3f 9d e5 ba bf ca 69 10 bf
       -0.38624552 0.6885732 -1.4601322 -0.5641142
0000b0 04 f7 79 3f 13 b5 17 be bc 05 24 3f 65 52 f5 3e
       0.9764254 -0.14815168 0.6407125 0.47914425
0000c0 f0 4e 5e 3f 1a a0 7b 3f f4 a0 0c bf 3a 26 55 3f
       0.868392 0.9829117 -0.54933095 0.83261454
0000d0 98 00 47 be 6c 9c 22 3f c4 29 0c 3f 1c 22 11 bf
       -0.1943382 0.6351993 0.5475123 -0.5669267
0000e0 5b 9e 7f 3f 84 1a 8b 3f 6b e3 25 3f e0 d7 02 3f
       0.99851006 1.0867467 0.6480014 0.5111065
0000f0 29 db 04 3f f4 e3 33 3f 59 52 20 3f 69 f0 cb bf
       0.5189691 0.70269704 0.6262565 -1.5932742
000100 73 32 53 3f 42 e3 7a 3f b2 59 3e 3f c7 d3 be bf
       0.82498854 0.9800302 0.74355614 -1.4908379
000110 15 cb 27 bf 3b ac 2f bf fc 28 89 3f 67 71 9d 3f
       -0.65544254 -0.6862218 1.0715632 1.2300233
000120 f3 b1 23 3f 2d f9 46 3f d4 c2 7d be 33 28 25 3f
       0.63943404 0.7772396 -0.24781352 0.64514464
000130 26 88 5e 3f 47 3e 50 3f af 7f 84 3f 8a 8c 6a 3f
       0.86926496 0.8134503 1.0351466 0.91620696
000140 68 60 30 3f af 11 10 be 6a 11 e2 be f7 20 9a be
       0.68897104 -0.14069246 -0.4415391 -0.30103275
000150 28 23 c0 bf 90 d6 16 3f b1 04 34 be 4b c3 8c 3f
       -1.5010729 0.58921146 -0.17579915 1.0997099
000160 f8 7e 54 3f 39 fe 54 be f6 27 8b 3f f7 53 5e 3f
       0.8300624 -0.20800103 1.087157 0.8684687
000170 8f 8c b5 bf 85 e2 88 3f 56 a4 a3 bf 86 df d2 bd
       -1.418352 1.0694128 -1.2784526 -0.1029654
000180 bb 3e c1 be b0 de 45 3f cc eb 39 3f 93 e3 8e be
       -0.37743172 0.7729292 0.7262542 -0.27908
000190 98 97 4f bf 32 ac 9b bf 5e eb 85 3f 98 fa 81 3f
       -0.8109069 -1.2161925 1.0462453 1.01546
0001a0 69 a8 62 3f 01 2d 0a 3f 28 88 ba 3e 48 d6 db 3e
       0.88538224 0.5397492 0.36432004 0.4293692
0001b0 8f b6 68 3f 23 36 65 3f c9 25 92 be d3 0d 33 bf
       0.9090356 0.8953573 -0.28544453 -0.6994297
0001c0 a1 50 57 3f 93 94 9c 3f 4b 53 09 3f 49 f7 c8 3e
       0.84107405 1.2232841 0.5364272 0.39251164
0001d0 2d 50 dd bf 76 24 dc bf b0 9d 7a 3f b6 9d 48 3f
       -1.7290093 -1.7198627 0.9789686 0.7836565
0001e0 c8 58 19 3f 5d d5 82 3f ba c5 40 3f 6a 34 21 bf
       0.59901094 1.0221363 0.75301707 -0.629706
0001f0 54 26 9c 3f 3d 68 3b 3f f9 4d 97 3f b0 50 ff 3e
       1.2199197 0.7320593 1.182067 0.49866247
000200 bf 80 5c 3f 7b c0 5c 3d d9 71 f3 be 80 84 39 bf
       0.8613395 0.0538945 -0.47547796 -0.72467804
000210 43 bf 5c 3f af 21 50 3f 17 f6 5b 3f 04 ef 2e be
       0.8622934 0.813014 0.8592238 -0.17083365
000220 f9 c8 2b bf de bd 94 3f e8 d8 9d 3f f6 ff b8 3d
       -0.67103535 1.1620443 1.233182 0.09033196
000230 23 a4 40 3f 8b 54 11 bf 18 b6 79 3e 63 59 45 3f
       0.7525045 -0.5676963 0.2438587 0.7708952
000240 12 65 1d 3f 00 2e 4d 3f 37 e7 21 3f cc 0e 8e 3f
       0.61482346 0.80148315 0.6324343 1.1098266
000250 3f 47 17 3f e0 a7 f9 3e da 3c 80 3f 1f f3 42 bf
       0.5909309 0.4876089 1.001857 -0.76152223
000260 14 38 69 3f f9 32 1a 3f dc 41 6b 3f b6 d7 86 3f
       0.91101193 0.6023403 0.9189737 1.053458
000270 f7 7a 3d bf ee 83 88 3f 36 a0 b2 be 12 21 f6 3e
       -0.74015754 1.0665262 -0.34887856 0.48072106
000280 d9 70 6c bf b9 54 64 3f 08 a0 32 3f ec a6 ee bf
       -0.9235969 0.89191777 0.6977544 -1.864469
000290 93 04 10 3f 6e 18 e6 be 54 6b 88 3f 7a c9 79 3f
       0.5625698 -0.44940513 1.0657754 0.97573054
0002a0 0d 1f 71 3f 79 f9 ae 3e 67 95 a4 3d 50 95 5b bf
       0.94188005 0.34174708 0.08036309 -0.8577471
0002b0 65 b5 89 3f a1 ae 16 be 45 c1 e7 3e eb 33 e9 3d
       1.0758482 -0.14715053 0.4526464 0.11386856
0002c0 c1 cb 51 3f 31 8e 6c bf 11 d5 84 3f 1e 85 96 bf
       0.8195153 -0.92404467 1.0377523 -1.1759374
0002d0 8f b4 83 3f 99 34 56 3f 7c 3f a2 be d3 f6 27 3f
       1.0289477 0.8367401 -0.3168906 0.65611
0002e0 d0 26 26 3f 08 ee 3d bc 37 81 ce bf 08 1c 50 3f
       0.64902973 -0.011592396 -1.6133183 0.8129277
0002f0 21 26 82 3f 56 56 85 3f c4 e9 9e be ae 09 5a 3f
       1.0167886 1.0416973 -0.31037724 0.8517102
000300 c2 ca 56 3e 98 c3 e2 bf 57 4e e3 bf bd 44 05 3e
       0.20975783 -1.771594 -1.7758282 0.13014503
000310 0a db 50 bc 2d c4 24 3f c0 c1 c3 bf 00 0e b4 bf
       -0.0127475355 0.6436184 -1.5293503 -1.4066772
000320 97 d5 51 3f 77 b4 7e bf d6 c2 48 3f ee c6 88 3f
       0.8196654 -0.9949412 0.78422296 1.0685709
000330 a1 f6 08 be ed 19 87 3f 99 f3 9e 3e 8c e3 fd 3e
       -0.13375331 1.0554787 0.31045225 0.49587667
000340 df 9d 52 3f c8 0b fc be 99 1f 5c 3d c1 a1 91 3f
       0.8227214 -0.49227738 0.05374107 1.1377488
000350 8e f5 2c 3f 92 0c 38 3f 3c 14 7e 3f 31 65 4d 3e
       0.67562187 0.7189418 0.99249625 0.20058133
000360 67 19 75 3f fd 23 96 bf b8 a5 5b 3e 73 05 d4 3e
       0.95741886 -1.1729733 0.21449935 0.41410407
000370 22 fd b3 be ad 58 cf bf 8d 3c b2 be 29 ef 00 3f
       -0.35154063 -1.6198937 -0.34811822 0.5036493
000380 53 83 8a 3e 81 bc 50 3f ff b0 33 3f 4c 27 58 3f
       0.27053317 0.81537634 0.7019195 0.8443496
000390 cf 7b 4c 3f cb 72 27 bf 1c 4e a7 3e 47 43 24 3f
       0.79876417 -0.65409535 0.3267678 0.6416516
0003a0 98 dd 8c 3f 00 02 0e bf fb bb 72 be 00 40 43 3e
       1.1005125 -0.554718 -0.23704521 0.19067383
0003b0 e3 46 53 3f 6a ec c7 38 c5 d2 f6 bf 6b 86 34 3f
       0.8253004 9.533095e-05 -1.9283072 0.70517606
0003c0 4a 7c 0c 3f 34 5c 62 bf c4 d1 58 3f 11 12 47 be
       0.5487715 -0.8842194 0.84695077 -0.19440486
0003d0 91 2a 1c 3f 4d ac 31 3f ba c5 27 3f b9 42 bd 3e
       0.6100245 0.69403535 0.6553608 0.36964968
0003e0 84 3a 3d bf 26 ec 32 3f eb a4 67 3f 08 1f c8 3d
       -0.7391741 0.69891584 0.9048602 0.09771544
0003f0 50 7b 1d be c0 e6 b9 be 7c 2d 34 3f 93 ea 64 3f
       -0.15379071 -0.3630886 0.70381904 0.8942043

linear_action.weight f4 [2, 512]
000000 6b 29 1b bf c7 1f de be 98 9c d6 bd 19 2c b6 bd
       -0.60610074 -0.4338362 -0.10479087 -0.0889513
000010 48 d5 c2 bb 91 94 95 be 48 10 ed 3d 6d 5c 57 3e
       -0.0059458353 -0.2921491 0.11575371 0.21031351
000020 1a 12 3f 3e 1d 0c 73 be f9 53 e1 3d 01 76 09 be
       0.18659249 -0.2373509 0.11002345 -0.13423921
000030 8b 9f 03 3f 29 4c d3 3d e7 a9 bf be 6c 5f 9b 3e
       0.5141532 0.10317261 -0.37434313 0.3034624
000040 3b c4 1d be 78 fd 58 3e 27 b1 91 bd ca e3 15 3f
       -0.15406887 0.2119044 -0.07113867 0.58550704
000050 77 d1 71 bd 96 fb 99 3e 9e 3d 95 be 4d 54 22 3e
       -0.059037652 0.30074757 -0.29148573 0.1585247
000060 70 b4 c3 3e 50 53 96 3c 85 b4 51 bc 6f d9 ff bc
       0.382236 0.018350273 -0.012799387 -0.03123161
000070 45 b1 c5 3d 4b ef 9e 3e 7f 5a 02 be f9 2c e2 bd
       0.09652952 0.3104194 -0.12729834 -0.11043734
000080 7c 24 a5 3c 24 13 55 3f 09 06 f9 3d d5 1b ea 3c
       0.020158999 0.8323233 0.12159354 0.028577724
000090 01 aa 50 be ab 41 9a bd d3 61 87 3e f7 68 35 be
       -0.20377351 -0.075320564 0.2644182 -0.17715822
0000a0 82 ec b8 be 4e 3d 9e 3d 7b 09 97 bd ad a4 b1 be
       -0.3611794 0.07726537 -0.07374855 -0.3469595
0000b0 77 2f 09 bd 6b 59 0c be bb 6d aa 3e 1a 01 eb be
       -0.03349253 -0.13705985 0.33286843 -0.45899278
0000c0 a9 9e 58 bd 03 0c 92 bd 3b 95 70 3d 09 1c 06 3c
       -0.052885685 -0.07131197 0.058736067 0.008185395
0000d0 4a 5e a4 bf 54 b8 fc bd ef 18 81 be a2 1e 51 3d
       -1.2841275 -0.12339845 -0.25214335 0.051054604
0000e0 ea 8f fb 3c f3 d1 19 be 88 54 85 3e 45 ac 86 3f
       0.030708272 -0.15021496 0.26041055 1.0521322
0000f0 b3 ba e9 3d 85 9e 8b 3e 87 d9 4a bd eb d5 a9 3e
       0.11412563 0.27269378 -0.049523856 0.3317102
000100 68 f0 8f bd 61 f1 96 bd ee 3b 83 bd 7c 7d 9d bd
       -0.07028276 -0.07370258 -0.06407915 -0.0768995
000110 df 37 19 be 79 42 e7 3d 13 6a 67 bd 16 1c a9 bd
       -0.1496272 0.112919755 -0.056497645 -0.0825731
000120 f7 96 28 be 19 7b 30 bc 40 b0 06 3f eb 8f cd bd
       -0.16463839 -0.010771536 0.52612686 -0.10037216
000130 e0 c6 df 3e d9 dc 0c 3e a8 ec c5 bd a9 ea 10 be
       0.43706417 0.13756122 -0.09664279 -0.14152016
000140 f7 b3 97 3c 77 e4 3b 3e a4 e8 58 3e 86 68 62 3d
       0.018518431 0.18348871 0.21182495 0.055275463
000150 3e 7e 9f bf 5e fa c2 bd 80 90 e1 3d 42 90 ab bd
       -1.2460401 -0.0952041 0.11013889 -0.08377124
000160 ff 18 f4 bd 3c ff 90 3e 5f 4b 97 bb 32 72 a6 3d
       -0.1191883 0.28319728 -0.004617139 0.0812725
000170 be 33 6c 3f 51 1c fa bc 90 e2 b8 3d 0b 54 1b bf
       0.9226645 -0.03053108 0.09027588 -0.60675114
000180 44 cb 1e 3f b9 37 43 3f 21 4e 8d bd 59 8e dc 3d
       0.6202891 0.762569 -0.068996675 0.10769338
000190 82 a3 51 3f ac 71 d9 b9 00 03 b7 3b e2 c8 de 3d
       0.8189012 -0.00041474157 0.0055850744 0.10878159
0001a0 66 93 da bd ec e3 9e be 65 a6 b7 3e 29 ed b1 be
       -0.10672645 -0.31033266 0.35869136 -0.3475125
0001b0 40 90 d9 3d f6 3f 3b be aa 6e 08 3e 03 c7 82 3f
       0.10623217 -0.18286118 0.13323465 1.0216984
0001c0 b0 b0 56 bf c1 11 3c 3e f7 c5 8b 3d ee 83 2d bf
       -0.83863354 0.18366148 0.06824868 -0.67779434
0001d0 43 f3 41 bf 56 aa 76 be 9c a0 f1 3d 4c af 49 3f
       -0.7576181 -0.24088416 0.11798212 0.78783107
0001e0 79 e6 7b bd 87 29 59 be 70 d5 ea 3e 5d cb a7 bf
       -0.061499093 -0.21207248 0.45865965 -1.3108937
0001f0 2d 61 2f be 10 d7 ad be a0 ba 25 be 07 9a 08 be
       -0.17126913 -0.33953142 -0.16184473 -0.13340007
000200 74 78 c6 bd 0e fe d1 be c1 f5 80 bd c9 39 0b bf
       -0.09690943 -0.4101414 -0.06296874 -0.5438505
000210 97 61 80 be 41 1e ea 3e 39 12 eb bd 43 99 29 bf
       -0.25074455 0.45726207 -0.11478085 -0.66249484
000220 b6 57 21 3e 32 6e 58 3d f7 df 7a 3d 78 b7 8a 3d
       0.15756115 0.052839465 0.061248746 0.06773275
000230 c7 60 99 bd 04 fa 47 bf 61 f1 02 3f be 85 6c be
       -0.07489162 -0.7811587 0.51149565 -0.23097894
000240 94 b8 b0 be b1 02 88 3f 7a 4f 58 3e 9f 6b 3a 3e
       -0.34515822 1.0625821 0.21124068 0.18205117
000250 3b 2d 90 3e f1 cb 72 3f 1f 24 bb bb 33 1a 93 bd
       0.28159508 0.9484244 -0.005711093 -0.071827315
000260 29 11 cc bd ec 3d c5 be 1f 55 ea bd 35 89 51 bc
       -0.099642105 -0.38523805 -0.11442017 -0.01278906
000270 c8 05 7b 3f fb a6 27 be dd be 1d 40 d2 68 0f 3e
       0.98055696 -0.16372292 2.4647744 0.1400483
000280 50 d1 2b 3e 5b f8 6f bd 8c a0 a5 bd 5e 4d c2 3d
       0.16779065 -0.05858646 -0.080872625 0.09487413
000290 52 b2 c7 be ac 79 1b bf 0d ed 5c bd f8 4e ba bc
       -0.39003235 -0.6073253 -0.053937007 -0.022742733
0002a0 ea 83 41 be cd 6a 8e bf 00 94 fd bc 27 eb c9 be
       -0.18897977 -1.1126343 -0.030954361 -0.3943722
0002b0 01 35 a9 3d 7a 71 1a bf b6 ab 3d be 79 44 ed be
       0.08262063 -0.603294 -0.18522534 -0.46341303
0002c0 26 1c 26 be 91 37 bd 3c 01 a2 5a bd 14 02 b3 3f
       -0.16221675 0.023097785 -0.053377155 1.3985009
0002d0 31 2c 94 3d f3 f5 3c 3f 62 b6 ed 3d 2c 55 e4 be
       0.07234991 0.7381279 0.116070524 -0.4459623
0002e0 b3 8c fb 3e c5 ee 31 3f 20 a5 28 bf 83 ed 6f bd
       0.49130782 0.6950496 -0.6587696 -0.05857612
0002f0 b9 62 8b 3d cd ea 95 3d 0f 2c f8 be 13 59 b6 be
       0.06805939 0.07320175 -0.48471114 -0.35614833
000300 79 17 07 3e 07 86 4d be ca ab f0 be b9 39 1b 3f
       0.13192548 -0.20070659 -0.47006065 0.6063495
000310 33 a8 13 3d 99 f2 e6 bc a2 db c8 3e d7 72 73 3f
       0.03604908 -0.028191851 0.39230067 0.95097107
000320 3a ce 13 3e 6b 11 52 3e 6d 94 15 3e 10 36 bc bd
       0.14434138 0.20514457 0.14607401 -0.09189999
000330 98 a8 ee bc b8 b6 81 3d f5 f1 b4 be af 6b 23 3e
       -0.029133126 0.06333679 -0.3534085 0.15959047
000340 81 30 46 bd 1c d2 fe be be f3 d8 be 3d eb 77 bd
       -0.0483861 -0.49769676 -0.4237346 -0.060527075
000350 a3 a7 27 be 3c 3f 25 3f dd a7 48 bd c9 7a a3 bd
       -0.16372542 0.64549613 -0.048988212 -0.07982404
000360 6e 91 e3 3d 96 ee 62 bd dd 32 d6 3e 2e ab fb bd
       0.11111723 -0.055403315 0.4183568 -0.12288509
000370 35 91 84 be 5d 07 8c bf 80 c6 da be 15 5e c2 3e
       -0.25892034 -1.0939747 -0.42729568 0.37962404
000380 31 d0 07 be 16 10 d3 3e 84 a9 5d bd 34 60 c3 bd
       -0.13263012 0.4122321 -0.05411674 -0.09539834
000390 e8 6b 46 bf 63 f4 da be e9 74 aa be 6e 4b f2 bb
       -0.775084 -0.42764577 -0.3329232 -0.007394246
0003a0 2c fd 99 3b c5 b5 c3 3e 24 ff 7d 3e 6c 27 d6 3c
       0.00469937 0.38224617 0.2480436 0.026141845
0003b0 f6 9e d4 bd e4 41 f4 bd 03 a8 ce be 42 b7 bc bd
       -0.10381882 -0.1192663 -0.40362558 -0.09214641
0003c0 d3 96 bf 3d 42 48 5c bf bf e6 4f bd 39 de c9 3d
       0.09354939 -0.86047757 -0.050757166 0.09856839
0003d0 72 a0 24 3e 73 12 56 bd 2e dd f3 bd ad fc fd 3e
       0.1607683 -0.05226369 -0.11907421 0.4960684
0003e0 33 fe 49 3c c7 ce 1e bc 3b 68 18 3d 88 77 d1 3e
       0.012328672 -0.009692854 0.037208777 0.40911508
0003f0 19 50 8b bd ee 0a 50 3e 4f 44 2a 3d ef 17 a9 bd
       -0.06802387 0.2031667 0.04156905 -0.08256518

linear_action.bias f4 [2]
000000 91 7d 1a bd 04 d3 0b bd
       -0.037717406 -0.034136787

linear_value.weight f4 [1, 512]
000000 c1 ee c6 bf 04 fb f5 bf 3f 67 82 c0 6d 49 88 3e
       -1.5541612 -1.9217229 -4.0751033 0.2661852
000010 c5 62 63 3f d1 ec b6 bf be 70 a1 bf 47 f6 1e c0
       0.88822585 -1.4291021 -1.2612531 -2.4837816
000020 c6 35 15 40 82 f8 8c 3f 32 1b e2 bf 4b f4 d2 3e
       2.331407 1.1013339 -1.7664549 0.41202006
000030 f3 54 83 c0 5a 8e 44 3f a1 f5 fe bf 05 47 7a 3f
       -4.10412 0.7677971 -1.991871 0.9776462
000040 d7 6f 28 3f a3 d6 33 3f 0c f1 a7 bf 00 61 e4 bf
       0.65795654 0.70249385 -1.3120437 -1.7842102
000050 e6 42 de bf ee 5f da 3f a2 e1 33 c0 ed 9a 43 3f
       -1.7364166 1.7060525 -2.8106465 0.76408273
000060 bc 04 93 c0 9b 37 d5 3e 3f 72 a5 3e 47 66 f6 bf
       -4.594328 0.41643986 0.32313725 -1.9249963
000070 47 a5 13 3f 73 cf 55 c0 9a 05 3a 3f a5 5f 4e c0
       0.5767407 -3.3407867 0.726648 -3.2245877
000080 af de 40 bf 9a 7a 1f c0 66 9e 41 c0 2b ff 59 3f
       -0.7533979 -2.491858 -3.0252929 0.8515498
000090 00 4f 70 c0 7e 62 86 3f fd 62 90 c0 be 4b 25 3f
       -3.7548218 1.0498807 -4.5120835 0.645687
0000a0 0f f4 91 bf d0 80 5e c0 ff 4f cc c0 1f aa 2b c0
       -1.1402606 -3.476612 -6.384765 -2.6822584
0000b0 a5 e5 00 3f 4a 9d 2c c0 2e 96 87 bf dd 6b e6 bf
       0.5035041 -2.6971002 -1.0592706 -1.8001667
0000c0 41 c3 eb 3e 04 52 8d 3f 33 8b 83 c0 1f 6b 36 3f
       0.46047404 1.1040654 -4.110742 0.71257204
0000d0 97 7b 8f 3d 1e a0 18 3f be 96 d4 bf 30 21 d5 3e
       0.07005995 0.5961932 -1.6608503 0.41626883
0000e0 f0 52 d4 3e 14 23 fb 3e e1 0d 43 3f d3 fa 92 3f
       0.41469526 0.490502 0.7619305 1.1482795
0000f0 c6 cd 4d 3f 37 ec 8b 3f 84 2b 04 3f 72 55 01 c0
       0.8039211 1.0931462 0.516289 -2.0208402
000100 10 31 2d 3f 19 a6 cf 3f 4d 4b 17 3f 85 ae 99 c0
       0.6765299 1.6222564 0.59099275 -4.8025537
000110 66 21 11 c0 59 83 42 c0 cd 58 0b 3f 9a 69 5d bf
       -2.2676635 -3.0392668 0.54432374 -0.8648926
000120 c6 a8 01 3f c3 c4 2b 3f 47 ed d5 3f 51 c4 e7 3e
       0.5064815 0.6709711 1.6713036 0.45266965
000130 0d ae b4 bf d0 14 3f 3f be 4b 10 3f 87 82 f8 3e
       -1.4115616 0.7464113 0.56365573 0.48537084
000140 8f 11 24 3f 60 eb e3 3f 48 59 79 3f 5e d1 95 3f
       0.6408929 1.7806206 0.9740186 1.1704519
000150 a9 00 47 40 2c 15 19 3f 4e ed 2b 40 df 91 1c 40
       3.1094153 0.5979793 2.686359 2.4464033
000160 ea 98 2d 3f 35 d3 47 c0 90 9e 4f 3f 8a 61 52 3f
       0.67811453 -3.122266 0.8110132 0.8218008
000170 35 1b 3e c0 7f cf c4 3e 74 08 19 c0 11 71 c7 bf
       -2.9704106 0.38439557 -2.391141 -1.558138
000180 10 d2 03 c0 2e e6 76 bf a9 6e c2 3e 85 2a a0 bf
       -2.0596962 -0.96444976 0.37975052 -1.2512976
000190 6e 57 a1 bf f6 51 84 c0 8c 32 43 3f 33 9d 41 3f
       -1.2604806 -4.135005 0.76249003 0.7563049
0001a0 d2 9f 24 3f 7a 01 50 c0 ba eb 7b 3f fe a8 0c 40
       0.64306366 -3.2500901 0.98406565 2.1978145
0001b0 ae 1b 3c 3f ed 51 4b 40 a2 83 be bf a1 db 10 3f
       0.73479736 3.1768754 -1.4883921 0.5658513
0001c0 25 bf a2 bf 32 f6 98 bf 93 40 03 c0 92 0f 76 3f
       -1.2714583 -1.1950133 -2.0508163 0.9611751
0001d0 44 54 a7 c0 98 10 f5 c0 d7 13 5b 3f 9c a4 4d c0
       -5.2290363 -7.6582756 0.8557715 -3.213172
0001e0 3e 61 b9 3e ea 41 53 3f d2 a4 16 c0 30 f0 22 40
       0.36207002 0.8252245 -2.3538098 2.54591
0001f0 4b 17 d0 3e ea 12 19 40 54 cc 26 bf 0e 56 df 3f
       0.4064277 2.3917794 -0.6515553 1.7448137
000200 5f 74 fb 3e 41 37 0e c0 10 4f 90 40 23 fd 4a c0
       0.49112222 -2.2221224 4.509651 -3.1717002
000210 de 28 32 40 0e ca 6d bf 91 f7 4a 3f 9c 23 a4 bf
       2.7837443 -0.92886436 0.79284006 -1.2823367
000220 e3 02 64 c0 08 8d 18 3f 14 bd 80 bf dc db 5a c0
       -3.5626762 0.59590197 -1.0057702 -3.4196692
000230 5a 51 92 3e f3 21 b2 c0 a7 32 01 c0 f9 e6 8a be
       0.2857769 -5.566644 -2.0187166 -0.27129343
000240 2e 95 85 be ee e6 22 c0 49 c0 f9 be e9 22 50 3f
       -0.26090378 -2.5453448 -0.48779514 0.8130327
000250 92 eb 80 bf 72 10 8a bf c3 61 00 bf 24 13 81 c0
       -1.007189 -1.0786269 -0.5014917 -4.0335865
000260 d6 30 03 3f 12 f1 0c c0 d6 0e 45 3f 69 84 3a 3f
       0.5124639 -2.2022138 0.7697576 0.7285829
000270 e7 f8 19 c0 86 b7 e5 3e 50 fc 9c 3f 2b 70 fd bd
       -2.4058168 0.4486658 1.22645 -0.1237491
000280 2f 97 91 c0 e5 72 35 40 19 51 ed 3e 8e 13 ae bf
       -4.549705 2.8351376 0.46350935 -1.3599718
000290 03 59 61 3f e8 da 10 c0 0d bb 62 3f a1 3a 11 3f
       0.88026446 -2.263361 0.88566667 0.56730086
0002a0 7c d0 2f 3f 3c 67 99 bf 7d 0b 32 c0 d7 9b 7d c0
       0.68677497 -1.198463 -2.7819512 -3.9626367
0002b0 51 d0 32 3f ff d8 89 3e 53 60 1e 40 0c 22 76 3f
       0.69849116 0.26923367 2.4746292 0.961457
0002c0 ae 9b 19 3f 6f 61 cc c0 25 db c1 3e be 1b bc c0
       0.60003173 -6.3868937 0.37862507 -5.8783865
0002d0 85 58 20 3f c7 29 ff bf d2 d2 ed 3f 7f eb da bf
       0.6263507 -1.9934624 1.8579962 -1.7103118
0002e0 37 8f 92 3f fa 85 88 c0 1e 51 61 c0 51 95 d0 3e
       1.1449956 -4.2663546 -3.520576 0.4073892
0002f0 c8 99 65 3f 77 99 44 3f 90 a8 9a 3f 4f 05 a8 be
       0.89687777 0.7679667 1.2082691 -0.3281655
000300 35 8c 93 bf 63 a0 58 c0 dc 27 31 c0 bd 47 29 c0
       -1.1527163 -3.3847892 -2.7680578 -2.6450036
000310 d4 a1 94 c0 4c 58 3e 3f bf 80 f0 be 71 32 88 c0
       -4.6447544 0.7435348 -0.46973225 -4.2561574
000320 da a2 5c 3f ce aa 86 c0 f0 81 61 3f d3 df 14 3f
       0.8618599 -4.20835 0.88088894 0.5815403
000330 62 59 10 3f e7 70 3b 3f 81 9a b5 bf f0 ea 84 3f
       0.5638639 0.7321915 -1.4187776 1.0384197
000340 95 ff fa 3e cc 3c d9 bf 4d 9e 62 bf 17 85 26 3f
       0.4902312 -1.6971679 -0.885228 0.6504683
000350 58 93 0b c0 b8 cf 4e c0 d8 97 07 3f c8 bc 29 3f
       -2.1808681 -3.2314281 0.5296607 0.6630368
000360 df ce 36 3f 36 3c ca 3f 85 15 44 3e 19 2c 3f 3f
       0.7140941 1.5799625 0.19148834 0.7467666
000370 b0 97 17 40 68 7c 5a c0 db fa e3 3d 46 3e 38 3f
       2.3686333 -3.4138432 0.11131831 0.7197002
000380 58 1b 01 3f 6f 4d da 3f 08 1a 33 3f dc 4e ed 3e
       0.5043235 1.7054881 0.69961596 0.46349227
000390 bc 87 b8 bf 57 13 89 c0 d6 61 a9 3f 38 27 87 3f
       -1.4416423 -4.283611 1.3232982 1.0558844
0003a0 c4 ee 64 3f 88 cf 75 c0 22 63 0f 40 a6 ca ce 3f
       0.8942683 -3.8407917 2.2404256 1.6155593
0003b0 de 57 22 3f be 81 54 40 04 7f a8 c0 ad 10 fe 3e
       0.63415325 3.3204188 -5.265505 0.49622098
0003c0 64 29 a7 bf 92 8e 68 c0 d5 63 92 3f f0 bb a9 3f
       -1.3059506 -3.6337018 1.1436716 1.3260479
0003d0 50 00 0e 3f 64 5b 44 3f c3 9c 7a 3f b8 5a e0 bf
       0.55469227 0.7670195 0.9789545 -1.7527685
0003e0 71 78 03 40 1d 0d 0f 3f 2e 4c 07 3f e1 da a7 c0
       2.0542262 0.55879384 0.52850616 -5.2454686
0003f0 ec 76 8d c0 6f 6d 6a c0 ca cc 1a c0 cd 81 f2 3e
       -4.420767 -3.6629293 -2.4187493 0.47364655
