Reinforcement_Learning/exp2/pretrained_model/1_DQN_DQN/1844000.pth (torch, 15833 bytes, 4 tensors)

linear.weight f4 [512, 4]
00000000: 185d b13f e6ba f43e fe37 0ec0 1a22 a83c
00000010: 3071 8abf bdb0 24be 67f4 0d40 3d24 e53e
00000020: 8cf4 143f a053 333f 5fab dbbe d771 213e
00000030: 018b 7dbe f894 80bd 5623 debf c04a 30be
00000040: 93cb 54be 08ff a7bc 5ce6 c8bf 59f1 9dbe
00000050: 1fee babe a921 063f 6fb9 8140 69bf ae3f
00000060: 6283 5d3f 3feb 293f 73c5 ce3e 8497 783e
00000070: 0102 4bbe 1dda b8be d910 46bf ccb7 eb3e
00000080: 54ba debe 1b5c 273d da37 99bf f124 c9be
00000090: 5def 2cbf cc2c 023f 60cf a8bf c837 13bd
000000a0: 49e5 c43e 6f0c 12bf 4e43 0ec0 24b8 a0bf
000000b0: b574 a7be 790f c13c f22b 7bbf a8a6 29bd
000000c0: 8e46 c0be 9aaf 353e cffd 9fbf f71c f73d
000000d0: e0d7 50be bacd 80bd 0e74 91bf cc67 c4be
000000e0: 82c9 383f 00f1 373f b28f 6abf 4ca6 173e
000000f0: 023d 1d40 cff6 9d3f 9ca3 1440 a44a 6d3f
00000100: 62d9 4a3f d9ce 1b3d 4dd7 e4bf 4255 4dbf
00000110: 765b cdbe aad8 0e3e 5677 e1bf eabf a8be
00000120: f39f 76be b6c7 4e3f e064 dc3f 584d 913f
00000130: 59b1 503f 360a e93d 9435 c43f 22fd d83b
00000140: a666 ff3e 4db2 dc3e 2dcd adbf ce04 5abf
00000150: 019e 123f c2de dc3e 0759 1e40 cd3d ec3d
00000160: 4881 2e3f 03fd d3bf 0c11 d9bf 5afc 76bf
00000170: 8ffb 21be a050 cbbd b6a5 f5bf 9b22 cfbe
00000180: 11bc 6fbf e797 5dbf e336 83c0 a56a 82bf
00000190: a9a5 1b40 2902 9ebd 0537 c23d 3924 0fbe
000001a0: 6508 10bf 879e 693e 2e07 8fbf fe65 74be
000001b0: 0538 223f 8edd 94be b7a7 e9bf ee68 a7be
000001c0: 79a9 f3be 21e6 363e ca68 183d a9b4 0dbf
000001d0: 0f3a 89bf f6d5 82bf c04e f5bf 11ef 41bf
000001e0: 2e62 ce3e c5f2 603f 0128 d5bf 718a 11bf
000001f0: d7cd b2bf 09bd a9bf 4e07 2140 2561 f8be
00000200: 2342 3dbe 1fe8 8fbf 73b4 1340 03fe 9c3e
00000210: 9d15 90bf 0b55 6abf aab6 b6be 6d9e 1bbf
00000220: 34f2 96bf 6307 a6be c68b c0bf a6ef 7abe
00000230: bda6 1a40 6bb0 f83e 56c0 823f 5b12 463e
00000240: 3c03 b1bf bf2e 86bf 035d 743f 4377 cebe
00000250: 97f8 0fbf 74fd cabf e7a5 a33e 6090 70bf
00000260: ed5a 903f 24c4 723f b5f0 c7be 36b4 023e
00000270: 74af f33c d75f a6be 9858 ccbf f7f0 72be
00000280: 132d de3e aa87 d6be 6ccc 4cc0 4810 60bf
00000290: 42b6 8bbf 14aa a4be e0c6 01c0 6c24 a3be
000002a0: d990 96bf 1e2a cb3e c000 de3f d5b7 463e
000002b0: fb5a ec3f 9939 023f 1f1b 033f d3c1 dd3e
000002c0: ad7b 37be 0dfc 3dbe 8bc2 69bf f7e7 b8be
000002d0: a0a0 80bf cb89 73bf 3199 a8bf 3e8e 59bf
000002e0: 8037 003e a004 98be 1e38 e53f 0b83 2c3f
000002f0: 4297 9ebf 8aa5 30bf 1160 bc3e 2cfe 76be
00000300: 4c2e 7bbf 3968 90bf 713f 70bd c337 37bf
00000310: 4335 ddbe bb80 843e 9c4e aebf e1f4 e63c
00000320: c6c0 03be 9d96 463e ca0b 26c0 da71 ab3b
00000330: 1dc2 ddbf bbbf 3ebf bb4b e9bf d233 e73c
00000340: faee 7bbf 7030 bdbd d3f7 0a40 5f34 e43e
00000350: 63e0 debd bbfe 45ba 9c3b b6bf 4c9b 11be
00000360: 0a0f 2a3f 9588 70be 8d12 f8bf 0d97 c0bf
00000370: ebd2 d63e cd54 843f 0229 833f 2ed1 1a3f
00000380: 350d 12bf b795 973e eb79 c6bf 6392 f8bd
00000390: 201b e3be 007c 733e ab59 cbbf e46f 0b3d
000003a0: acfd 9dbe b063 a63c d29c 8abe cfc9 e7be
000003b0: c712 bd3d 281f 1cbf d927 c83f 8482 1fbd
000003c0: 9780 eebe c095 5e3e 7a6d d6bf 5f80 10be
000003d0: 2920 473d 9ee0 d1be d142 52bf 160f 9cbe
000003e0: 5d3d 69bf b08c b2bf fcbf 05c0 34fd 92bf
000003f0: ed88 853f 785b c13e 4bcf 9cbe 7016 8e3d
1.3856535 0.47798842 -2.2221675 0.020524073 -1.0815792 -0.16083045 2.2180421 0.4475421
0.5818565 0.70049477 -0.42904183 0.15766083 -0.24760057 -0.062784135 -1.7354534 -0.17216015
-0.20780782 -0.02050735 -1.56953 -0.30848196 -0.36509797 0.5239511 4.053886 1.3652164
0.865286 0.6637458 0.40385017 0.24276549 -0.19824983 -0.36103907 -0.7736946 0.46038663
-0.43501532 0.040859323 -1.197017 -0.39285997 -0.6755274 0.50849605 -1.3188286 -0.03594187
0.3845618 -0.5705022 -2.222858 -1.2556195 -0.32706228 0.023566948 -0.9811393 -0.0414187
-0.3755383 0.17742768 -1.2499331 0.120660715 -0.2039485 -0.06289239 -1.1363542 -0.3836044
0.72182477 0.7185211 -0.9162551 0.14809531 2.4568486 1.2340945 2.322486 0.9269202
0.7923795 0.038039062 -1.7878205 -0.8020822 -0.40108842 0.13949838 -1.7614543 -0.3295892
-0.24084453 0.80773485 1.7218285 1.1351728 0.8152061 0.11378901 1.5328851 0.0066219727
0.49883002 0.43104783 -1.357824 -0.8516358 0.57272345 0.431387 2.4741838 0.11535225
0.6816602 -1.6561588 -1.6958327 -0.9647881 -0.15818618 -0.099274874 -1.9191196 -0.4045609
-0.9364634 -0.8655991 -4.10045 -1.0188795 2.431986 -0.07715256 0.094831504 -0.13978662
-0.5626281 0.2281438 -1.1174066 -0.23867032 0.6336673 -0.29075283 -1.8254308 -0.32697242
-0.47590235 0.17861225 0.03720931 -0.5535379 -1.0720843 -1.0221546 -1.9164658 -0.7575541
0.4030928 0.87870437 -1.6652833 -0.5685187 -1.3969067 -1.3260814 2.5160708 -0.48511615
-0.1848226 -1.1242713 2.3078887 0.30662546 -1.1256596 -0.91536015 -0.35686237 -0.60788614
-1.1792665 -0.3242751 -1.5042655 -0.24505481 2.416427 0.48572096 1.0214946 0.1934294
-1.3829112 -1.0483016 0.95454425 -0.40325364 -0.56238693 -1.5858598 0.3196251 -0.939703
1.1277748 0.94830537 -0.39050832 0.12764058 0.029746749 -0.32494995 -1.5964537 -0.23724733
0.43393764 -0.41900378 -3.199977 -0.87524843 -1.0914996 -0.3216101 -2.0277634 -0.31863725
-1.1762954 0.3968057 1.7343979 0.19406064 1.8465265 0.5086914 0.5121326 0.4331194
-0.17918272 -0.18553181 -0.91312474 -0.36114475 -1.0049019 -0.9513213 -1.317175 -0.8498267
0.12521172 -0.2969103 1.7907751 0.67387456 -1.238991 -0.6900259 0.36792043 -0.24120396
-0.9811752 -1.1281806 -0.058654252 -0.7156946 -0.43204698 0.25879464 -1.361774 0.02819294
-0.12866506 0.19393392 -2.5944695 0.005232078 -1.7324864 -0.7451131 -1.8226236 0.028222952
-0.98411524 -0.09237754 2.171376 0.44571206 -0.10882642 -0.00075529114 -1.4236941 -0.14219397
0.664292 -0.23489602 -1.9380661 -1.5046097 0.41957793 1.0338379 1.024689 0.6047543
-0.570514 0.2960641 -1.5505956 -0.12137296 -0.44356632 0.23777771 -1.588674 0.034042254
-0.308576 0.020311207 -0.2707277 -0.45271155 0.09232097 -0.6098504 1.563716 -0.03894283
-0.4658248 0.21736813 -1.675216 -0.1411147 0.048614655 -0.40991682 -0.82133204 -0.3048026
-0.9110926 -1.3949184 -2.0898428 -1.1483521 1.0432411 0.37765098 -0.30626902 0.06937873

linear.bias f4 [512]
00000000: 67dc 0bbe ae36 ad3f dec5 cc3c 1af6 b43f
00000010: 2ed7 9c3f 8d8b bf3f 5d09 21be f664 c83e
00000020: 367e cb3f 22d9 b43f 6b16 543f 6538 a83f
00000030: 3412 8e3f 2ae0 9f3f 88d5 dc3e cf84 6c3f
00000040: 6442 ac3e a4ac bd3f e63c 813f 4e6f c73f
00000050: de74 113f 63ec 8d3f 8cf5 703e bd08 aa3f
00000060: 0ca7 b43d 570c 493f 7fa1 c43f eb84 4d3f
00000070: 28cf b03f 69a6 91be cc39 4d3e 9421 24be
00000080: 77cb bf3e 601f a1be 47ec 0fbe 3223 4cbd
00000090: 590e 59be 28bf a63e 3a4e 8bbe c799 a03f
000000a0: bd2c 723f 70cd 61be 73c4 de3e 4ba6 24bf
000000b0: feeb bc3f 5e03 d9be 6c00 833f f8da a73f
000000c0: 1c17 5ebc 85b5 913f 1ad2 e13e 6eeb 6f3f
000000d0: 2ba7 c03e e7f3 5c3f 755a 6a3f 22d1 af3e
000000e0: bfd6 b43f 4241 973f 003d a33f e24f 4f3f
000000f0: 4085 a93f 3417 a23f 33a7 24be a5aa 543f
00000100: abf7 973f aaf7 4e3f d706 6a3f 218a 52be
00000110: 69bc 393f bd78 80be b689 ae3f f4f5 873f
00000120: 2c87 693e 3929 9e3f 208c bcbe 4f9d 7f3f
00000130: 05b9 d83d 4852 9d3f 373c ac3f 9108 a43f
00000140: 2154 a73f c13c 953e 6723 653e fdce 353f
00000150: 357b 6a3f 998c 85be 9aac bf3f eb52 2a3f
00000160: f058 a23f 68fc e2be 15e8 c63f 588c ad3f
00000170: 9749 9dbe 8a53 c43f 4fb6 343f e6ed 09bf
00000180: 2e70 3a3f 7f2e 1abf e97e 78be c446 6a3f
00000190: 4e17 013c 535b 383f 61ba a63f c12b ae3f
000001a0: 919d 9d3f 55c9 233c ab18 8f3e f890 363f
000001b0: 128c 9f3f 5324 583f db5f d03f eba8 b73e
000001c0: f9d6 b23f b25d 3ebe 550d bcbe 5462 2fbe
000001d0: 8d68 e4be 2f9f 4dbe 13c7 a33f 5a58 093f
000001e0: c3ba 8e3f 559d 423f 94b4 b9bd f4ca 413f
000001f0: 459c 8c3f 7eb1 2c3f c2b2 5d3f 6f06 943f
00000200: 59b0 a43f ae09 7d3e 9dbc 983f 92e6 ae3f
00000210: 3ca1 febe 1e3a 91bf b316 b03f 82dd 03bf
00000220: a849 4e3f bfff c43f a333 1a3f fd6d eebe
00000230: a121 b7bc bee1 563f c813 45bf 7130 bf3f
00000240: 52a5 84bf 4c33 003f c80d f63e 3713 aa3f
00000250: 3e33 943f a4c1 80bf e3d2 603f f8ad a1bf
00000260: 6cfb aa3f 42be 5b3e f6f0 973f 95ab b73f
00000270: 0bf9 a73f 2ba8 a73f 9bf5 673f bf70 8b3f
00000280: 0997 343f b8b2 863f 222f 38bf e9a9 953f
00000290: 2c1d 813f 645f 153d 6888 9a3f bea4 a83f
000002a0: af17 a03f 1818 0d3f 384d e1be 3779 8dbe
000002b0: 7746 b03f f70c ec3e ff5d 273f c355 633f
000002c0: aeb3 863f 72d8 3c3f e9b9 cd3f 3bd3 1dbf
000002d0: 6a97 ad3f f493 583e af39 933e b677 7d3f
000002e0: d117 eb3e 2d48 033f 5c18 543f 8e85 ad3f
000002f0: 7e3d 8f3f ace5 aa3f 9819 af3f f02c 133f
00000300: da6f 833f 1902 eebe 1d24 8ebf c805 da3e
00000310: 6c85 9c3f 63f5 943f 89fb 073f 61d1 193f
00000320: 8d54 913f 069e a5be 1312 8e3f d616 aa3f
00000330: ea5f ac3f ce9d b03f e30f 7b3f 940c 8f3f
00000340: 4532 9f3f 14f8 2bbe 2d68 953e 9722 af3f
00000350: e2b9 373f d60c 763f a133 b83f c075 943e
00000360: 876e a53f 6fb6 29bd f6db 9d3f 3355 72be
00000370: b9e7 9e3f 0acb f9be f734 963f df4a 6c3f
00000380: 5788 9e3f b541 243f bf17 8e3f 762f a03f
00000390: 7081 1f3f 92c2 b6bf 32b9 e73e 1416 9d3e
000003a0: 61d0 ad3f 4733 c83f 22fe 213f c577 a7bf
000003b0: 2e13 183f 148b 0e3f 478f 9abe ec7c 8a3f
000003c0: cdf7 51bf 89ae cebe 7c2e 6c3f b4d1 0c3f
000003d0: afb3 933f bbab ff3e f54d 3e3e da62 04bf
000003e0: d86e 8a3f 595f 8c3f 6500 9e3f 5689 86bf
000003f0: dd99 b13e e705 86be 6f8d 833f fb7c 993f
-0.13658296 1.3532312 0.024996694 1.4137604 1.2253168 1.4964463 -0.15726228 0.39139527
1.5897892 1.4128764 0.8284671 1.314221 1.1099305 1.2490284 0.4313166 0.9239015
0.33644402 1.4818311 1.009671 1.5580842 0.5681895 1.1087765 0.23531169 1.3283917
0.08820924 0.78534454 1.5361785 0.8028094 1.3813219 -0.28447273 0.20041579 -0.16028434
0.3745992 -0.3146925 -0.14054976 -0.049838252 -0.2119688 0.32567716 -0.2720812 1.2546929
0.94599515 -0.22051024 0.43509254 -0.6431624 1.4759519 -0.4238538 1.0234504 1.3113699
-0.013555314 1.138352 0.44105607 0.9371861 0.3762754 0.86309665 0.91544276 0.34339243
1.4128035 1.181679 1.2752991 0.80981266 1.324379 1.2663331 -0.16079406 0.8307288
1.1872457 0.80846655 0.91416687 -0.20560504 0.72553116 -0.25092116 1.3635776 1.0621934
0.2280547 1.235633 -0.36825657 0.9984941 0.10582165 1.2290735 1.3455876 1.2815114
1.3072549 0.29147914 0.22376786 0.71018964 0.9159425 -0.2608383 1.4974549 0.6653277
1.2683392 -0.44333196 1.5539576 1.3558455 -0.30720207 1.5337994 0.7059068 -0.5387863
0.7282742 -0.602272 -0.24267162 0.9151423 0.007879091 0.7201435 1.3025628 1.3607103
1.231371 0.009996732 0.27948508 0.71314955 1.2464621 0.84430426 1.6279253 0.35871062
1.3971854 -0.1859043 -0.36728922 -0.17127353 -0.44611016 -0.20080255 1.2795128 0.5365044
1.1150745 0.7602132 -0.09067646 0.75700307 1.098519 0.6745833 0.8660089 1.1564463
1.2866317 0.24710724 1.193256 1.3664114 -0.49732387 -1.1345861 1.3756927 -0.5150987
0.8058114 1.5390548 0.6023504 -0.4656829 -0.022354903 0.83938205 -0.7698331 1.4936658
-1.0362952 0.5007827 0.4805739 1.3287114 1.1578138 -1.0059094 0.8782179 -1.2631216
1.3357978 0.21459296 1.187041 1.4349238 1.3122877 1.3098196 0.9060914 1.0893782
0.7054296 1.0523291 -0.7194692 1.1692477 1.0087028 0.036467925 1.2072878 1.3175275
1.2507228 0.5511489 -0.44004226 -0.27631542 1.3771504 0.4610364 0.653778 0.88802737
1.0523584 0.7376777 1.607236 -0.6165044 1.3561833 0.2115019 0.28754947 0.9901079
0.45916608 0.51282007 0.8284967 1.3556383 1.1190641 1.335134 1.3679686 0.57490444
1.0268509 -0.46485975 -1.1104771 0.42582536 1.2228217 1.1637386 0.5311819 0.6008511
1.1353928 -0.32347125 1.1099266 1.3288219 1.3466771 1.3798158 0.98071116 1.1175714
1.2437216 -0.16793853 0.29181042 1.3682431 0.7176801 0.96113336 1.4390756 0.28996086
1.2924355 -0.041433748 1.2332752 -0.23665313 1.2414466 -0.4878772 1.1734914 0.92301744
1.2385358 0.6416276 1.1100997 1.2514484 0.6230688 -1.4278128 0.4525848 0.30680907
1.3579217 1.5640649 0.632784 -1.3083426 0.59404266 0.55680966 -0.30187437 1.0819373
-0.8201874 -0.40367535 0.9225843 0.5500748 1.153921 0.49935707 0.18584426 -0.51713336
1.0815077 1.0966598 1.234387 -1.0510662 0.346877 -0.26176378 1.0277537 1.1991266

linear2.weight f4 [2, 512]
00000000: 9cce 5cc0 26dd 8cbf 39c9 ddbf 34fb 553f
00000010: 312c 9d3f 02a5 c8bf 7b54 e5bf e9bf 4fbf
00000020: 7091 803f 9371 333f 62fb 0bc0 bbf4 313f
00000030: ab2a 023f f688 903f ee8b c5bf 3784 4e40
00000040: e66f d4bf 31bb 853f c6c3 10c0 514d e8bf
00000050: 3482 d2bf b20a b2bf 0195 3d40 0290 923f
00000060: 645c f8bf 20e4 ea3f 4fe6 7c3f 8538 5ec0
00000070: 0f71 8d3f bc4e 59c0 918c 12bf b0d7 533f
00000080: f607 233f b5cc c0c0 3f19 3ec0 84e7 a53f
00000090: fa45 cf3f bedf 983f 04eb fbbf b501 3c3f
000000a0: ac5b babf 7e8f aabf 4fd1 e63e f547 913f
000000b0: 1166 603f 58c0 87c0 02dd 9b3f 4fdf 3cbf
000000c0: b6c0 593f 5cec 583f 2557 8cbf b5fc 4f3f
000000d0: 68aa 9fbf bcb0 403f 4ea2 afbf 5714 debf
000000e0: 7d1f 543f 6286 f73e c0d0 943f 2859 e33f
000000f0: af52 693f dc71 443f be64 d83f 39c0 98bf
00000100: 7d47 8b3f 25b2 363f 930d 4d3f d6b0 dcbf
00000110: 15a2 40c0 42a5 2b40 2fdb 363f 79a4 5a3f
00000120: 0fae f7bf 35f4 8c3f 5f3d 7e40 4bee 4d3f
00000130: c153 e1bf c44f 8a3f d0d3 263f 4a3e 333f
00000140: 10c8 703f 95b9 6f3f 8975 f5bf 0458 5640
00000150: d241 b23f cda1 c83f f48c 1bc0 49bf 613f
00000160: 2960 273f ab86 cbbb 912f 473f 1021 843f
00000170: 5274 91c0 5fa2 683f 7d87 6540 6156 d4bf
00000180: 2350 0640 f939 69c0 c370 e23f eda4 f23f
00000190: 7351 e53f 6a4d d0be 991d 463f f614 863f
000001a0: c308 0f3f 049c e23f 1e62 533f 15d6 f4bf
000001b0: 787b 883f d8a0 c9bf cc97 bfbf 2673 1340
000001c0: 8a65 3e3f 6e1d b73f 831a 0ac0 4e40 a03f
000001d0: 1ecb e0bf 297a 49c0 b795 8c3f 4fee 713f
000001e0: 030b 06bf 8a2c 633f f12f b1bf 17f4 85bf
000001f0: da12 eabf 83aa 503f 5480 e83f 9b33 1b3f
00000200: 7b55 433f 200a 823f 6c9e b4bf 6b91 25bf
00000210: 594f 0d40 27d1 0840 6b2b 5b3f 4bad 3fc0
00000220: 3409 90bf d47e 823f ced6 2340 fe81 c13f
00000230: 40e8 303f f88d 59c0 1295 9bbe fb8e c2bf
00000240: 7cfd 47c0 b9be afbf 6b11 c03f 1fac 963f
00000250: 612f ab3f d4b5 ba3f 980a 32bf e203 0a40
00000260: 7b31 843f 9a8f 44bf 64bd 163f 9a69 803f
00000270: 8a9a d3bf 118f 113f 0586 5fbf a9be 3dbf
00000280: 15a1 bfbf 9499 0fc0 1450 7f3f dba7 cbbf
00000290: 9ff0 473f a63c 30c0 1cd1 373f 7c09 853f
000002a0: 8b29 033f 80d7 a2bf 93a7 86bf 3a88 cdbf
000002b0: 55cb 893f a390 9e3f 55f5 92bf 40a6 acbf
000002c0: 5270 06bf d215 0cc0 ae78 5f3f f8e7 66c0
000002d0: 9e1c 3b3f 29fc 37c0 e8de c03f f77c 4cbf
000002e0: 57ec 843f b96a dbbf 9079 7dbf 9cb7 473f
000002f0: b08f 433f 2138 903f 6cfc 1e3f 666d de3f
00000300: a8a8 9bbf f7e3 d4bf afad c5bf 45b5 b0be
00000310: a2a0 9fbf 8230 343f 8c83 08c0 c346 f63f
00000320: d15d 8f3f 7d72 c0bf dd32 a23f 10c7 2d3f
00000330: 843b 473f 8d08 703f cbfb a7bf c2b8 993f
00000340: 62fc 473f 73a7 e63f f566 2140 4def 283f
00000350: 89eb 06c0 7d9a d5bf eef3 683f 5edd 183f
00000360: f1a9 7f3f 3ad9 0fc0 3e2b 3a3f 4e13 0640
00000370: adf7 16bf abc8 abbf 8382 2c3f f193 333f
00000380: b45d 303f 902c d03f f5c4 8f3f c12a 433f
00000390: 1ff6 25c0 51e2 93c0 da36 7cbf 2d7e f83f
000003a0: ce08 8a3f 0c64 bdbf 113b b0bf 02c5 5740
000003b0: 570a 803e 05b3 1abf 5379 24c0 846c 453f
000003c0: 777a 77c0 872f 4ac0 ef06 1e40 622b b03f
000003d0: 465b e03d 3a91 f93f 9ac8 b33f 2ccd 6dc0
000003e0: e0ff 373f 5cfe 483f 2579 813f 8148 8ec0
000003f0: e4ef 43c0 45b2 5ac0 6677 ce3e 5940 393f
-3.4501104 -1.1004989 -1.7327033 0.8358643 1.2279111 -1.5675356 -1.7916406 -0.81152207
1.0044384 0.70095176 -2.1872182 0.69514054 0.50846356 1.1291797 -1.5433328 3.2268198
-1.6596649 1.0447751 -2.261949 -1.8148595 -1.6445985 -1.3909514 2.9622195 1.1450198
-1.9403195 1.8350868 0.98788923 -3.4721997 1.1050128 -3.3954306 -0.5724574 0.8275099
0.6368402 -6.0249887 -2.970291 1.2961278 1.619323 1.1943281 -1.9681096 0.73440105
-1.4559226 -1.332504 0.45081565 1.1350085 0.8765574 -4.2422295 1.2176821 -0.7377824
0.8505968 0.84735656 -1.0964094 0.81244975 -1.2473879 0.75269675 -1.3721406 -1.7349957
0.8286055 0.48344713 1.1626205 1.7761583 0.9114179 0.76736236 1.6905744 -1.1933662
1.0881191 0.71365577 0.8009884 -1.7241466 -3.0098927 2.6819615 0.714282 0.85407215
-1.9349993 1.1012026 3.9724958 0.8044173 -1.7603685 1.0805593 0.6516695 0.7001692
0.9405527 0.9364255 -1.9176494 3.349122 1.3926337 1.5674378 -2.430478 0.88182503
0.65381104 -0.006211122 0.77806956 1.032259 -4.5454493 0.9087276 3.5863945 -1.6588861
2.0986412 -3.6441634 1.7690662 1.8956581 1.7915481 -0.40684062 0.7738891 1.0475147
0.55872744 1.7703862 0.8257159 -1.9127833 1.066268 -1.5752211 -1.49682 2.303903
0.74373686 1.4305856 -2.1578681 1.2519624 -1.7561986 -3.148081 1.0983189 0.94504255
-0.5236055 0.88739836 -1.3842756 -1.0465115 -1.8287003 0.8151018 1.8164163 0.6062562
0.7630231 1.015934 -1.4110847 -0.64675015 2.207968 2.1377656 0.85613126 -2.994952
-1.1252809 1.0194955 2.5599856 1.5117795 0.69104385 -3.39929 -0.3038717 -1.5199884
-3.1248465 -1.3730079 1.5005316 1.1771277 1.3373834 1.458674 -0.69547415 2.156487
1.03276 -0.7678162 0.5888274 1.0032227 -1.6531537 0.56858927 -0.8731387 -0.7411905
-1.4971033 -2.2437487 0.99731565 -1.59106 0.78101534 -2.7537017 0.7180345 1.0393519
0.51235265 -1.2722015 -1.051989 -1.6057198 1.0765177 1.238789 -1.1481119 -1.3488235
-0.5251514 -2.1888318 0.8729352 -3.6079082 0.7309054 -2.8747656 1.5068026 -0.7987818
1.0384625 -1.7141944 -0.99013615 0.7801454 0.76391125 1.1267129 0.62103915 1.7377136
-1.2160845 -1.6632069 -1.5443629 -0.34513298 -1.2470896 0.7038652 -2.133029 1.9240345
1.1200505 -1.5034939 1.2671772 0.6788187 0.7782519 0.9376305 -1.3123716 1.2009509
0.7811948 1.8019851 2.521909 0.65990144 -2.108126 -1.6687771 0.9099721 0.5971278
0.99868685 -2.2476335 0.7272223 2.0949283 -0.58971673 -1.3420614 0.67386645 0.70147616
0.6889298 1.6263599 1.1231982 0.7623711 -2.593147 -4.6213765 -0.98521197 1.9413506
1.0783937 -1.4796157 -1.3768026 3.3713994 0.2500789 -0.6042941 -2.569905 0.77118707
-3.8668497 -3.1591508 2.4691732 1.3763239 0.10954909 1.9497445 1.4045594 -3.7156477
0.7187481 0.7851312 1.0115095 -4.4463506 -3.0615168 -3.4171307 0.4032547 0.7236381

linear2.bias f4 [2]
00000000: d8cf 0c3f 58c4 d13e
0.55004644 0.4097011
